checkpoint/Densenet100-3-4_0.pth (torch_old, 429495 bytes, 498 tensors)

weight f4 [24, 3, 3, 3]
-0.25596714 -0.27122763 -0.19718494 -0.04681019 -0.019177811 0.039880767 0.22348762 0.31923288
0.16996744 -0.03817202 0.042453498 -0.07651735 0.09014603 0.20079242 0.13807128 0.10529305
0.2483465 0.12905557 0.27660578 0.32077527 0.07940408 0.17239188 0.20089716 0.082378276
-0.28559175 -0.2732343 -0.34364447 -0.24012278 -0.37738234 -0.11119229 -0.19963314 -0.13473578
0.054002583 0.23993848 0.31481987 0.1859536 -0.37784675 -0.46175712 -0.22991483 -0.20414999
-0.13241728 0.009694192 0.39410654 0.5319959 0.28085455 -0.2519529 -0.44875273 -0.23718727
-0.07522159 -0.07110444 0.00883188 0.5029312 0.5913084 0.37278432 -0.03706898 0.3871682
-0.058509927 0.3594074 -1.018873 0.425691 -0.085076384 0.11474559 -0.12310776 0.019052818
-0.21847509 -0.0017693343 0.57303846 -1.5722259 0.48298353 -0.009273933 0.45302773 0.032378174
-0.10012245 0.1806406 -0.012490984 0.49570015 -0.39883533 0.30635166 -0.059514064 -0.09097858
0.00025363453 0.20321113 0.14490283 0.24834761 -0.091016546 -0.33256263 0.17463568 0.101748236
-0.08964411 0.20602034 0.07215045 -0.37303358 0.028454708 -0.18908687 -0.85977906 -0.08151933
0.23011668 -0.24523827 0.12029859 -0.04472582 -0.21100143 -0.08208646 -0.2449076 -0.63659626
-0.19171615 0.012619565 -0.25395632 -0.11216279 0.3298049 0.27784988 0.39757353 0.2761728
0.27519885 0.3804219 0.13006164 0.17190547 0.25412732 0.003274852 -0.105279066 -0.0008658145
-0.018702805 -0.113491274 -0.050477814 -0.059924547 -0.11412184 -0.069982305 0.03700982 -0.08389401
-0.01651667 -0.07381734 -0.2306674 -0.178826 -0.15892659 -0.29139256 -0.24531662 0.026486924
0.50631475 -0.0053273956 0.024392778 -0.69675094 -0.013082054 0.02096631 0.42862147 -0.07335863
-0.0621877 0.43259236 0.030699223 -0.20844474 -1.3557236 -0.036734596 0.06844068 0.5728481
0.25124797 0.026357193 0.38987094 0.06142854 -0.0077854916 -0.48578793 -0.03491117 0.010436769
0.29483777 -0.04111716 0.05336107 0.18714373 0.053903874 0.30852184 0.62291616 0.38067427
0.03278015 0.361358 0.09771182 -0.09866137 -0.2598743 0.041454032 -0.68153024 -1.0982503
-0.612699 -0.53578126 -0.95310146 -0.58016914 0.08928267 0.17988557 0.062211044 0.3814235
0.32060498 0.31718206 0.4972325 0.49297887 0.45732 -0.6620992 -0.95486265 -0.59134895
0.1016531 0.15510675 0.15189049 0.7551241 1.0937476 0.78025293 0.250593 0.21856125
0.2650969 -0.113753386 -0.37405574 -0.16003741 -0.05797459 -0.41816717 -0.08064324 0.35007757
0.77356714 0.28432897 0.12234652 0.029922517 0.01954129 -0.538633 -0.8952576 -0.48824343
0.25900215 -0.0761146 -0.14848824 0.66034746 -0.1464116 -0.6033375 0.13555065 -0.00917784
-0.03473131 0.37899932 -0.20391545 -0.42808014 0.8949533 -0.18066832 -0.8739115 0.23123877
0.04044788 -0.17998691 0.13668308 -0.16890308 -0.13819277 0.702475 -0.09296397 -0.5961742
0.096411906 0.03841592 -0.04001909 0.12970223 -0.109029256 0.15013461 -0.1392205 -0.30361146
0.49863684 0.06064696 -0.14648284 0.030052857 -0.13315181 -0.36112666 0.27448022 -0.3587868
00000000: 200e 83be 59de 8abe d9ea 49be 0bbc 3fbd
00000010: c91a 9dbc 045a 233d f0d9 643e 7e72 a33e
00000020: f20b 2e3e 445a 1cbd b8e3 2d3d 21b5 9cbd
00000030: 7b9e b83d 879c 4d3e 8f62 0d3e e2a3 d73d
00000040: 8b4e 7e3e 2527 043e 469f 8d3e a83c a43e
00000050: 9b9e a23d 7f87 303e fcb7 4d3e f1b5 a83d
00000060: 1539 92be 5ee5 8bbe 2bf2 afbe bfe2 75be
00000070: 4238 c1be c9b8 e3bd a16c 4cbe 2df8 09be
00000080: d031 5d3d 6fb2 753e 1230 a13e 9f6a 3e3e
00000090: 2175 c1be 6e6b ecbe cb6e 6bbe b20c 51be
000000a0: 6598 07be 63d4 1e3c 55c8 c93e e230 083f
000000b0: 2bcc 8f3e f8ff 80be ebc2 e5be 38e1 72be
000000c0: c70d 9abd 349f 91bd 97b3 103c 19c0 003f
000000d0: fd5f 173f 96dd be3e a5d5 17bd e93a c63e
000000e0: 1ba8 6fbd 3f04 b83e 6e6a 82bf 2cf4 d93e
000000f0: 873c aebd bcff ea3d ec1f fcbd a814 9c3c
00000100: efb7 5fbe 02e9 e7ba a6b2 123f b33e c9bf
00000110: 9e49 f73e b2f1 17bc 40f3 e73e fa9e 043d
00000120: 000d cdbd d9f9 383e fca6 4cbc 69cc fd3e
00000130: 2534 ccbe 20da 9c3e 05c5 73bd fa52 babd
00000140: 40fa 8439 9416 503e 6861 143e d64e 7e3e
00000150: e266 babd a645 aabe b2d3 323e 6161 d03d
00000160: 5597 b7bd fff6 523e 9dc3 933d 42fe bebe
00000170: d919 e93c fd9f 41be 7b1a 5cbf 9bf3 a6bd
00000180: b5a3 6b3e be1f 7bbe 1b5f f63d 6c32 37bd
00000190: c210 58be f21c a8bd 0fc9 7abe f9f7 22bf
000001a0: 3d51 44be 4bc2 4e3c 9006 82be 9bb5 e5bd
000001b0: 30dc a83e 5742 8e3e c28e cb3e 8566 8d3e
000001c0: dde6 8c3e a9c6 c23e e12e 053e fd07 303e
000001d0: fa1c 823e e69e 563b 8d9c d7bd d4f7 62ba
000001e0: a036 99bc 1d6e e8bd d3c1 4ebd 7173 75bd
000001f0: b6b8 e9bd e252 8fbd 9c97 173d 9fd0 abbd
00000200: f84d 87bc 8c2d 97bd 1334 6cbe 2a1e 37be
00000210: a7bd 22be 6831 95be 4834 7bbe 1bfb d83c
00000220: d89d 013f 6f91 aebb 5dd3 c73c 455e 32bf
00000230: 1d56 56bc 8ac1 ab3c 4674 db3e 0d3d 96bd
00000240: 88b8 7ebd bf7c dd3e f07c fb3c 8a72 55be
00000250: 5a88 adbf 0477 16bd a12a 8c3d 2ca6 123f
00000260: 93a3 803e 0aeb d73c 2a9d c73e 7e9c 7b3d
00000270: 701d ffbb 32b9 f8be 04ff 0ebd fbfe 2a3c
00000280: faf4 963e 786a 28bd 2391 5a3d 9ba2 3f3e
00000290: 4fca 5c3d 93f6 9d3e 6f77 1f3f bde7 c23e
000002a0: 7b44 063d ea03 b93e 221d c83d f90e cabd
000002b0: 3f0e 85be b4cb 293d c478 2ebf 7793 8cbf
000002c0: d7d9 1cbf f628 09bf 75fe 73bf f785 14bf
000002d0: d5d9 b63d ec33 383e 02d1 7e3d f149 c33e
000002e0: 5626 a43e b065 a23e 4295 fe3e ba67 fc3e
000002f0: d925 ea3e 557f 29bf e171 74bf a562 17bf
00000300: 802f d03d 4ed4 1e3e 2e89 1b3e d04f 413f
00000310: ecff 8b3f a8be 473f ba4d 803e 85ce 5f3e
00000320: c8ba 873e 89f7 e8bd 3c84 bfbe d9e0 23be
00000330: c476 6dbd 021a d6be 4828 a5bd 5e3d b33e
00000340: 7f08 463f 9193 913e d090 fa3d 1120 f53c
00000350: 0e15 a03c dae3 09bf 9a2f 65bf 0bfb f9be
00000360: ee9b 843e f9e1 9bbd 4d0d 18be 880c 293f
00000370: ecec 15be 5474 1abf cacd 0a3e a75e 16bc
00000380: 6b42 0ebd 330c c23e 36cf 50be 522d dbbe
00000390: a91b 653f 1e01 39be aab8 5fbf dbc9 6c3e
000003a0: adac 253d 7d4e 38be a6f6 0b3e eef4 2cbe
000003b0: 6882 0dbe 67d5 333f e563 bebd df9e 18bf
000003c0: 9b73 c53d 035a 1d3d 0feb 23bd a9d0 043e
000003d0: bb4a dfbd e3bc 193e d28f 0ebe f672 9bbe
000003e0: 544d ff3e f268 783d 99ff 15be 6931 f63c
000003f0: f358 08be 98e5 b8be ac88 8c3e e7b2 b7be

weight f4 [24]
0.33162194 0.17442904 0.20450835 0.6416566 0.24567047 0.26078328 0.2926986 0.27308837
0.33077267 4.4235894e-06 0.17105053 0.22284694 0.056677174 0.27311656 0.33815396 0.3374706
0.14929004 0.0029475987 0.2016511 0.019038286 9.799645e-05 0.24323405 0.16030796 0.23105964
00000000: 5aca a93e 879d 323e a36a 513e 9b43 243f
00000010: 0a91 7b3e 6385 853e 97dc 953e 3dd2 8b3e
00000020: 095b a93e 586e 9436 df27 2f3e fd31 643e
00000030: 5326 683d efd5 8b3e 8422 ad3e f2c8 ac3e
00000040: 7ddf 183e 802c 413b a07d 4e3e 2ef6 9b3c
00000050: 7283 cd38 5912 793e c527 243e e69a 6c3e

bias f4 [24]
0.09176043 0.01767875 0.10320582 -0.24117117 -0.045669198 -0.13093457 0.2883736 0.43856275
-0.068569824 -3.444896e-05 0.0029466178 0.261514 -0.017633148 -0.18464309 -0.23097862 0.20234478
-0.0073486078 -0.037438083 0.37540045 0.002344027 -0.0006213633 0.9375294 -0.108103134 0.18997279
00000000: e4ec bb3d 07d3 903c 935d d33d 93f5 76be
00000010: a00f 3bbd b613 06be b4a5 933e 4c8b e03e
00000020: 566e 8cbd 4a7d 10b8 0b1c 413b 2ae5 853e
00000030: 6473 90bc 1413 3dbe a985 6cbe 7833 4f3e
00000040: 97cc f0bb ad58 19bd 7d34 c03e 3f9e 193b
00000050: fce2 22ba ed01 703f 2d65 ddbd 3a88 423e

running_mean f4 [24]
-0.3271046 0.042154778 0.08616503 0.81309664 -0.24074085 0.06486311 0.026083244 0.0014532532
0.12907283 0.0976643 -0.010958952 -0.04452817 0.6845179 -0.2780857 -0.11874068 0.25274295
0.5486948 0.11437248 -0.05385381 -0.03364902 0.18532601 0.020707233 -0.16615024 -0.06419718
00000000: 417a a7be 7daa 2c3d 4b77 b03d 1a27 503f
00000010: c584 76be f3d6 843d 87ac d53c 167b be3a
00000020: ab2b 043e 3804 c83d 2d8d 33bc 2c63 36bd
00000030: 913c 2f3f 4061 8ebe 502e f3bd 8667 813e
00000040: 4377 0c3f 1e3c ea3d d095 5cbd 8ed3 09bd
00000050: 1ac6 3d3e 37a2 a93c 4a23 2abe d079 83bd

running_var f4 [24]
1.9695138 9.062978 1.339808 12.844382 2.6401086 2.0207937 1.9654492 0.9161277
9.503404 3.8074927 0.7439513 0.9785492 7.5423493 3.7796514 8.577005 4.0559783
5.0247345 2.5990443 0.46881855 7.5083103 15.687949 1.108431 6.008055 1.7826027
00000000: 0719 fc3f f501 1141 d47e ab3f 9782 4d41
00000010: 8af7 2840 af54 0140 d793 fb3f 5887 6a3f
00000020: f10d 1841 f6ad 7340 9873 3e3f 3382 7a3f
00000030: ed5a f140 cfe5 7140 6a3b 0941 93ca 8140
00000040: a0ca a040 be56 2640 fc08 f03e 1444 f040
00000050: d701 7b41 11e1 8d3f fd41 c040 532c e43f

weight f4 [12, 24, 1, 1]
-0.0041248263 0.020043772 -0.20722216 -0.30215386 -0.10621858 -0.07281352 -0.07212167 0.09588307
-0.29413536 1.31780525e-05 -0.026274785 0.12146462 -0.008128248 0.049424887 -0.028160306 0.041510843
-0.0096736355 -0.007559667 -0.049371626 4.7912286e-05 -2.4868574e-05 0.5015081 -0.17653611 -0.0328034
-0.03550738 -0.056030765 -0.07202414 -0.08743258 0.1342889 0.033559207 -0.25067377 -0.32505488
-0.016488243 -1.24642775e-05 -0.011676332 0.05649861 -0.035586655 0.027868172 0.13748424 -0.225375
0.014817742 0.03843732 0.21931383 -0.004776733 -0.0003581532 0.040867016 -0.040034067 0.28835914
-0.19071758 -0.06299596 0.08305015 0.6078346 -0.1733519 -0.095292605 -0.030199911 -0.06745824
0.10569938 -4.4925005e-06 0.06273441 -0.07002378 -0.021328151 0.073674075 -0.009378716 -0.42408052
-0.12063003 -0.0055167354 -0.0069181374 0.0018076793 0.00013243436 0.07413277 -0.0113877775 -0.2086997
-0.08080689 -0.011928094 0.04328063 -0.11186521 -0.16548511 0.069164716 -0.23204525 -0.24002087
0.039412074 -8.478024e-06 -0.10263101 -0.19705342 -0.026273748 -0.05845848 0.03734003 -0.22017208
-0.040377576 -0.003007256 0.06263886 -0.0128339855 -0.00010472076 -0.22247894 -0.0012606813 0.013438983
0.24126315 -0.0028028036 0.15051392 0.20054063 0.07820989 0.06984574 -0.09214653 0.02087961
-0.058981266 7.1296554e-06 0.056377113 0.28772292 0.0088274 -0.19633597 -0.059630197 -0.1714777
0.05655002 0.023323186 0.09607062 0.007846612 -0.00013983625 0.06274014 -0.04750375 0.051580228
-0.01563993 0.067124136 0.04335723 -0.015456295 0.03811687 0.062036403 0.10280599 -0.014198708
0.009852345 2.4068973e-05 -0.003143913 -0.023442652 0.012459956 0.06785527 0.0054706894 0.19277295
0.08509619 -0.00054310093 0.08172635 -0.0045661484 0.00021410568 0.15638494 0.004865547 0.099905394
0.016272 0.13087593 0.061476003 0.11717944 -0.016163342 0.22630432 -0.12931907 0.10831476
0.11944454 1.9040546e-05 0.019483713 -0.079498805 0.023512926 0.025997426 0.076040566 0.01070821
0.060005177 0.014062965 -0.08648326 9.5535834e-05 0.00049724866 0.07116832 0.03228808 0.1639716
-0.13297246 -0.05283854 -0.11473595 0.12948312 -0.08350198 -0.028417008 0.41710967 0.23662233
-0.10057413 -4.914097e-07 -0.048075512 0.13612776 -0.003787826 -0.07478799 -0.1285735 -0.19897322
-0.0707269 -0.02078123 -0.26096573 0.005260829 -0.000378638 0.039436422 -0.06539325 -0.15101278
0.040338643 0.002140783 -0.14559479 -0.11485897 -0.011381795 -0.08981073 -0.058685675 0.005014918
-0.08816903 -1.9511579e-05 -0.08927193 0.10745636 -0.016602674 0.062475838 -0.332915 -0.092915304
-0.018937776 -0.016818779 -0.13907334 0.004719184 -0.00014876747 -0.60599864 0.0048389635 -0.16189054
-0.18623236 -0.16562967 -0.040204827 -0.051393017 -0.18332145 0.18380162 -0.10051972 -0.36683825
0.026824506 -1.1893823e-05 -0.11851345 0.15916114 0.0033220102 -0.18611875 -0.14598928 -0.059024423
0.011104943 -0.015416193 -0.092690006 -0.010992934 -9.50549e-05 0.20977758 -0.01346744 0.05121169
0.31275865 -0.09982325 -0.043528933 -0.29027542 -0.05677382 -0.09533479 0.07291153 0.2595596
-0.12798385 -9.0291536e-07 -0.07157897 -0.35528892 0.028652426 0.13522954 -0.06883398 0.06603809
00000000: 8d29 87bb d632 a43c 0c32 54be e9b3 9abe
00000010: 2089 d9bd 411f 95bd 87b4 93bd 585e c43d
00000020: e998 96be 4e17 5d37 383e d7bc 71c2 f83d
00000030: 582c 05bc c071 4a3d 71b0 e6bc 4607 2a3d
00000040: 2b7e 1ebc 15b7 f7bb e739 4abd 6df5 4838
00000050: db9c d0b7 d662 003f e2c5 34be dc5c 06bd
00000060: 3070 11bd 8480 65bd 6481 93bd da0f b3bd
00000070: 0883 093e 6175 093d 5058 80be 986d a6be
00000080: 5a12 87bc aa1d 51b7 164e 3fbc 166b 673d
00000090: 50c3 11bd cb4b e43c abc8 0c3e b4c8 66be
000000a0: 1dc6 723c 7470 1d3d ce93 603e 2486 9cbb
000000b0: 82c6 bbb9 2c64 273d c3fa 23bd cfa3 933e
000000c0: 784b 43be 0704 81bd 3216 aa3d 0c9b 1b3f
000000d0: 2983 31be c528 c3bd ce65 f7bc 8c27 8abd
000000e0: eb78 d83d 49be 96b6 e67a 803d a168 8fbd
000000f0: 60b8 aebc 6fe2 963d 30a9 19bc 1521 d9be
00000100: e10c f7bd bbc5 b4bb 8bb1 e2bb a7ef ec3a
00000110: 14de 0a39 ecd2 973d cd93 3abc 60b5 55be
00000120: 157e a5bd 0d6e 43bc 0847 313d 9619 e5bd
00000130: ee74 29be 3ba6 8d3d 459d 6dbe 08c8 75be
00000140: 8e6e 213d d63c 0eb7 3530 d2bd 5fc8 49be
00000150: 0b3c d7bc 2972 6fbd dcf1 183d ca74 61be
00000160: f562 25bd 6215 45bb cd48 803d a345 52bc
00000170: 889d dbb8 85d1 63be 723d a5ba 2e2f 5c3c
00000180: b00d 773e 3eaf 37bb 5220 1a3e 865a 4d3e
00000190: 822c a03d 490b 8f3d 52b7 bcbd b70b ab3c
000001a0: 5796 71bd 463b ef36 b0eb 663d 6b50 933e
000001b0: cda0 103c 4c0c 49be cb3e 74bd da97 2fbe
000001c0: fea0 673d 4410 bf3c acc0 c43d 138f 003c
000001d0: 02a1 12b9 e77d 803d 4b93 42bd ca45 533d
000001e0: 4f1f 80bc 6178 893d 5a97 313d 663c 7dbc
000001f0: 6f20 1c3d e219 7e3d f28b d23d b3a1 68bc
00000200: bb6b 213c bae7 c937 1c0a 4ebb ce0a c0bc
00000210: d824 4c3c b4f7 8a3d 7843 b33b 4666 453e
00000220: e946 ae3d e35e 0eba 2560 a73d a19f 95bb
00000230: 8e81 6039 6023 203e 2b6f 9f3b 339b cc3d
00000240: db4c 853c 5704 063e 43ce 7b3d c6fb ef3d
00000250: fc68 84bc 52bc 673e 386c 04be 21d4 dd3d
00000260: 579f f43d 43b9 9f37 4f9c 9f3c 45d0 a2bd
00000270: 2e9e c03c 8ef8 d43c 28bb 9b3d 7d71 2f3c
00000280: fdc7 753d 5a68 663c 231e b1bd 695a c838
00000290: cb59 023a b2c0 913d 8140 043d 2ce8 273e
000002a0: ef29 08be 3a6d 58bd affa eabd 3997 043e
000002b0: 1603 abbd c9ca e8bc 668f d53e 204d 723e
000002c0: cff9 cdbd 6be9 03b5 d4ea 44bd 1365 0b3e
000002d0: 2d3d 78bb 722a 99bd c6a8 03be a3bf 4bbe
000002e0: 44d9 90bd 663d aabc 4d9d 85be 0863 ac3b
000002f0: ef83 c6b9 1688 213d e5ec 85bd 18a3 1abe
00000300: 223a 253d 614c 0c3b cd16 15be 2e3b ebbd
00000310: b57a 3abc b0ee b7bd 6460 70bd 2e54 a43b
00000320: f791 b4bd ccac a3b7 34d4 b6bd 1412 dc3d
00000330: 5502 88bc aae6 7f3d d673 aabe 614a bebd
00000340: 6523 9bbc 89c7 89bc 3e69 0ebe 62a3 9a3b
00000350: 77fe 1bb9 ba22 1bbf 2b90 9e3b a2c6 25be
00000360: b2b3 3ebe d39a 29be d1ad 24bd 7c81 52bd
00000370: 9eb8 3bbe 7e36 3c3e 48dd cdbd 39d2 bbbe
00000380: 11bf db3c 958b 47b7 2eb7 f2bd 23fb 223e
00000390: 15b6 593b ea95 3ebe 377e 15be 98c3 71bd
000003a0: 82f1 353c 3394 7cbc 42d4 bdbd b51b 34bc
000003b0: 3658 c7b8 efcf 563e 8aa6 5cbc 59c3 513d
000003c0: e721 a03e 2270 ccbd 654b 32bd fb9e 94be
000003d0: aa8b 68bd e33e c3bd a452 953d ffe4 843e
000003e0: 330e 03be df5f 72b5 ff97 92bd 6ee8 b5be
000003f0: 7eb8 ea3c 9d79 0a3e d4f8 8cbd fa3e 873d

weight f4 [12]
0.40884137 0.21546938 0.6575676 0.2567062 0.34883833 0.28801036 0.3330064 0.36443108
0.31379566 0.42648393 0.30089316 0.4408649
00000000: a853 d13e 01a4 5c3e 5a56 283f ff6e 833e
00000010: f09a b23e 1876 933e d17f aa3e b696 ba3e
00000020: d3a9 a03e 1a5c da3e ab0e 9a3e 0bb9 e13e

bias f4 [12]
0.29956526 0.39975077 -0.26059893 0.048734803 -0.15985192 -0.18239218 -0.23895244 0.06430724
0.4564761 -0.15405309 0.201348 -0.16663729
00000000: 9e60 993e 22ac cc3e 396d 85be 259e 473d
00000010: 39b0 23be 04c5 3abe f3af 74be 84b3 833d
00000020: 3cb7 e93e 18c0 1dbe 2c2e 4e3e f7a2 2abe

running_mean f4 [12]
0.39834845 -0.10310569 -0.08937767 -0.52164674 0.21662326 0.28902623 0.12173285 0.07797212
-0.72590584 -0.08070016 -0.08280336 -0.5245397
00000000: 54f4 cb3e 1329 d3bd a40b b7bd a48a 05bf
00000010: 7dd2 5d3e 3ffb 933e 134f f93d d9af 9f3d
00000020: f7d4 39bf 2046 a5bd cf94 a9bd 3c48 06bf

running_var f4 [12]
0.030627977 0.028987136 0.040669687 0.016201073 0.009810312 0.0062214197 0.008666458 0.023208879
0.03223776 0.019542847 0.037558947 0.018178616
00000000: 86e7 fa3c 6e76 ed3c 4295 263d 1db8 843c
00000010: 6ebb 203c 0ddd cb3b c2fd 0d3c 8c20 be3c
00000020: be0b 043d 5218 a03c 69d7 193d 52eb 943c

weight f4 [3, 12, 3, 3]
-0.11636047 -0.098178394 -0.063599475 0.05779029 -0.34066445 0.085597344 0.047201384 -0.115763284
0.25891712 -0.13787332 -0.004957819 0.23996744 -0.28166524 -0.14565933 0.09473787 0.0058928835
0.11126122 0.074129924 0.08635992 -0.13708031 -0.24030232 0.26098722 0.18806438 -0.089157924
0.23142302 0.039909173 -0.091677256 -0.032105315 0.06847122 0.17975594 -0.12543878 -0.004464544
0.0331467 0.0024161525 0.06950369 0.004163329 0.10161169 -0.011455016 0.034922156 -0.06336131
-0.11509185 -0.034440245 0.045916487 -0.014690495 0.007867091 0.06752408 0.07788201 0.034402467
0.040297896 0.037039008 0.020212937 0.0886048 0.06983678 0.038526207 0.14535803 0.16666572
0.14953145 0.020803057 -0.04682259 -0.04578379 0.042804644 0.031625394 0.049317613 0.2803737
0.011907223 -0.37479916 0.26665115 0.05546078 -0.3267952 0.12162417 -0.023876708 -0.17167827
-0.005436297 0.23770653 -0.06412936 -0.19170755 0.46951926 0.0137042925 -0.104714334 0.14564472
-0.036947966 0.030325048 -0.060778886 -0.077541776 0.03124813 -0.17825083 0.0146798575 0.05648356
-0.11180009 -0.018606529 0.029756885 0.074763775 -0.008653075 -0.072187394 -0.094386145 0.069424614
-0.15329075 -0.16638902 0.2031067 0.022361545 0.18466242 0.084538005 -0.06679507 0.16369446
-0.0044932975 0.07490626 0.08604393 -0.07250597 -0.19496022 0.113363035 0.14039685 -0.47994742
0.006085459 0.37373984 -0.3610929 -0.016704232 0.18806186 0.015027827 -0.043181982 0.016652104
0.028639695 -0.14040993 0.1097564 0.004552362 -0.21387692 0.13846895 -0.012350956 -0.28230217
-0.013298432 -0.11624657 -0.33662993 -0.042483676 0.058095038 -0.13234958 0.11334302 0.1080049
0.0008106438 -0.08028915 0.13004418 -0.010840085 -0.061518088 0.118202336 0.003951778 0.07035918
0.060013313 0.018114517 0.030287081 -0.016760655 -0.08115784 -0.035021182 -0.014188489 -0.14455427
-0.023340562 -0.11457057 -0.11751408 -0.12793869 -0.07475874 -0.05622528 -0.060362153 -0.057299387
-0.021005338 -0.018859673 -0.028732516 -0.09260908 -0.11899374 -0.07303791 -0.101246186 -0.08375086
-0.07655739 -0.09826662 -0.039545115 -0.07084373 -0.071844615 -0.047132645 -0.09138269 0.04184828
-0.030321892 0.008041421 0.22655614 0.0133409705 0.24291937 0.017883759 -0.126905 0.34397334
-0.07097086 -0.46019706 0.16439499 -0.043014828 -0.30354613 -0.1322213 0.1405032 0.04099967
-0.12884863 0.029574802 0.10779835 0.10363365 0.10791751 0.18575124 -0.0022281131 -0.07529747
0.12362726 0.04226528 -0.025031036 0.07995768 0.081127666 0.1420705 0.04252541 0.23772869
-0.047396794 -0.19494002 0.25228485 -0.04248769 -0.16120972 0.09125688 0.00048129132 -0.053256236
0.17267825 -0.1599841 -0.30238107 -0.12117082 0.12398366 0.2889406 -0.14607747 0.087865256
-0.18674965 0.19206199 0.3905977 0.15130278 -0.13034354 -0.12750491 -0.021435007 -0.121667445
-0.42655113 -0.110208854 0.16616398 0.21416199 0.024991322 -0.3481215 -0.2013734 -0.28014946
-0.0985793 -0.11218459 -0.16359542 0.11489966 0.27493998 0.28873923 -0.07475028 -0.1581218
-0.062987074 -0.04153456 -0.21072687 0.047931757 0.010910492 0.1580401 -0.064120285 -0.16344127
00000000: 664e eebd c111 c9bd 7140 82bd 83b5 6c3d
00000010: 926b aebe a94d af3d 3d56 413d 4d15 edbd
00000020: c990 843e aa2e 0dbe 3375 a2bb 06ba 753e
00000030: 6d36 90be b827 15be ee05 c23d 1719 c13b
00000040: ecdc e33d 6ed1 973d 78dd b03d c85e 0cbe
00000050: d011 76be 1ea0 853e f393 403e 6e98 b6bd
00000060: 28fa 6c3e cd77 233d 49c1 bbbd dd80 03bd
00000070: a43a 8c3d f111 383e 0673 00be 4f4b 92bb
00000080: d6c4 073d 5058 1e3b f357 8e3d 896c 883b
00000090: ca19 d03d d2ad 3bbc 890a 0f3d 93c3 81bd
000000a0: 47b5 ebbd 3711 0dbd ed12 3c3d 67b0 70bc
000000b0: f9e4 003c 114a 8a3d 9a80 9f3d 9ae9 0c3d
000000c0: 680f 253d 37b6 173d 9a95 a53c 6f76 b53d
000000d0: 9606 8f3d a8cd 1d3d bcd8 143e 6baa 2a3e
000000e0: c61e 193e 2c6b aa3c 0bc9 3fbd c987 3bbd
000000f0: ec53 2f3d a189 013d 4401 4a3d 248d 8f3e
00000100: 8316 433c ade5 bfbe 8086 883e d82a 633d
00000110: b351 a7be 1816 f93d 1699 c3bc 6ecc 2fbe
00000120: f722 b2bb 5769 733e 4156 83bd fc4e 44be
00000130: d464 f03e f887 603c 7874 d6bd e423 153e
00000140: c056 17bd 3c6c f83c 48f3 78bd 39ce 9ebd
00000150: 14fc ff3c 6387 36be c983 703c 4e5b 673d
00000160: 72f7 e4bd b86c 98bc b6c4 f33c c01d 993d
00000170: a1c5 0dbc fcd6 93bd 864d c1bd 7e2e 8e3d
00000180: 40f8 1cbe e261 2abe 34fb 4f3e 8f2f b73c
00000190: 2518 3d3e 4322 ad3d dbcb 88bd 859f 273e
000001a0: 833c 93bb 7468 993d cd37 b03d 037e 94bd
000001b0: a7a3 47be e12a e83d 31c4 0f3e abbb f5be
000001c0: 8868 c73b d45a bf3e 2be1 b8be 50d7 88bc
000001d0: 4a93 403e 4637 763c 97df 30bd fe69 883c
000001e0: cb9d ea3c 9fc7 0fbe f7c7 e03d fb2b 953b
000001f0: 8d02 5bbe ceca 0d3e aa5b 4abc e989 90be
00000200: abe1 59bc af12 eebd c25a acbe 5d03 2ebd
00000210: 10f5 6d3d a686 07be 6320 e83d ac31 dd3d
00000220: 6281 543a a36e a4bd 4d2a 053e 9d9a 31bc
00000230: 64fa 7bbd 1114 f23d eb7d 813b 7918 903d
00000240: 85d0 753d e564 943c 9d1c f83c a44d 89bc
00000250: 1536 a6bd 5f72 0fbd d676 68bc 0906 14be
00000260: b534 bfbc faa3 eabd 39ab f0bd 5c02 03be
00000270: 1c1b 99bd 7b4c 66bd 4e3e 77bd c3b2 6abd
00000280: 6313 acbc 9a7f 9abc 7460 ebbc d4a9 bdbd
00000290: fdb2 f3bd e694 95bd 295a cfbd 9285 abbd
000002a0: 1fca 9cbd 0240 c9bd 0ffa 21bd 8416 91bd
000002b0: 4523 93bd 290e 41bd d926 bbbd 1a69 2b3d
000002c0: 9e65 f8bc 2ac0 033c 55fe 673e 1694 5a3c
000002d0: dbbf 783e f680 923c 62f3 01be 461d b03e
000002e0: 2c59 91bd f39e ebbe 2957 283e 5130 30bd
000002f0: 666a 9bbe 0565 07be 12e0 0f3e 45ef 273d
00000300: e5f0 03be db46 f23c 62c5 dc3d e13d d43d
00000310: db03 dd3d 9335 3e3e 8905 12bb 8f35 9abd
00000320: 4a30 fd3d 5c1e 2d3d e30d cdbc dac0 a33d
00000330: 4326 a63d ee7a 113e 202f 2e3d 266f 733e
00000340: 2423 42bd 5b9e 47be 7b2b 813e 9207 2ebd
00000350: 2914 25be e3e4 ba3d d455 fc39 3623 5abd
00000360: 91d2 303e dfd2 23be b1d1 9abe 6828 f8bd
00000370: 25eb fd3d 06f0 933e 5595 15be b3f2 b33d
00000380: 4d3b 3fbe e6ab 443e 6cfc c73e 1eef 1a3e
00000390: c778 05be a690 02be 7898 afbc c82c f9bd
000003a0: e964 dabe 2eb5 e1bd e426 2a3e 484d 5b3e
000003b0: 9aba cc3c fb3c b2be d434 4ebe c06f 8fbe
000003c0: f2e3 c9bd 09c1 e5bd 8f85 27be 8350 eb3d
000003d0: efc4 8c3e a1d5 933e ad16 99bd aeea 21be
000003e0: 5eff 80bd 2520 2abd c9c8 57be 1754 443d
000003f0: ecc1 323c 44d5 213e 7f51 83bd 265d 27be

weight f4 [27]
0.28667006 1.4827086e-05 1.861977e-05 7.008758e-07 0.21602018 0.020954996 2.4264166e-06 6.1788074e-07
6.579621e-06 4.5448292e-08 -1.4083994e-07 0.45110568 0.31910595 0.003710531 2.9889447e-06 2.0887428e-06
5.7495768e-06 0.44641778 -2.8030426e-08 1.756398e-06 -9.007833e-09 2.3893094e-07 0.00426027 0.33864653
0.3941788 0.43648735 1.4617813e-06
00000000: 6bc6 923e d9c1 7837 a731 9c37 d123 3c35
00000010: 6534 5d3e d0a9 ab3c 85d5 2236 71dc 2535
00000020: 84c6 dc36 ed32 4333 ca39 17b4 53f7 e63e
00000030: db61 a33e 612c 733b ae95 4836 542c 0c36
00000040: 7dec c036 df90 e43e 8fc7 f0b2 60bd eb35
00000050: dec0 1ab2 6b46 8034 bc99 8b3b 1463 ad3e
00000060: ced1 c93e 457b df3e 6c32 c435

bias f4 [27]
-0.06312961 -0.00017313458 -0.00014837175 -2.535491e-06 -0.108066015 -0.0300347 -6.605069e-06 -4.879552e-06
-5.4820463e-05 -8.370477e-07 -3.4188708e-06 0.4388409 0.17822394 0.0037357311 -2.3257051e-05 -5.1493503e-06
-4.0648978e-05 0.39484283 -6.9316087e-07 -6.139706e-06 -4.3281802e-06 -3.79755e-06 -0.014731002 -0.10367661
-0.055209465 0.25758362 -1.1163432e-05
00000000: 194a 81bd 768b 35b9 3d94 1bb9 6727 2ab6
00000010: b751 ddbd 550b f6bc 1ca1 ddb6 08bb a3b6
00000020: 06ef 65b8 7bb1 60b5 c16f 65b6 c1af e03e
00000030: 5680 363e 2bd3 743b 2318 c3b7 95c8 acb6
00000040: 827e 2ab8 d728 ca3e a711 3ab5 ac03 ceb6
00000050: c93a 91b6 6ad9 7eb6 4d5a 71bc 6754 d4bd
00000060: 5223 62bd 00e2 833e 934a 3bb7

running_mean f4 [27]
0.15121289 -0.24923974 -0.6023334 -0.3271046 0.042154778 0.08616503 0.81309664 -0.24074085
0.06486311 0.026083244 0.0014532532 0.12907283 0.0976643 -0.010958952 -0.04452817 0.6845179
-0.2780857 -0.11874068 0.25274295 0.5486948 0.11437248 -0.05385381 -0.03364902 0.18532601
0.020707233 -0.16615024 -0.06419718
00000000: 8dd7 1a3e b438 7fbe 8632 1abf 417a a7be
00000010: 7daa 2c3d 4b77 b03d 1a27 503f c584 76be
00000020: f3d6 843d 87ac d53c 167b be3a ab2b 043e
00000030: 3804 c83d 2d8d 33bc 2c63 36bd 913c 2f3f
00000040: 4061 8ebe 502e f3bd 8667 813e 4377 0c3f
00000050: 1e3c ea3d d095 5cbd 8ed3 09bd 1ac6 3d3e
00000060: 37a2 a93c 4a23 2abe d079 83bd

running_var f4 [27]
0.1409856 0.33454016 0.27296153 1.9695138 9.062978 1.339808 12.844382 2.6401086
2.0207937 1.9654492 0.9161277 9.503404 3.8074927 0.7439513 0.9785492 7.5423493
3.7796514 8.577005 4.0559783 5.0247345 2.5990443 0.46881855 7.5083103 15.687949
1.108431 6.008055 1.7826027
00000000: 875e 103e d948 ab3e 9dc1 8b3e 0719 fc3f
00000010: f501 1141 d47e ab3f 9782 4d41 8af7 2840
00000020: af54 0140 d793 fb3f 5887 6a3f f10d 1841
00000030: f6ad 7340 9873 3e3f 3382 7a3f ed5a f140
00000040: cfe5 7140 6a3b 0941 93ca 8140 a0ca a040
00000050: be56 2640 fc08 f03e 1444 f040 d701 7b41
00000060: 11e1 8d3f fd41 c040 532c e43f

weight f4 [12, 27, 1, 1]
0.17055734 -3.5198875e-05 -1.5250944e-05 6.2818785e-08 -0.155756 -0.001428072 4.41714e-07 1.5513729e-07
-1.9434377e-05 1.7803518e-06 1.0846937e-06 -0.21917446 0.11274778 0.00093511184 -1.801186e-06 9.516945e-07
-6.8254656e-07 0.27738813 2.2581507e-06 1.1871463e-06 -4.7805776e-07 1.978979e-06 0.000311041 -0.06866036
0.20776461 -0.2645148 -2.5309798e-06 0.1967631 -4.0422943e-05 -1.0275067e-05 -1.1131248e-06 -0.085043736
0.007113083 -1.1589549e-06 3.2848272e-06 -6.5339605e-06 9.23691e-07 4.374534e-06 -0.026769156 -0.054516573
0.0033110962 -7.408026e-06 1.030022e-06 8.2055544e-07 0.04513586 -1.093781e-06 -2.9957964e-06 -1.6987871e-06
-5.9118042e-06 0.00040903117 0.07546237 0.16640456 -0.007587601 -5.160373e-08 0.011817376 0.00045727866
-9.402199e-06 -5.887988e-07 -0.0110073285 0.0025767882 1.0722254e-06 -2.1675644e-06 1.7108552e-05 -3.1608147e-07
2.4361311e-06 -0.0037333765 0.0071277805 0.0004409791 -2.0602129e-06 -2.319215e-06 -2.055881e-06 -0.0002613642
3.5768187e-06 -2.1470996e-06 -2.9937917e-06 -1.0659054e-05 0.00015183256 0.00453896 0.0078914035 -0.0050516077
-1.492566e-07 -0.062700495 -5.4381206e-05 -3.474265e-07 -2.005534e-06 -0.045851544 0.0051878514 1.0838893e-06
6.128382e-08 3.8597796e-06 1.6594972e-06 2.5248507e-06 0.13980776 -0.11670261 0.00012314049 -4.067742e-06
2.1501187e-06 -1.4277343e-06 -0.20840901 -1.9433355e-06 4.8589084e-07 1.4993734e-06 3.4830632e-06 -0.0024690444
-0.08152541 0.107879035 0.04300495 -1.2067126e-06 -0.102702826 -0.0002651388 -8.809372e-05 2.2279362e-06
-0.09301977 0.005180021 2.842063e-06 -2.3102664e-06 8.388382e-06 -2.0955233e-06 -1.00267e-06 0.19422774
-0.31628618 0.000426312 -1.1910597e-05 1.3106036e-06 2.5741238e-06 -0.37952387 3.4003167e-06 7.7158444e-07
1.3141637e-06 -7.469127e-06 -0.00749694 -0.054565065 0.087636106 0.123134285 -1.8221067e-06 0.15420964
0.00018814018 -5.694113e-05 -9.021196e-07 -0.023513362 0.0038577763 -7.842389e-07 -5.863172e-07 3.026219e-05
-2.2893603e-06 -2.5275172e-06 0.26596183 -0.14492567 -0.0036759046 -8.502205e-06 6.9998543e-07 -2.0530806e-05
-0.2540044 -2.7270319e-06 -1.838298e-06 1.5700086e-06 -8.849583e-06 -0.008082795 -0.18427041 0.13032933
0.18427363 -1.8730643e-06 0.02054154 3.25553e-05 -4.716022e-06 9.311236e-08 -0.10007124 -0.0056538153
-9.313539e-07 -1.7533306e-06 1.7320241e-06 1.2798579e-06 5.6844925e-07 -0.18620974 0.07722867 -0.0016173695
-1.6480263e-06 8.8882126e-07 1.3344132e-06 0.2323602 -8.727247e-07 1.6135834e-06 2.386627e-07 1.3070328e-07
-0.0031584685 -0.20999599 0.055308476 -0.22527102 -2.939163e-06 -0.000370328 8.195252e-05 2.3711423e-06
6.460589e-07 0.0040419963 -0.0032364517 3.2429407e-06 7.909888e-07 2.7431945e-06 -1.6663574e-06 -5.961928e-06
-0.023235345 -0.022777883 -0.0021015056 -1.1194223e-05 -2.4110493e-06 3.5305682e-06 0.028542014 -1.8756132e-06
2.0747998e-06 1.0555627e-06 2.4695415e-05 -0.0009566356 -0.021963129 -0.007885466 0.013468278 1.3452492e-06
-0.11001501 -0.00013046605 4.1133513e-05 9.105172e-07 -0.045523025 -0.024831645 -6.166675e-07 5.846158e-07
4.087818e-05 -7.4014133e-07 -3.2965177e-06 -0.36872125 -0.0192446 0.0020033566 6.4434835e-06 -1.154797e-06
3.0261137e-06 -0.056401893 1.1100793e-06 -2.0255854e-06 -1.1980583e-06 -1.3315454e-05 -0.0020031536 -0.032918297
-0.23129809 -0.2828225 1.9003794e-06 0.020823928 -3.7810928e-06 1.938694e-05 -5.317434e-07 -0.067512915
-0.005817311 6.002489e-06 4.044562e-06 7.4498695e-07 -1.6286746e-06 -3.180596e-06 -0.033894178 -0.05752458
00000000: 95a6 2e3e 81a2 13b8 4ede 7fb7 fee6 8633
00000010: 807e 1fbe 252e bbba b624 ed34 d093 2634
00000020: 0207 a3b7 6cf4 ee35 cb95 9135 456f 60be
00000030: 4fe8 e63d 4b22 753a 48c0 f1b5 f377 7f35
00000040: 3e38 37b5 d105 8e3e bc8a 1736 0956 9f35
00000050: e153 00b5 9ace 0436 3713 a339 ce9d 8cbd
00000060: 3fc0 543e 7c6e 87be e7d9 29b6 447c 493e
00000070: ce8b 29b8 1463 2cb7 ad66 95b5 692b aebd
00000080: dd14 e93b 638d 9bb5 e770 5c36 4b3e dbb6
00000090: 90f3 7735 f6c8 9236 fd4a dbbc c54c 5fbd
000000a0: fafe 583b 7592 f8b6 493f 8a35 2444 5c35
000000b0: 61e0 383d 07ce 92b5 640b 49b6 e101 e4b5
000000c0: 035e c6b6 3c73 d639 048c 9a3d f565 2a3e
000000d0: 69a1 f8bb e7a2 5db3 ab9d 413c e7be ef39
000000e0: 23be 1db7 f20d 1eb5 1558 34bc 55df 283b
000000f0: 62e9 8f35 7976 11b6 5684 8f37 e8b1 a9b4
00000100: 6a7c 2336 aaab 74bb 2890 e93b 3733 e739
00000110: 3042 0ab6 cfa3 1bb6 c4f7 09b6 b607 89b9
00000120: 4709 7036 e416 10b6 f3e8 48b6 4ad4 32b7
00000130: 3e35 1f39 8ebb 943b f24a 013c f587 a5bb
00000140: 5843 20b4 1e69 80bd 6017 64b8 ef85 bab4
00000150: d096 06b6 d4ce 3bbd dafe a93b 277a 9135
00000160: 239b 8333 4183 8136 e4bb de35 9b70 2936
00000170: c429 0f3e c701 efbd 461f 0139 a37d 88b6
00000180: c24a 1036 94a0 bfb5 2c69 55be 406a 02b6
00000190: 2a6e 0235 143e c935 92be 6936 b1cf 21bb
000001a0: cbf6 a6bd afef dc3d f525 303d 54f6 a1b5
000001b0: dc55 d2bd 5402 8bb9 f5be b8b8 a783 1536
000001c0: 2681 bebd 2abd a93b 45ba 3e36 130a 1bb6
000001d0: d4bb 0c37 d1a0 0cb6 7b93 86b5 a3e3 463e
000001e0: 43f0 a1be a182 df39 a0d3 47b7 ffe7 af35
000001f0: 1cbf 2c36 f450 c2be ff30 6436 e11e 4f35
00000200: 5262 b035 509f fab6 e4a8 f5bb 9e7f 5fbd
00000210: 8f7a b33d d42d fc3d 1c8f f4b5 22e9 1d3e
00000220: 7f47 4539 13d4 6eb8 3029 72b5 189f c0bc
00000230: bfd2 7c3b 7d84 52b5 6963 1db5 8fdb fd37
00000240: e9a2 19b6 6a9e 29b6 262c 883e 6567 14be
00000250: 72e7 70bb b1a4 0eb7 a2e6 3b35 9239 acb7
00000260: dd0c 82be 0d02 37b6 70bb f6b5 16b9 d235
00000270: ab78 14b7 b36d 04bc 62b1 3cbe 0d75 053e
00000280: 3ab2 3c3e 0066 fbb5 bb46 a83c fd8b 0838
00000290: 523e 9eb6 10f5 c733 26f2 ccbd a443 b9bb
000002a0: 2702 7ab5 fb53 ebb5 e577 e835 95c7 ab35
000002b0: 8997 1835 c4ad 3ebe 112a 9e3d eafd d3ba
000002c0: c131 ddb5 5597 6e35 171a b335 d5ef 6d3e
000002d0: 2f45 6ab5 4e92 d835 8d21 8034 7257 0c34
000002e0: 4ffe 4ebb 3009 57be 248b 623d 72ad 66be
000002f0: 703e 45b6 9528 c2b9 eddd ab38 ea1f 1f36
00000300: d46c 2d35 b972 843b a61a 54bb 4ca1 5936
00000310: 5654 5435 b917 3836 9ba7 dfb5 920c c8b6
00000320: 0d58 bebc af98 babc 6ab9 09bb d2ce 3bb7
00000330: 83cd 21b6 b3ee 6c36 f1d0 e93c 94bd fbb5
00000340: ca3c 0b36 dcac 8d35 0029 cf37 bac6 7aba
00000350: 05ec b3bc 0b32 01bc 0daa 5c3c 698e b435
00000360: 8d4f e1bd b7cd 08b9 c686 2c38 446a 7435
00000370: 5a76 3abd bc6b cbbc 1189 25b5 7eee 1c35
00000380: 9d74 2b38 20ae 46b5 be39 5db6 08c9 bcbe
00000390: daa6 9dbc bf4a 033b 1a35 d836 86fe 9ab5
000003a0: 3d14 4b36 ac05 67bd 09fe 9435 4bef 07b6
000003b0: f8cc a0b5 7165 5fb7 5747 03bb 56d5 06bd
000003c0: 68d9 6cbe 1cce 90be 8a10 ff35 f196 aa3c
000003d0: aebe 7db6 23a1 a237 21bd 0eb5 3644 8abd
000003e0: 249f bebb fd68 c936 86b6 8736 1dfb 4735
000003f0: d598 dab5 3972 55b6 9fd4 0abd e59e 6bbd

weight f4 [12]
0.54372036 0.2380723 0.021324666 0.2708323 0.56170094 0.6187766 0.4833903 0.0433424
0.42452466 0.1679234 0.2559473 0.015644707
00000000: 4231 0b3f 3ac9 733e 11b1 ae3c 88aa 8a3e
00000010: a2cb 0f3f 2568 1e3f ef7e f73e cd87 313d
00000020: 4c5b d93e 1df4 2b3e 860b 833e 5429 803c

bias f4 [12]
0.059056547 -0.1185791 -0.0013523565 0.19302131 0.1287576 0.0105148805 -0.019914951 0.025637653
0.04801892 0.098201804 -0.11241925 -0.00023099661
00000000: 47e5 713d 99d9 f2bd 8e41 b1ba 61a7 453e
00000010: 08d9 033e 9b46 2c3c ae24 a3bc 0e06 d23c
00000020: 7daf 443d 071e c93d 103c e6bd ae37 72b9

running_mean f4 [12]
-0.022112075 0.02356484 -0.000529316 -0.03876509 -0.11026114 0.051711906 -0.0528751 -0.0011911264
-0.3280044 0.035477772 -0.008969109 0.0011065633
00000000: 6224 b5bc 0d0b c13c ccc1 0aba 25c8 1ebd
00000010: 98d0 e1bd ddcf 533d 9093 58bd 921f 9cba
00000020: 31f0 a7be 2451 113d 2bf3 12bc 1a0a 913a

running_var f4 [12]
0.07408542 0.0035798312 3.111734e-05 0.022072151 0.07928885 0.05839198 0.047066312 0.00013506456
0.041904777 0.0015214295 0.002544964 2.149708e-05
00000000: 19ba 973d 9a9b 6a3b fd83 0238 a8d0 b43c
00000010: 3162 a23d 6e2c 6f3d 9bc8 403d 1ea0 0d39
00000020: 58a4 2b3d b46a c73a 69c9 263b a154 b437

weight f4 [3, 12, 3, 3]
-0.0065020267 -0.11231114 0.06750314 0.28890976 0.009254155 0.46097934 -0.13361993 -0.19761278
-0.006614119 -0.05027423 -0.063527256 0.01740048 0.014045672 -0.06557394 0.017107794 -0.11239877
-0.07283927 -0.028390234 -0.0021637506 -0.0062585576 -0.0006122492 0.0053727864 -0.004807795 0.007294081
-0.0043696417 -0.007279703 -0.00020557956 -0.118012585 0.0057762926 -0.12244504 -0.28139892 -0.12314847
-0.28706074 -0.062349934 -0.0050493097 -0.027426545 -0.19143201 0.009314082 -0.18240117 -0.50137746
-0.25952947 -0.4963609 -0.10431106 -0.034397747 -0.09032255 -0.027755857 0.13092098 0.0772174
-0.24216767 -0.036783163 -0.120198734 0.07245145 0.21616238 0.30646005 -0.014114721 -0.08946803
0.011743418 0.2580762 0.027814025 0.363692 -0.07942458 -0.13299875 -0.0031807905 0.0016436955
-0.00061274605 0.0040687234 0.023913382 0.010949 0.03324528 -0.0021078226 -0.01490134 -0.018458715
-0.029046582 -0.06339089 0.0451636 0.27587858 0.120983474 0.41958436 0.08305772 -0.06472528
0.12494079 0.005598721 -0.032857917 -0.019680921 0.091559365 0.026792552 0.092916414 -0.040300645
-0.07730222 -0.074022554 0.04595286 -0.04181779 0.034491103 0.06604956 -0.021210039 0.034180883
-0.025195492 -0.0043460065 0.06816951 -0.004108612 0.0019263382 0.0015745553 -0.006403937 0.00087038596
-0.0020514003 -0.0014966369 0.002044228 0.002596603 -0.14592637 -0.13706687 -0.1683522 -0.27380076
-0.06199022 -0.3175315 -0.32896882 -0.0031031815 -0.027635496 -0.16316748 0.03563953 -0.14053774
-0.2040101 0.09714222 -0.17417148 -0.11211118 0.16632618 0.0118127 -0.010299621 -0.0048249043
-0.0055478 -0.010812533 -0.00200508 -0.011128249 -0.0109329345 0.0023465047 -0.0020011067 -0.017588573
-0.08878091 -0.04478836 -0.11727589 0.01705356 0.0018240546 -0.05059439 -0.026133077 -0.07669348
-0.029153373 -0.13698582 -0.032359835 -0.2079643 0.019631729 0.067535885 -0.07827975 -0.031509135
-0.07636241 -0.08533561 -0.13242082 -0.18378764 -0.28355137 0.039973475 -0.27374113 -0.17156833
0.03032159 -0.40112033 -0.10282369 -0.11904185 -0.12037859 -0.18921888 -0.05112209 -0.2075572
-0.27047223 -0.05034874 -0.020331219 0.0045110867 -0.005125122 -0.0037811159 -0.0064239805 -0.004502817
-0.007211839 -0.0091468105 -0.0018603157 0.010933701 0.03747022 -0.03678346 0.020539533 0.16291627
0.0050817495 -0.0071265567 0.11912558 0.0016824636 -0.009070905 -0.003188224 -0.01736958 -0.045945913
-0.07036119 -0.023248043 -0.08226117 -0.07427299 0.019851869 0.031835023 -0.08958921 0.14317222
-0.058993705 -0.101475984 0.13821924 -0.1308931 -0.030939253 0.14596261 -0.084109664 -0.0023798533
-0.008016804 -0.003813853 -0.004710692 -0.002551436 -0.0031753143 -0.0044318354 -0.0025259634 -0.004332607
-0.17716832 0.055072982 0.19651859 -0.26864955 0.014792981 0.25563267 0.13763838 -0.15356949
-0.26110968 -0.034400452 0.02449834 -0.027628798 -0.04933868 0.054371007 0.05866115 0.02152865
0.012286475 -0.03971004 -0.004806396 0.0026954121 -0.0006304993 -0.008767461 0.0013222292 0.005836257
-0.001461652 -0.0046215993 0.0020931894 0.11128937 0.0004997238 -0.11305939 0.13476153 0.0003527811
-0.16549668 -0.13110733 -0.046311863 0.07994141 0.20511948 0.034358233 -0.13053776 0.30528647
00000000: f40e d5bb 6203 e6bd 163f 8a3d fbeb 933e
00000010: bd9e 173c 7c05 ec3e aad3 08be 015b 4abe
00000020: 40bb d8bb 5aec 4dbd 941a 82bd 748b 8e3c
00000030: d11f 663c a14b 86bd a525 8c3c 5431 e6bd
00000040: c12c 95bd a392 e8bc b6cd 0dbb 9614 cdbb
00000050: 597f 20ba 330e b03b b58a 9dbb 3003 ef3b
00000060: 362f 8fbb 938a eebb d890 57b9 95b0 f1bd
00000070: 0e47 bd3b 77c4 fabd 8513 90be 4435 fcbd
00000080: a0f9 92be a562 7fbd ae74 a5bb a2ad e0bc
00000090: c106 44be 179a 183c 5fc7 3abe 465a 00bf
000000a0: 0ce1 84be 0423 febe 09a1 d5bd a7e4 0cbd
000000b0: 07fb b8bd 4060 e3bc 2610 063e 2824 9e3d
000000c0: cdfa 77be f1a9 16bd c12a f6bd 6d61 943d
000000d0: ac59 5d3e 55e8 9c3e 6e41 67bc 043b b7bd
000000e0: 7767 403c 9022 843e 3dda e33c d635 ba3e
000000f0: 5ba9 a2bd d330 08be cf74 50bb 4571 d73a
00000100: b1a0 20ba ed52 853b ffe5 c33c 6f63 333c
00000110: 342c 083d 6523 0abb c024 74bc bb36 97bc
00000120: 19f3 edbc 15d3 81bd 78fd 383d f53f 8d3e
00000130: 2fc6 f73d c3d3 d63e 2a1a aa3d b08e 84bd
00000140: f5e0 ff3d 7a75 b73b 0696 06bd e239 a1bc
00000150: 7a83 bb3d 0e7c db3c f64a be3d 4a12 25bd
00000160: a050 9ebd 2399 97bd 1139 3c3d 2249 2bbd
00000170: 8b46 0d3d fe44 873d adc0 adbc 4101 0c3d
00000180: c766 cebc f268 8ebb 759c 8b3d 89a1 86bb
00000190: 2f7d fc3a 4f61 ce3a 1ed8 d1bb 9d2a 643a
000001a0: c970 06bb cd2a c4ba 74f8 053b c52b 2a3b
000001b0: b96d 15be 425b 0cbe 8564 2cbe 9d2f 8cbe
000001c0: 75e9 7dbd 7d93 a2be 9a6e a8be bf5e 4bbb
000001d0: d663 e2bc 6015 27be c1fa 113d 20e9 0fbe
000001e0: 06e8 50be 80f2 c63d 025a 32be 8c9a e5bd
000001f0: 6951 2a3e 0e8a 413c bebf 28bc 3b1a 9ebb
00000200: 52ca b5bb 0d27 31bc a967 03bb 4253 36bc
00000210: 0d20 33bc d1c7 193b 0025 03bb e915 90bc
00000220: c4d2 b5bd 0074 37bd 582e f0bd e8b3 8b3c
00000230: 1e15 ef3a 103c 4fbd 0915 d6bc 7911 9dbd
00000240: 0ed3 eebc 0346 0cbe bf8b 04bd 98f4 54be
00000250: b8d2 a03c 4150 8a3d 2251 a0bd b90f 01bd
00000260: e563 9cbd 70c4 aebd 5399 07be d432 3cbe
00000270: a52d 91be 3abb 233d cc27 8cbe 9caf 2fbe
00000280: fc64 f83c a55f cdbe 3a95 d2bd 37cc f3bd
00000290: 0d89 f6bd 98c2 41be 6665 51bd e089 54be
000002a0: 567b 8abe 7b3a 4ebd a88d a6bc bdd1 933b
000002b0: a4f0 a7bb 99cc 77bb 4180 d2bb 5e8c 93bb
000002c0: 4a51 ecbb 81dc 15bc d6d5 f3ba 4423 333c
000002d0: 607a 193d 41aa 16bd 8642 a83c 86d3 263e
000002e0: ce84 a63b e485 e9bb 1df8 f33d 1c86 dc3a
000002f0: 229e 14bc 86f1 50bb a64a 8ebc c831 3cbd
00000300: 8719 90bd ae72 bebc 8b78 a8bd 701c 98bd
00000310: 63a0 a23c 7165 023d 8c7a b7bd bd9b 123e
00000320: 62a3 71bd a4d2 cfbd 5889 0d3e d708 06be
00000330: 5174 fdbc 3977 153e b041 acbd 50f7 1bbb
00000340: ea58 03bc d6f1 79bb 265c 9abb fe35 27bb
00000350: ef18 50bb ee38 91bb a28a 25bb 8bf8 8dbb
00000360: 9d6b 35be 3594 613d 2b3c 493e 6f8c 89be
00000370: 425e 723c 49e2 823e 13f1 0c3e 5241 1dbe
00000380: 2bb0 85be 7de7 0cbd beb0 c83c ca55 e2bc
00000390: 5b17 4abd 22b4 5e3d ad46 703d da5c b03c
000003a0: 364d 493c ffa6 22bd f97e 9dbb 83a5 303b
000003b0: 1748 25ba 66a5 0fbc a64e ad3a 123e bf3b
000003c0: e794 bfba c970 97bb e42d 093b aeeb e33d
000003d0: e6ff 023a ae8b e7bd edfe 093e 7af5 b839
000003e0: f677 29be 0041 06be 82b1 3dbd 52b8 a33d
000003f0: d70a 523e 38bb 0c3d b1ab 05be 824e 9c3e

weight f4 [30]
7.4292424e-05 0.06679415 0.1709823 0.20760702 0.11883088 0.31778002 7.570843e-05 0.32530016
0.2781885 0.23693675 4.7330886e-06 0.28368965 0.29696047 0.13159207 0.2697191 0.13814661
0.20198153 0.15068164 0.2031968 0.01015317 0.3601185 0.004448508 0.16997053 6.5544344e-05
0.1371322 0.35297993 0.56632435 0.17058891 0.07931986 1.0306121e-06
00000000: 71cd 9b38 5fcb 883d fc15 2f3e ef96 543e
00000010: 9b5d f33d 10b4 a23e a7c5 9e38 be8d a63e
00000020: b96e 8e3e 8c9f 723e ecd0 9e36 c53f 913e
00000030: 340b 983e 12c0 063e 9f18 8a3e 4e76 0d3e
00000040: 3fd4 4e3e 4a4c 1a3e d212 503e 7b59 263c
00000050: 7461 b83e cac4 913b c10c 2e3e da74 8938
00000060: 626c 0c3e c9b9 b43e a2fa 103f dcae 2e3e
00000070: 7372 a23d 9053 8a35

bias f4 [30]
-0.00032204617 0.030632008 0.12731634 0.011665557 0.14243762 -0.10694617 -0.00027101836 0.28790903
0.041288003 -0.08115474 -3.6898084e-05 0.36918235 -0.2245746 0.08328642 0.18360056 0.06729324
0.25041196 0.087586276 -0.124685176 -0.049879108 -0.02319967 0.003401161 0.03126377 -0.0014276592
0.13227949 0.1999142 0.27021813 0.25365576 0.10660394 -1.5734771e-05
00000000: 4ed8 a8b9 faef fa3c 375f 023e e420 3f3c
00000010: 2bdb 113e 9806 dbbd 7817 8eb9 d068 933e
00000020: 9c1d 293d 7534 a6bd 04c3 1ab8 7805 bd3e
00000030: e2f6 65be 1292 aa3d c901 3c3e 0ad1 893d
00000040: ff35 803e 6f60 b33d f15a ffbd 094e 4cbd
00000050: 3c0d bebc 03e6 5e3b 700e 003d 4b20 bbba
00000060: 4674 073e 4fb6 4c3e 085a 8a3e 2bdf 813e
00000070: 2b53 da3d 2afe 83b7

running_mean f4 [30]
-0.36640552 -0.9434955 -0.08627555 0.15121289 -0.24923974 -0.6023334 -0.3271046 0.042154778
0.08616503 0.81309664 -0.24074085 0.06486311 0.026083244 0.0014532532 0.12907283 0.0976643
-0.010958952 -0.04452817 0.6845179 -0.2780857 -0.11874068 0.25274295 0.5486948 0.11437248
-0.05385381 -0.03364902 0.18532601 0.020707233 -0.16615024 -0.06419718
00000000: 8199 bbbe ec88 71bf 3cb1 b0bd 8dd7 1a3e
00000010: b438 7fbe 8632 1abf 417a a7be 7daa 2c3d
00000020: 4b77 b03d 1a27 503f c584 76be f3d6 843d
00000030: 87ac d53c 167b be3a ab2b 043e 3804 c83d
00000040: 2d8d 33bc 2c63 36bd 913c 2f3f 4061 8ebe
00000050: 502e f3bd 8667 813e 4377 0c3f 1e3c ea3d
00000060: d095 5cbd 8ed3 09bd 1ac6 3d3e 37a2 a93c
00000070: 4a23 2abe d079 83bd

running_var f4 [30]
0.41104665 0.5430437 0.34509498 0.1409856 0.33454016 0.27296153 1.9695138 9.062978
1.339808 12.844382 2.6401086 2.0207937 1.9654492 0.9161277 9.503404 3.8074927
0.7439513 0.9785492 7.5423493 3.7796514 8.577005 4.0559783 5.0247345 2.5990443
0.46881855 7.5083103 15.687949 1.108431 6.008055 1.7826027
00000000: b574 d23e e904 0b3f 4ab0 b03e 875e 103e
00000010: d948 ab3e 9dc1 8b3e 0719 fc3f f501 1141
00000020: d47e ab3f 9782 4d41 8af7 2840 af54 0140
00000030: d793 fb3f 5887 6a3f f10d 1841 f6ad 7340
00000040: 9873 3e3f 3382 7a3f ed5a f140 cfe5 7140
00000050: 6a3b 0941 93ca 8140 a0ca a040 be56 2640
00000060: fc08 f03e 1444 f040 d701 7b41 11e1 8d3f
00000070: fd41 c040 532c e43f

weight f4 [12, 30, 1, 1]
-7.8283425e-05 0.023060955 0.096829124 0.04644794 0.039515067 -0.034218136 -0.00015157262 0.07626432
0.01300647 -0.09967502 -1.0226531e-06 0.0459319 -0.045880582 0.041306626 0.02166729 -0.02514575
-0.032473005 -0.11090534 -0.05764592 -0.020469302 -0.12217136 -5.5894823e-05 -0.015018377 0.00039179483
-0.07022524 0.11464363 -0.025071155 -0.2667857 0.021704717 -2.1388745e-05 0.00011633755 0.03845305
-0.013579366 -0.111679964 0.03047022 0.027607292 0.00026727797 -0.43445352 -0.11258563 0.04966812
4.1891544e-06 0.040798254 0.036779683 -0.018364705 -0.27667072 -0.03997931 0.035286948 -0.069532074
0.09104354 -0.005978074 0.08949418 -0.00016138905 0.033822652 -0.0020053321 -0.041061025 0.041059382
0.04229527 -0.13269812 -0.14793323 -7.143243e-06 -0.000256365 -0.020217838 0.020124342 -0.057068832
-0.00047258657 -0.022657925 1.3192191e-05 0.15375581 -0.15778385 -0.05593189 1.5273241e-05 -0.01621295
-0.07451482 0.08639284 0.23413497 -0.15225035 -0.17954507 -0.11317136 0.020063251 -0.017690104
-0.22865075 0.0033389076 0.04169112 -0.0010315455 -0.18456182 -0.12483312 -0.296895 -0.15653022
0.06067347 3.2097938e-07 -0.00046771142 0.028681088 -0.083940595 -0.1165917 -0.013265345 0.06762465
6.128647e-05 0.053453904 0.021193309 -0.05350234 -6.755403e-05 -0.15520151 -0.15106241 -0.07225971
0.1364755 -0.07910857 -0.020481853 0.19547911 0.08338136 -0.024162725 -0.18042083 0.003027806
0.07694847 -0.004531256 0.10568098 -0.2218797 -0.12521158 0.21550201 0.08222034 2.6291495e-06
0.0001419404 -0.0037850803 0.023901628 0.034690287 0.09348999 -0.1195429 -0.00023171795 0.038653895
0.08476353 0.05831721 -2.5076883e-05 0.046313383 -0.2569398 -0.032484148 0.19693036 0.0077593643
-0.11240865 0.028167529 0.0338159 -0.0024445928 0.05386642 0.0016950801 0.09067217 -0.0020513642
0.028424995 -0.053694446 -0.079588525 0.0017818944 0.10464378 -1.063174e-06 0.00010429463 -0.0010109153
-0.08473382 -0.24764544 -0.0635539 0.06880907 -0.00060568284 -0.10115257 -0.101896636 -0.057614844
-2.4743455e-05 0.035317224 0.0861049 -0.25423405 -0.23629554 -0.013932487 0.082857765 0.09946376
0.005520779 -0.032728225 0.14239338 0.00023033052 -0.012828665 -0.0017682352 0.09265034 0.025243046
0.09396833 0.12937984 -0.13672316 4.2776887e-06 6.168784e-05 0.01835232 -0.20098107 -0.1362046
0.010975956 -0.3427019 5.0476916e-05 0.11370228 -0.16343805 0.1971621 -6.112998e-06 0.18376939
-0.13856094 0.13924439 0.12614062 -0.007895006 0.02089991 -0.05032344 0.014998461 -0.04283808
0.09715087 -0.0031920513 -0.06691646 -0.00088406703 -0.09742132 0.10351199 0.22592975 -0.11668092
0.05797849 6.6045993e-07 8.546295e-06 0.03993246 0.11567169 0.04245735 -0.044805642 0.13632765
-1.1903246e-05 0.19707759 -0.043151412 -0.043724053 1.8453177e-06 0.027208107 0.15507707 -0.038182884
-0.03907421 -0.05429383 0.006559722 -0.03913553 -0.00032580036 0.0032626938 -0.2612373 0.003168815
0.14832671 -0.0021652346 -0.023394868 -0.2665672 -0.38928288 0.013091516 -0.027248465 2.1578908e-06
-0.00013856222 -0.06414657 0.14116862 0.053798832 0.13116977 -0.12881115 -0.00021571544 -0.061826233
0.23942617 0.11295781 -7.232656e-06 0.036353305 -0.20992719 -0.09939476 0.004388122 0.10770153
00000000: 182c a4b8 54ea bc3c 594e c63d 3240 3e3d
00000010: 8dda 213d 5128 0cbd 77ef 1eb9 7830 9c3d
00000020: 1719 553c 6b22 ccbd 1842 89b5 1723 3c3d
00000030: 47ed 3bbd 2331 293d 9a7f b13c 76fe cdbc
00000040: 6a02 05bd 5722 e3bd 211e 6cbd 3daf a7bc
00000050: fa34 fabd 9c70 6ab8 a40f 76bc d069 cd39
00000060: 40d2 8fbd 48ca ea3d 0662 cdbc 2398 88be
00000070: 17ce b13c fb6b b3b7 3ffa f338 f280 1d3d
00000080: fd7b 5ebc 77b8 e4bd af9c f93c b028 e23c
00000090: 7121 8c39 b170 debe 4b93 e6bd cc70 4b3d
000000a0: 9090 8c36 121c 273d 4ba6 163d 9471 96bc
000000b0: c9a7 8dbe 58c1 23bd 0c89 103d d566 8ebd
000000c0: 0975 ba3d b8e3 c3bb ba48 b73d 8b3a 29b9
000000d0: 9f89 0a3d e46b 03bb 9b2f 28bd e22d 283d
000000e0: ce3d 2d3d 04e2 07be cf7b 17be fdaf efb6
000000f0: ba68 86b9 e19f a5bc cedb a43c 02c1 69bd
00000100: 7fc5 f7b9 1d9d b9bc 0754 5d37 2a72 1d3e
00000110: 1792 21be d618 65bd 091f 8037 05d1 84bc
00000120: 3a9b 98bd bbee b03d 14c1 6f3e 84e7 1bbe
00000130: aada 37be 63c6 e7bd b05b a43c d6ea 90bc
00000140: 6c23 6abe 93d1 5a3b 4fc4 2a3d ec34 87ba
00000150: c6fd 3cbe 82a8 ffbd 9f02 98be 7549 20be
00000160: bf84 783d 1253 ac34 2a37 f5b9 9af4 ea3c
00000170: 0ce9 abbd a1c7 eebd e456 59bc cb7e 8a3d
00000180: ec86 8038 7bf2 5a3d 979d ad3c 4525 5bbd
00000190: cbab 8db8 25ed 1ebe 1bb0 1abe e6fc 93bd
000001a0: 3cc0 0b3e ad03 a2bd 8fc9 a7bc ad2b 483e
000001b0: d9c3 aa3d e8f0 c5bc 3dc0 38be 286e 463b
000001c0: 2997 9d3d ee7a 94bb 456f d83d 6f34 63be
000001d0: 7737 00be 8fac 5c3e 2363 a83d 7270 3036
000001e0: d6d5 1439 1c0f 78bb 59cd c33c 6717 0e3d
000001f0: ae77 bf3d e8d2 f4bd 50f9 72b9 8c53 1e3d
00000200: 8098 ad3d 07de 6e3d 325c d2b7 1ab3 3d3d
00000210: 9d8d 83be 190e 05bd 1da8 493e 4442 fe3b
00000220: 8236 e6bd 97bf e63c 8b82 0a3d 7635 20bb
00000230: 09a3 5c3d 732d de3a 55b2 b93d 2e70 06bb
00000240: 89db e83c b5ee 5bbd 4fff a2bd 748e e93a
00000250: 7a4f d63d 61b2 8eb5 c1b8 da38 b080 84ba
00000260: ed88 adbd c496 7dbe 8c28 82bd c5eb 8c3d
00000270: b0c6 1eba 1429 cfbd 2faf d0bd 8bfd 6bbd
00000280: 2a90 cfb7 cba8 103d c457 b03d f72a 82be
00000290: 75f7 71be 1645 64bc 55b1 a93d a8b3 cb3d
000002a0: a7e7 b43b 080e 06bd 92cf 113e e184 7139
000002b0: 522f 52bc 21c4 e7ba 76bf bd3d 81ca ce3c
000002c0: 7872 c03d 267c 043e 2801 0cbe 1189 8f36
000002d0: 685e 8138 9b57 963c fbcd 4dbe 3879 0bbe
000002e0: 7fd4 333c a076 afbe 2db7 5338 bedc e83d
000002f0: 4e5c 27be dde4 493e 411e cdb6 0b2e 3c3e
00000300: ebe2 0dbe 1596 0e3e 022b 013e 0e5a 01bc
00000310: 4a36 ab3c f41f 4ebd 1bbc 753c fc76 2fbd
00000320: 09f7 c63d bc31 51bb 7f0b 89bd bcc0 67ba
00000330: d484 c7bd 18fe d33d 215a 673e 68f6 eebd
00000340: da7a 6d3d 764a 3135 0f62 0f37 3890 233d
00000350: 47e5 ec3d c2e7 2d3d 1f86 37bd 7a99 0b3e
00000360: 0db4 47b7 b5ce 493e 89bf 30bd fe17 33bd
00000370: a2ac f735 89e3 de3c 86cc 1e3e a865 1cbd
00000380: 470c 20bd 3563 5ebd f0f2 d63b 944c 20bd
00000390: 2fd0 aab9 ebd2 553b e5c0 85be e5ab 4f3b
000003a0: f5e2 173e 9ce6 0dbb 98a6 bfbc 7f7b 88be
000003b0: 1650 c7be cc7d 563c 2c38 dfbc 48d0 1036
000003c0: 034b 11b9 475f 83bd 828e 103e 2a5c 5c3d
000003d0: 5e51 063e 12e7 03be ac31 62b9 813d 7dbd
000003e0: 222c 753e 6d56 e73d 0bb0 f2b6 34e7 143d
000003f0: 27f7 56be 7b8f cbbd 3cca 8f3b 9f92 dc3d

weight f4 [12]
0.27774075 0.32660705 0.664813 0.51426363 0.2700822 0.35870954 0.49848315 0.45235068
0.35193977 0.25134292 0.40713483 0.40156338
00000000: 0934 8e3e 0a39 a73e 2f31 2a3f c8a6 033f
00000010: 3748 8a3e c7a8 b73e 2f39 ff3e 829a e73e
00000020: 7331 b43e 05b0 803e fa73 d03e b799 cd3e

bias f4 [12]
-0.0637161 0.008953911 -0.2440397 -0.21125376 0.07920921 -0.086253926 -0.24856673 0.06325694
-0.040807307 -0.21956964 0.3094449 0.36873126
00000000: 967d 82bd 6db3 123c 8be5 79be e852 58be
00000010: 7038 a23d e6a5 b0bd 4788 7ebe db8c 813d
00000020: 9025 27bd ddd6 60be 906f 9e3e 58ca bc3e

running_mean f4 [12]
-0.027961755 -0.21352899 -0.2133485 -0.061535317 0.05146585 -0.027235422 0.15275277 -0.14892374
0.027833737 0.14543635 -0.4239766 -0.11567449
00000000: 0d10 e5bc 58a7 5abe 0778 5abe 750c 7cbd
00000010: dbcd 523d d21c dfbc 396b 1c3e 777f 18be
00000020: 9403 e43c 44ed 143e 7613 d9be bfe6 ecbd

running_var f4 [12]
0.0044774027 0.025352092 0.060993504 0.022878049 0.010074572 0.01942279 0.02074835 0.073962554
0.011874158 0.0059007504 0.061954606 0.13430393
00000000: 2db7 923b 31af cf3c 53d4 793d bf6a bb3c
00000010: d10f 253c 8b1c 9f3c 72f8 a93c ae79 973d
00000020: d48b 423c 155b c13b 1dc4 7d3d f886 093e
