checkpoint/Densenet100-4-4_0.pth (torch_old, 606375 bytes, 498 tensors)

weight f4 [24, 3, 3, 3]
000000 c6 93 be 3e ee ff fd be fc cf 74 bf 62 c9 9c 3f
       0.37222117 -0.4960932 -0.9562986 1.2248957
000010 4e c5 3b 3e d6 39 87 bf b4 f4 47 3f 61 5f d4 3e
       0.18336985 -1.0564525 0.7810776 0.41479018
000020 98 f9 df be 33 44 70 be 60 84 56 3e 61 df 37 3f
       -0.43745112 -0.23463516 0.20948935 0.71825224
000030 2d 91 1c bf 76 98 dc bc 6d 90 05 3f 29 04 24 bf
       -0.6115902 -0.026928168 0.521735 -0.6406885
000040 a7 55 56 be 8f 5d 1a 3e ce ad d5 bd 0b 38 2e 3e
       -0.20931111 0.15074752 -0.10433541 0.17013566
000050 b8 60 10 3e 59 99 24 bf 5d 79 50 3d 03 8e 17 3f
       0.14099395 -0.6429649 0.05089699 0.5920107
000060 d7 79 a8 be fa ac fc bd 74 a2 3a 3e cf b5 34 bf
       -0.32905456 -0.1233768 0.18226033 -0.7058992
000070 ae d8 93 bf 46 6a 08 bf 73 1c 14 3e dd 69 d9 3d
       -1.15505 -0.5328716 0.14463978 0.10615895
000080 b6 73 1e 3e 7c 4d 31 3f 00 17 9a 3f 56 32 06 3f
       0.15473828 0.69258857 1.2038269 0.52420557
000090 ca 75 9d 3e 10 01 88 3e ae a2 66 3e bd 60 66 bd
       0.30753928 0.2656331 0.22522995 -0.0562446
0000a0 d7 0c 80 be ca dc b1 bd b2 f4 70 be 04 2f 6c be
       -0.25009796 -0.0868469 -0.23530844 -0.2306481
0000b0 35 fa 41 be c9 f1 1f 3f 7e cd 64 3f b8 8c f6 3e
       -0.18943103 0.6247831 0.89376056 0.48154235
0000c0 44 41 4e 3c 01 77 ce bd 58 34 d7 3d c4 be 19 bf
       0.012588803 -0.10081292 0.10508031 -0.6005671
0000d0 74 c1 57 bf 1e 1e 05 bf 8e 53 87 be 39 25 b7 be
       -0.8427956 -0.5199908 -0.26430935 -0.35770586
0000e0 e5 28 4d be d4 05 9e be ca 55 a0 be a4 2d 72 be
       -0.20035131 -0.30863822 -0.31315452 -0.23650223
0000f0 33 ae 9d 3d 1e 79 47 bd 3c e5 3c 3d 85 1e d4 3e
       0.076992415 -0.04869949 0.046117052 0.41429535
000100 25 77 18 3f 7d af ba 3e f8 b0 d7 3e 71 d1 3e 3f
       0.595568 0.36462012 0.42127204 0.7453833
000110 96 38 b4 3e 83 16 97 3e a7 2a e3 3e ef 0b 1b 3e
       0.35199422 0.29509363 0.4436848 0.15141271
000120 bb 4d aa bd 0d 50 b8 be 6b f1 cf 3c ac 10 ea be
       -0.08315607 -0.35998574 0.025383672 -0.45715845
000130 5f e2 31 bf 96 6c 8f be 71 05 a7 bd 32 f9 ad be
       -0.6948604 -0.28012532 -0.08155335 -0.33979183
000140 b3 13 25 3d 1a e3 5f bd 26 ee 94 bd 36 64 3f 3c
       0.04030199 -0.05465994 -0.07271986 0.011681607
000150 b7 c0 11 bd 29 b7 26 be 09 ac 85 bc 99 b4 c8 3d
       -0.035584178 -0.16280808 -0.016317384 0.09800071
000160 ab d8 1f 3d 14 f5 94 3b a4 5f aa 3b f2 80 b4 bb
       0.03902499 0.004545817 0.0051993895 -0.0055085355
000170 a1 d7 4f 3d 32 14 d5 bc 93 a3 c3 bd 81 f9 50 3d
       0.05074275 -0.026010606 -0.09552684 0.051019195
000180 6e 59 8d 3d 02 20 09 3e 9f de c7 3d 8a 85 b7 bd
       0.06901823 0.13391116 0.097592585 -0.089610174
000190 2a 2a 10 be 93 4f e5 bd c1 74 78 be e9 a1 ad be
       -0.14078584 -0.11196818 -0.24263288 -0.3391259
0001a0 d0 14 4c be 3c 1b 14 be 11 41 d7 bd 27 ec f8 bd
       -0.19929814 -0.14463514 -0.10510457 -0.121544175
0001b0 a3 da 19 3e 43 74 c9 bd 4b 75 39 3e c8 3a 02 be
       0.1502481 -0.09836628 0.1811115 -0.12717736
0001c0 36 e1 3f bf a9 ba 00 be 8c f5 6b 3e 21 94 36 be
       -0.7495302 -0.12571205 0.23042887 -0.17829944
0001d0 bb 22 3b 3e 1f fc ca 3d d9 5b 81 be 82 98 79 3d
       0.18274967 0.099113695 -0.25265387 0.06093646
0001e0 4b 16 94 be 65 a5 80 bf be 52 af be b8 75 bb 3c
       -0.28923258 -1.0050474 -0.34242815 0.022883281
0001f0 09 e8 ba be 2e 53 80 3d a6 db c7 3d 66 ef 11 be
       -0.36505154 0.06265865 0.097586915 -0.1425148
000200 86 bc 5c 3d 77 ab 33 3d 8b 4e c9 be 05 91 56 bc
       0.053890727 0.043864693 -0.39317736 -0.013096099
000210 96 fb ff 3d cb 57 a7 bd d7 5c a4 3d 8e 91 2a be
       0.12499158 -0.08171042 0.0802552 -0.16657087
000220 ee e9 35 be de 8d e8 3d 52 4d 9d be 08 ae 08 be
       -0.17765018 0.11355184 -0.30723053 -0.13347638
000230 cf 0a b5 3e a9 94 8b 3b 90 42 0d 3e 42 ec 98 3e
       0.3535981 0.004259665 0.13794923 0.2986775
000240 a0 f8 d0 be 00 e3 cf be 8b 6c 3e bd 35 4f 9b be
       -0.40814686 -0.40602875 -0.046490233 -0.30333868
000250 52 72 22 be 85 95 ae 3e 58 82 77 3e 15 32 a6 3e
       -0.15863922 0.3409845 0.24170816 0.32460085
000260 5c 64 ca 3e f3 6e 20 be 52 b3 72 be a9 a9 a8 3d
       0.39529693 -0.15667324 -0.23701218 0.08235485
000270 2c ba b3 be 57 17 29 be 34 62 96 3e 48 9c c4 bc
       -0.35102975 -0.1651281 0.29371798 -0.024000302
000280 dc 96 c8 3d 74 56 65 3e ed 41 85 bd c7 7f 49 3e
       0.09794399 0.2239626 -0.06506715 0.1967765
000290 c6 9e 65 3e f6 76 05 bf 2e f0 0b 3d 2d 14 10 3f
       0.22423849 -0.52134645 0.0341646 0.56280786
0002a0 16 6b af be 20 83 8f bd a6 43 0d 3e e2 6d b7 be
       -0.34261388 -0.07007432 0.13795337 -0.3582602
0002b0 8c 3b a7 3d b1 7e d0 3e 11 cd 41 bf 8f 98 85 bc
       0.081656545 0.40721658 -0.7570353 -0.016308097
0002c0 3f 1e 43 3f 92 73 e9 be b6 29 85 bd 8d 38 92 3e
       0.76218027 -0.45595986 -0.06502096 0.2855877
0002d0 80 22 8a be 3d 4a b2 3d 3c 8a 98 3e b1 07 41 bf
       -0.26979446 0.08705566 0.29792964 -0.7540236
0002e0 83 e1 7d 3c 23 0c 36 3f 08 56 e1 be 86 c6 82 3c
       0.015495661 0.7111227 -0.4401095 0.015963804
0002f0 45 83 85 3e 86 11 30 3e 09 53 a5 3e cc 53 53 3e
       0.26076713 0.17194185 0.32289913 0.20637435
000300 ee 85 c7 3e 67 b2 03 3f 77 20 9d 3e 08 43 4a 3e
       0.38969368 0.51444095 0.3068883 0.19752133
000310 32 5d 4a 3e bb a7 00 3e 2f d1 69 be a0 97 07 bf
       0.19762114 0.12563984 -0.22833703 -0.52965736
000320 65 ed 27 be 5a 7e 00 bf 35 93 63 bf fc 20 e5 be
       -0.16399153 -0.501928 -0.88896495 -0.44751728
000330 23 2d d3 bd f8 ba df be 37 26 06 bd 28 4a 9a 3d
       -0.103113435 -0.43697333 -0.03275129 0.075336754
000340 8b 3a 9b 3d fe f3 6d bd 04 2a a9 3d 7c dc 8e 3d
       0.075795256 -0.058094017 0.08259967 0.06975648
000350 11 95 c2 bc 1e a7 6a bb b4 29 72 3c ef f2 ad bd
       -0.023752721 -0.0035805176 0.014780451 -0.084936015
000360 60 5b 79 3f 68 df 03 3f 98 f3 ca be 2d ab 87 3f
       0.9740505 0.51512766 -0.39638972 1.0599114
000370 64 3c 0f bd 03 97 8e bf 78 aa 89 3e 65 d2 1e bf
       -0.034969702 -1.1139835 0.2688787 -0.62039787
000380 a9 d7 3c bf f2 84 95 be 70 fc 62 be c6 4f c8 3d
       -0.7376657 -0.29202992 -0.2216661 0.097808406
000390 e9 07 93 bd bc 68 58 3d 46 e7 b6 3d 83 78 48 3e
       -0.07179243 0.052834257 0.08930831 0.19577222
0003a0 33 e1 33 3e bf 61 09 3e 5b c6 34 bf 10 5a 55 be
       0.17566375 0.13416193 -0.70615166 -0.20835137
0003b0 ae af ea 3e ed 9b 4d bf 6e 30 c1 3d 8c 14 33 3f
       0.45837158 -0.8031605 0.09433065 0.6995323
0003c0 71 28 9a be f5 45 97 3e 1a cf 06 3f aa e8 b0 3c
       -0.3010898 0.2954556 0.5265976 0.021595318
0003d0 e7 63 c7 be 05 57 dd 3d bf 3c 9b be 3a d0 71 3f
       -0.38943407 0.10807613 -0.30319783 0.94458354
0003e0 f5 0f 9e be b4 10 c7 3d fc 7f 44 bd 47 01 ae bb
       -0.3087155 0.09719983 -0.047973618 -0.005310211
0003f0 74 f4 50 bd fd be e7 bd d1 06 83 3d 11 f9 d7 be
       -0.05101438 -0.11315725 0.063977845 -0.4218221

weight f4 [24]
000000 86 d8 b4 34 be 5a c4 38 d1 d4 ec 3d 99 60 17 37
       3.3685154e-07 9.36291e-05 0.11564029 9.022792e-06
000010 e1 ae 7c 3c e4 39 78 3e 1a 7e 66 3a 64 c3 7c 38
       0.015422554 0.24240834 0.00087925943 6.0263454e-05
000020 89 60 b6 37 47 b2 80 3e 7f 7f 94 3e 25 87 24 3c
       2.1741043e-05 0.25136015 0.29003522 0.010041987
000030 b8 c8 b6 37 7d f8 bb 36 25 7e fe 36 9c d6 35 3a
       2.1789558e-05 5.601962e-06 7.584475e-06 0.00069365813
000040 e5 5c f7 38 42 af 63 3e 1b bf d5 3c 1b 62 52 3e
       0.00011795181 0.22234824 0.026092103 0.20545237
000050 e2 94 89 3e 01 00 70 3e 22 8b bd 37 5e c9 0f 37
       0.268714 0.23437501 2.2595344e-05 8.570349e-06

bias f4 [24]
000000 ae 98 4c b7 29 d7 b1 ba 75 f3 2f 3e da 72 cc b7
       -1.2194896e-05 -0.0013568151 0.17182715 -2.4372177e-05
000010 d8 08 08 bd 8c df a0 3e 9f ba a7 bb 44 d5 37 ba
       -0.03321156 0.31420553 -0.0051186825 -0.0007012675
000020 cb cb cb b9 62 f4 6e 3f b6 7e cb bd 2d fb 5f ba
       -0.00038871015 0.9334165 -0.099362776 -0.0008544203
000030 a4 98 05 b9 f4 35 1c b8 d4 d1 ca b7 a0 e3 86 bc
       -0.00012740731 -3.7243546e-05 -2.4177985e-05 -0.016465962
000040 31 da f8 b8 50 ed 8d 3e 84 c7 50 be 7b 9f f6 3e
       -0.00011866203 0.27720118 -0.20388609 0.4816855
000050 93 7d a3 bd 10 f2 ba 3e 87 86 bb b8 0d ba a8 b8
       -0.07982936 0.36512804 -8.9419125e-05 -8.045519e-05

running_mean f4 [24]
000000 db 17 06 3d ef 40 4c bd ab 33 f4 bc a5 30 da 3e
       0.032737594 -0.049866613 -0.029809793 0.42615238
000010 c5 b9 81 3f c3 36 9e 3d 97 01 be 3c c5 f4 94 3e
       1.0134817 0.07725289 0.023194117 0.29092994
000020 bd c0 25 bd 60 59 68 bd a6 b8 8d bd 46 b7 4b be
       -0.040467013 -0.05672586 -0.069199845 -0.19894132
000030 f6 a3 1b bb 97 06 cb be 9b 86 c2 be 04 2c 71 3d
       -0.0023748851 -0.39653465 -0.3799332 0.058879867
000040 b6 8f cf bd a9 7a 6b 3d c8 6a c0 3d 10 26 08 be
       -0.101348326 0.057490025 0.09395367 -0.1329577
000050 fa 84 41 3d 27 4f 1f 3e cf 56 db 3e 13 68 38 be
       0.047245957 0.15557538 0.42839667 -0.18008451

running_var f4 [24]
000000 ff a0 16 3f 65 7a 80 3f 77 73 b1 3f a6 70 54 40
       0.5883941 1.0037352 1.3863362 3.3193755
000010 00 42 73 41 28 4d 9e 40 5a 7c 3e 41 e6 f7 1c 40
       15.203613 4.9469185 11.905359 2.4526305
000020 90 98 54 3f 9d ee ad 3f 8c bb 3c 41 22 cd 2e 40
       0.8304529 1.3588444 11.795788 2.7312703
000030 b2 cd c3 40 20 18 41 40 76 26 04 40 48 00 32 3f
       6.1188593 3.0170975 2.0648475 0.6953168
000040 51 c0 08 40 5c 65 62 40 49 c7 8f 40 55 26 20 40
       2.136738 3.5374365 4.493077 2.5023396
000050 ae 25 8e 41 b6 df 12 40 a7 56 50 40 55 00 05 40
       17.768398 2.2949042 3.2552888 2.0781453

weight f4 [16, 24, 1, 1]
000000 0e d6 01 36 65 1b 58 ba b0 ab 67 3d 73 2d f8 b6
       1.9347094e-06 -0.0008243828 0.05656022 -7.396267e-06
000010 4c 49 28 bc 3b e8 c8 be 80 40 0b bb 5c 27 8d 39
       -0.010271382 -0.39239678 -0.0021248162 0.0002692294
000020 96 3a 38 b9 be db 0f 3e 18 4f 82 be e3 07 e2 ba
       -0.00017569432 0.14048669 -0.2545097 -0.0017244782
000030 fb 88 37 b8 16 b3 2b 37 62 53 41 37 55 eb 57 bc
       -4.3758173e-05 1.0234091e-05 1.15231105e-05 -0.013178666
000040 75 85 82 b8 78 b4 ae bd 57 02 4e 3d 28 5d 75 3d
       -6.2237414e-05 -0.085305154 0.0502952 0.059903294
000050 c4 83 96 bc 6c bc 3d be 43 03 c4 b7 c4 cb dc 38
       -0.018373378 -0.18528908 -2.336654e-05 0.00010528372
000060 1d 69 81 36 56 c3 20 b9 d7 5b b1 bd 72 15 35 35
       3.8567364e-06 -0.00015331557 -0.08660095 6.745896e-07
000070 98 02 24 bb 71 85 88 bd f8 63 05 bb 5b 31 65 b8
       -0.002502596 -0.06666077 -0.0020353775 -5.464382e-05
000080 b1 f9 23 b9 08 cc 26 be 59 ba 20 3d 49 af 51 3b
       -0.00015637909 -0.16288769 0.039240215 0.0031995347
000090 59 ee 5f b7 b1 05 29 b7 a6 a6 d2 b4 99 15 75 36
       -1.334733e-05 -1.007451e-05 -3.92368e-07 3.6520416e-06
0000a0 e1 bc a8 b8 49 86 96 3d a6 1b 63 bc d3 8e f0 3c
       -8.046046e-05 0.073498316 -0.013861572 0.029364979
0000b0 c9 f8 d1 bc 20 39 e2 bc ac 17 31 37 1c a6 1d b8
       -0.025631325 -0.02761513 1.0555534e-05 -3.758642e-05
0000c0 ed d7 ab b6 92 5e 8a b9 62 66 3c 3c 2e 58 dd b6
       -5.121334e-06 -0.00026391872 0.011499019 -6.5965787e-06
0000d0 1a 30 91 bb fa a5 0d bd 9e e2 ac 39 14 64 ce b7
       -0.004430783 -0.034582116 0.0003297524 -2.4603716e-05
0000e0 5f 07 41 38 fd 24 48 3b e6 ed 03 bd a7 76 54 bb
       4.602165e-05 0.0030539625 -0.0322093 -0.0032419355
0000f0 c9 4d 67 38 ea 2c ad b6 c8 ee 06 b6 b6 dd 86 39
       5.5147135e-05 -5.1610305e-06 -2.0106545e-06 0.0002572366
000100 ad cd c0 38 f5 fe ed 3d 7f 28 8d 3c ae 2e a1 bd
       9.1935835e-05 0.11620895 0.017231224 -0.078702316
000110 c6 bf 59 bd 85 e1 a7 3d 5c 65 6d b8 5b 33 09 b7
       -0.053161405 0.08197311 -5.65996e-05 -8.1777935e-06
000120 62 99 56 35 2c 48 5b 3a 5a 04 0a be 26 ae 42 36
       7.9944414e-07 0.00083649415 -0.13478222 2.900962e-06
000130 4b a9 92 3a 36 02 7e 3d dc 26 eb ba c2 d2 92 b9
       0.0011189369 0.062013827 -0.0017940658 -0.00028004317
000140 28 26 98 b9 fe 2b 28 bf 70 a2 01 bd d7 8b 84 ba
       -0.00029020128 -0.65692127 -0.031649053 -0.0010112476
000150 89 0d c5 37 2c 57 80 b7 1c 39 b0 b5 18 74 2f bb
       2.3490533e-05 -1.5299382e-05 -1.3129643e-06 -0.0026772078
000160 f9 21 f6 b7 51 1a 26 bd 64 c9 f4 bd 6b 65 5b 3d
       -2.9341305e-05 -0.04055244 -0.11952475 0.053563517
000170 ca 76 7e bb d0 83 d4 3b 54 62 9b 37 57 d6 01 38
       -0.0038828128 0.00648544 1.8523227e-05 3.0955616e-05
000180 ff 3f 92 b6 09 07 2d b9 40 c7 11 bd 20 86 26 36
       -4.358589e-06 -0.00016501186 -0.03559041 2.4813999e-06
000190 55 24 5b 3c f3 22 d8 bd 32 d6 66 bb 50 00 b4 b8
       0.013375361 -0.10553541 -0.0035222885 -8.583127e-05
0001a0 23 d8 9b b9 9c 93 0d 3c f7 b9 92 bd b6 aa af 37
       -0.00029724938 0.00864115 -0.07164376 2.094112e-05
0001b0 fa de 0a 38 90 e9 62 36 eb 96 3f 36 fe ea 87 bb
       3.3109427e-05 3.3812576e-06 2.8549064e-06 -0.0041478863
0001c0 c9 be 11 b8 1b 00 d0 3d c3 91 00 bd 79 c3 98 3d
       -3.4748376e-05 0.1015627 -0.03138901 0.074591585
0001d0 21 cc ff bd b9 4f 91 3d f9 e5 b6 b7 2e 8a 3e 37
       -0.124901064 0.07095284 -2.180318e-05 1.1357055e-05
0001e0 70 9c c9 b6 33 9b 67 b3 a6 e4 c4 bd 87 67 c4 35
       -6.0084785e-06 -5.392503e-08 -0.09613924 1.4633268e-06
0001f0 25 64 5c 3b 6f ff 61 be 89 c1 40 ba 9b 21 5e b7
       0.0033629027 -0.22070096 -0.0007353058 -1.32400555e-05
000200 5f a4 d0 38 03 ad 28 3d a3 07 a2 bd f0 99 33 ba
       9.9488294e-05 0.04118062 -0.07911613 -0.00068512466
000210 82 1e 8b 36 a2 98 04 b7 ec 2d 69 b5 69 f1 79 3a
       4.1460744e-06 -7.903351e-06 -8.686609e-07 0.0009534569
000220 27 17 4b b7 cd 35 16 3e 75 54 d5 bc 11 11 34 3e
       -1.21051335e-05 0.14668961 -0.026041249 0.17584635
000230 4d 93 f2 bd 02 c8 ed 3c 53 b7 36 b6 d1 fa 49 36
       -0.11844502 0.029026035 -2.7226822e-06 3.0097328e-06
000240 f4 c5 07 b7 30 b2 77 39 83 c8 17 bd e5 99 19 35
       -8.092717e-06 0.00023622136 -0.037056457 5.722089e-07
000250 97 13 12 bb 78 44 49 bd da c3 b3 b8 93 3b 19 b8
       -0.0022289508 -0.049137563 -8.571865e-05 -3.6533525e-05
000260 5c 51 cb 38 7a 17 1d be 65 37 88 bc 96 4e 8a ba
       9.694949e-05 -0.15340987 -0.016627977 -0.0010551985
000270 ba 2b 03 b7 1f 62 83 36 a9 f7 69 b6 35 c6 b4 39
       -7.818389e-06 3.915527e-06 -3.4863863e-06 0.0003447995
000280 73 0b b5 37 b2 d6 79 3d ad 9a bb 3a 7f f9 8a 3c
       2.1582213e-05 0.060995765 0.0014313065 0.016964672
000290 0b 2e a4 bc ba 32 db bc 65 32 cc 37 4f 63 02 b7
       -0.020041486 -0.026757587 2.4342162e-05 -7.771726e-06
0002a0 d8 d7 a0 b6 a9 1c d5 b9 25 4d 2e 3c 02 4d 5a 37
       -4.793499e-06 -0.0004064788 0.01063851 1.3011742e-05
0002b0 2c d5 ae 3b a9 08 8d 3c c4 98 03 3b 25 42 f1 b8
       0.0053354707 0.017216044 0.002008007 -0.00011504096
0002c0 1c 68 71 39 3a eb 73 be 20 cb 7a be fd 90 dd b9
       0.00023022335 -0.238202 -0.24491549 -0.0004226043
0002d0 6a 50 a1 36 63 d0 c4 b6 b2 36 60 35 d2 c6 1b bc
       4.8075353e-06 -5.8655146e-06 8.3526095e-07 -0.009507852
0002e0 e3 5f 25 37 04 64 08 bd 21 b3 6a bd af b5 87 be
       9.857092e-06 -0.033298507 -0.057299737 -0.265058
0002f0 67 2d 23 be 7a 84 70 3d db 19 3d 38 7b 10 75 b6
       -0.15935288 0.05872009 4.508519e-05 -3.6517438e-06
000300 68 cb 68 b6 cf bf 87 b9 f5 6f df bb 6b 0c de 35
       -3.4689092e-06 -0.00025892115 -0.0068187662 1.6543903e-06
000310 b6 28 82 bb 1a a5 97 bd cc a9 bc b9 9e 62 b5 b8
       -0.0039721383 -0.074045375 -0.00035984663 -8.6491214e-05
000320 d0 b8 c6 39 1f df 38 3c 07 b7 04 bd 0b da 79 ba
       0.000379032 0.011283665 -0.03240111 -0.0009531087
000330 c0 d5 dc 37 6b f8 ae 36 a4 ec e6 32 10 56 0f bc
       2.6325579e-05 5.2145238e-06 2.6883136e-08 -0.008748546
000340 59 f0 0f 38 fa 0d f9 3d ad 92 31 bb 99 a6 97 bd
       3.4317698e-05 0.12160869 -0.0027095482 -0.07404823
000350 c7 cd 60 bd dd 5d 5f 3c fb f9 e9 b7 69 5e 07 38
       -0.054883745 0.013633219 -2.789217e-05 3.2274434e-05
000360 9e 61 79 b7 bd 61 c1 b6 54 55 cd bc 2b 53 8f b7
       -1.4864285e-05 -5.7632265e-06 -0.025065102 -1.7085657e-05
000370 a0 c9 93 3a be 10 71 3d 42 9c 1e 3b 0c b7 64 38
       0.0011275299 0.058853857 0.0024202024 5.452991e-05
000380 8d ef 4a b8 05 27 7b 3d b4 24 58 be e3 e6 ef bb
       -4.8383652e-05 0.06131651 -0.21107751 -0.007321225
000390 6e b2 c9 b8 ee fe 71 37 03 3a 98 36 2f 39 d4 ba
       -9.617662e-05 1.4424075e-05 4.5367065e-06 -0.0016191358
0003a0 9f a5 c3 b8 b7 98 3b be a9 3c 27 bd cd 13 a1 3e
       -9.329174e-05 -0.18319975 -0.040829334 0.3146042
0003b0 0a a7 40 be 8c ed 98 be 96 70 d0 b7 b0 70 47 38
       -0.1881372 -0.29868734 -2.484796e-05 4.7550246e-05
0003c0 52 be aa b6 39 c3 31 b9 2d 1e 1d 3d b5 e1 76 36
       -5.088551e-06 -0.00016952762 0.038358856 3.6788235e-06
0003d0 0a 17 b4 bc 6a ce 15 3e a8 74 e8 39 49 15 a5 37
       -0.021983642 0.14629522 0.00044337404 1.9679444e-05
0003e0 53 60 bb b8 eb 59 82 3e fc 58 20 3e 63 9e 25 3b
       -8.934797e-05 0.25459227 0.15658945 0.0025271408
0003f0 65 de 67 b8 65 d0 7c 37 ae 3e 86 37 55 28 3d 3c
       -5.5281813e-05 1.5068891e-05 1.6003232e-05 0.01154526

weight f4 [16]
000000 b3 8a a3 3e 1f 03 41 3e 3b 91 35 3e d9 af ad 3e
       0.31941757 0.18848847 0.17731182 0.33923224
000010 4d c6 bf 3c 13 a7 8c 3e 79 23 3e 3e d9 b1 74 3e
       0.023409987 0.27471218 0.18568219 0.23895968
000020 80 f7 2c 3e 82 54 b9 3e c4 10 a8 3e d8 65 39 3e
       0.16891289 0.36197287 0.3282529 0.18105257
000030 f1 b3 d9 3d 72 e8 95 3e e0 32 83 3e f6 c3 8a 3e
       0.10630024 0.29278904 0.25624752 0.2710263

bias f4 [16]
000000 20 bc 66 3e 6f ba 31 be 31 6d 7d bd fe 81 38 3f
       0.22532701 -0.17356275 -0.06187171 0.7207335
000010 6e a5 fd bd 83 4c 7c 3d 4f 24 f0 bd 89 44 84 bd
       -0.12385069 0.061596405 -0.11725675 -0.064583845
000020 05 70 0e be 52 40 1c 3c 10 7d 8f 3e fc db 84 be
       -0.1390992 0.0095368195 0.28025103 -0.25949085
000030 bc dc 7a 3e 1b 87 2c 3f 60 51 50 3c 24 7a 8c bb
       0.24498266 0.67393655 0.012714714 -0.0042870212

running_mean f4 [16]
000000 cf ba 88 bd 00 11 27 be 44 b2 7b 3c 8c 52 1a bf
       -0.06676256 -0.16315079 0.015362326 -0.60282207
000010 b7 2c 4b 3d dd 0f a1 3d c6 8d 1b be 05 42 b5 be
       0.04960319 0.07864354 -0.15190801 -0.3540193
000020 20 87 75 bc 55 6a 20 3d f5 2a df 3d e0 20 54 be
       -0.01498583 0.039163906 0.10896865 -0.20715666
000030 cb 16 6f be 18 34 0c 3f 53 84 38 3d 59 b4 08 3c
       -0.23348539 0.5476699 0.04504807 0.0083437795

running_var f4 [16]
000000 f4 c6 9c 3c b6 04 c3 3a 2a 17 12 3b 33 cf cc 3c
       0.019137837 0.0014878723 0.002229164 0.025001144
000010 7e cf 16 3b cc d1 e0 3b 11 11 a7 3a ca a8 45 3c
       0.0023011859 0.0068609472 0.0012746175 0.012064168
000020 2d b3 cc 3a 21 3e aa 3c ca a7 8b 3c 65 8a 95 3b
       0.0015617363 0.020781578 0.017047781 0.004563617
000030 a5 6d 17 3b 87 71 76 3c 05 06 96 3b 26 7e a1 3b
       0.0023106125 0.015041715 0.0045783543 0.004928368

weight f4 [4, 16, 3, 3]
000000 02 24 0e 3e df 05 83 bd 30 2c f4 bc 70 a7 2f 3e
       0.13880923 -0.06397604 -0.029806226 0.17153716
000010 4a 24 6b bd 30 a5 ff 3d a9 d4 c4 bd b8 ce 57 3d
       -0.057407655 0.12482679 -0.09610874 0.052687377
000020 57 d9 ba bd c1 a6 89 3c 15 b3 08 3d 77 02 ca 3d
       -0.091234855 0.016803147 0.03337391 0.098637514
000030 f4 86 9e bc 8e 11 00 3d b3 32 4d bc 9f db dc 3c
       -0.01935146 0.03126674 -0.012524295 0.026960192
000040 76 de b1 bc 07 91 64 3d df 05 58 3c 74 d5 ae 3d
       -0.021712523 0.05580237 0.0131849935 0.08536807
000050 80 e8 ee bb 56 f9 36 bc f7 b7 a0 3b d6 6f b0 b9
       -0.0072908998 -0.011167845 0.004904743 -0.0003365266
000060 00 b3 8b bd 84 1c 5c bd 0a d9 b4 3a 4f 69 e6 be
       -0.06821251 -0.053738132 0.0013797593 -0.4500222
000070 c8 89 ae 3e 02 7b 08 3e 2e e5 fc bd d8 65 35 3e
       0.34089494 0.13328174 -0.123484 0.17714632
000080 d0 60 3a be b7 45 fe 3e ee 80 d2 be 6f 8d 10 bd
       -0.18200994 0.49662563 -0.4111399 -0.03529113
000090 7e 40 8d 3d d2 c2 a4 3d 45 51 9f bc 25 ab 45 bc
       0.068970665 0.080449715 -0.019447932 -0.01206473
0000a0 98 b4 3e bd 7c 24 b5 ba 3b f2 46 bd 4b 14 0c bd
       -0.046558946 -0.0013820077 -0.048570853 -0.03419904
0000b0 22 b1 62 bb 92 21 53 3d 64 12 f1 3d 69 78 88 39
       -0.0034590443 0.051545687 0.11771086 0.00026029654
0000c0 bc 0e 9c 3c 7f 88 8e bc 00 e9 a5 3d 49 94 0b be
       0.019049995 -0.01739907 0.08101082 -0.13630785
0000d0 58 47 5d bd 70 7c 7e bd 91 a6 2c 3d 43 2e 3f 3d
       -0.054023117 -0.06213039 0.042151038 0.046674978
0000e0 72 87 b8 3d 37 0a dd bb a8 c5 44 3d da be b6 bc
       0.09010209 -0.0067456025 0.048040062 -0.022307802
0000f0 2c 7a a3 bb 0f 82 03 3b d1 d0 9a 3d 52 a0 1c be
       -0.0049889293 0.0020066535 0.0755936 -0.15295532
000100 74 9a d1 3c 00 98 95 3d d0 f9 91 bd bb e5 00 3e
       0.025586344 0.07304382 -0.07127726 0.12587635
000110 02 75 80 3c ef d0 eb 3d 72 b5 0e be 45 52 62 3d
       0.015680794 0.1151446 -0.13936403 0.05525424
000120 d9 29 eb 3c d9 cf c9 3d fc fc 4c bd 7f 69 bb 3c
       0.028706478 0.09854097 -0.050045952 0.022877453
000130 fd 93 97 3c dd e5 7d b9 aa 00 95 bd 8d 83 1b bd
       0.018503183 -0.00024213591 -0.07275517 -0.037967253
000140 60 42 31 bc 2f a7 1d 3d 8a 87 20 be e5 5e 92 bb
       -0.010819048 0.038489517 -0.15676704 -0.0044668787
000150 df 3d 80 bd ed a8 1f bd f5 1d 5e 3d bd db 8c 3d
       -0.06261801 -0.03897946 0.054227788 0.06877849
000160 eb 93 89 3e 96 3d 64 be 58 0e 01 3e 00 99 5e be
       0.26870665 -0.22289118 0.12603128 -0.21738052
000170 b8 ad ca 3d 8b ca c6 bd 43 42 33 bd 60 5f 35 bc
       0.098964155 -0.09706601 -0.043764364 -0.011070102
000180 11 01 d2 bd 29 1e e4 3e cd db 8c bd 8f bd f0 3a
       -0.1025411 0.4455426 -0.06877861 0.001836704
000190 1c 5a e2 3c 37 b9 07 3e f3 43 1c bd 69 61 22 3d
       0.027630858 0.13254248 -0.03815074 0.03964368
0001a0 fb eb 6c bc d6 2e ab 3d 93 96 56 bd a5 63 40 3b
       -0.014460559 0.083585426 -0.052389693 0.0029356268
0001b0 f0 cc ae bd 58 08 8c 3d e8 49 ec 3b a9 6b f5 bc
       -0.085351825 0.06837529 0.0072109587 -0.029958563
0001c0 4c a9 8d 3d 82 bf fe bc 18 05 d4 3d dd ae d9 bd
       0.069170564 -0.031097177 0.10352534 -0.10629056
0001d0 5b f0 eb 3c a8 2e ab 3e 69 87 21 be 9d 89 2d 3b
       0.028801134 0.33434033 -0.15774311 0.002647973
0001e0 ef 56 98 bd 3e c2 0c be 9f 77 a3 3d 03 d7 b7 be
       -0.07438456 -0.13745973 0.079818 -0.35906228
0001f0 8d 5a bc 3e 93 b8 98 3a a4 42 9a 3d 3d 60 01 3e
       0.36787835 0.0011651687 0.07532242 0.12634368
000200 10 59 85 bd 8f a2 3b 3d 0e 2b 48 bd 32 d3 be bb
       -0.06511128 0.045809325 -0.048869185 -0.0058235163
000210 59 60 f4 bd bd 97 c1 bd 8d 18 b2 3c 91 90 77 3d
       -0.11932439 -0.0945277 0.021740222 0.060440604
000220 1e de a5 3d fc 77 33 bd ed 8a 72 bd 01 cc 19 3d
       0.08099006 -0.043815598 -0.05921452 0.03754807
000230 4b 86 ef bc 29 a5 89 bd 90 88 53 bd a1 73 76 bc
       -0.02923884 -0.06720955 -0.051643908 -0.0150422165
000240 33 0f 95 bc 50 89 f7 bd e4 24 8a 3d 26 be be bd
       -0.018195724 -0.12086737 0.067453176 -0.09313612
000250 4e 9b ca 3d 64 0b 4a 3d 5f e7 8d bd 02 93 d1 3d
       0.09892903 0.04932727 -0.06928896 0.10233118
000260 7d 5b 13 3c 22 ff 25 3d 2f ee 2d bd 55 bf 7f bc
       0.0089939805 0.040526517 -0.042463478 -0.015609582
000270 27 e1 91 3d fa 7c 93 bc 19 44 c5 3b cd 1a c0 3c
       0.071230225 -0.01800393 0.0060200808 0.02345028
000280 40 78 d0 3c c5 aa 95 bc 80 8b 48 3d 29 20 24 bc
       0.025447965 -0.018269906 0.048961163 -0.010017433
000290 71 b7 ef bc 0c 9b c5 bc 83 8e 35 3c da c1 47 bd
       -0.029262276 -0.024121784 0.011081341 -0.048768856
0002a0 44 a0 8b bc 6a 5d b2 3c ff 32 a1 bc 4c 8c 84 3c
       -0.017044194 0.021773059 -0.019677637 0.01618018
0002b0 24 38 6c 3d 19 a8 c2 3c f4 13 af 3e 6e 54 ea be
       0.057670727 0.023761796 0.3419491 -0.4576754
0002c0 99 e3 ca 3d 38 cd f8 39 27 ca 14 be 98 d9 91 3d
       0.09906692 0.00047455146 -0.1453024 0.07121581
0002d0 9f 0e b9 bb 76 19 39 3b 88 a2 87 3b 37 8a 8f bc
       -0.005647495 0.0028243936 0.0041392483 -0.01752196
0002e0 21 47 96 3d 32 7a 74 bd 02 10 6d bc d7 9b d9 3c
       0.073377855 -0.059686847 -0.014469149 0.026563568
0002f0 b2 91 93 bc 83 09 d3 3b 85 2d 6e bd 10 72 57 3d
       -0.018013809 0.006440343 -0.05814888 0.052599013
000300 b0 76 90 bd 2b 6e 7b 3d c3 65 ae bd c9 7c cf bc
       -0.07053888 0.06138436 -0.08515503 -0.025328057
000310 59 c4 cd 3c 21 ab 06 bd d9 7a 71 3d f0 09 f0 bc
       0.02511804 -0.032878045 0.058955047 -0.029301614
000320 8a 9f e0 bc 20 75 80 3d 45 c2 2b 3c d0 f3 84 bc
       -0.027419824 0.0627234 0.010483329 -0.01622954
000330 51 d3 f7 b7 cd 3f b6 3c 32 85 1c bd ba d8 40 3d
       -2.9543096e-05 0.02224722 -0.038212962 0.047081687
000340 8a 8a 9d 3d 7f f9 2b 3c 34 8e 92 3d 36 05 e3 bd
       0.0769244 0.010496496 0.07156029 -0.11084978
000350 3f 84 36 bc d2 00 aa bd fa bf b9 bd 3f 66 4b 3d
       -0.011139928 -0.08300938 -0.0906982 0.049658056
000360 05 69 4d 3d 8f 5e 10 bc d2 3b f9 bc 09 8b b7 bc
       0.050148983 -0.008811607 -0.030424032 -0.022405164
000370 e2 ad 83 3c f4 35 89 bd ff a8 8b bc 0a 82 87 3c
       0.016074125 -0.06699744 -0.017048357 0.0165415
000380 bd 51 b4 bc a5 46 1c bd 09 97 b5 bc 9a fb 39 bc
       -0.022011632 -0.03815331 -0.022166746 -0.01135149
000390 51 48 17 be d2 10 eb 3d d2 ff 58 ba 12 e4 95 bd
       -0.1477368 0.114778176 -0.0008277866 -0.073188916
0003a0 04 36 19 bd 4d 95 8c bd 28 08 2a be be 68 fa bd
       -0.03740503 -0.06864414 -0.16604674 -0.12227009
0003b0 8d 0f 89 3c 49 1f 81 be fb 7b 65 3e 92 6d 7d bd
       0.016731048 -0.2521918 0.22410576 -0.061872073
0003c0 b4 b7 be bd c6 8d be 3d 31 9a 9d bd 91 06 47 3d
       -0.09312382 0.09304385 -0.07695425 0.048590247
0003d0 39 8b b3 3c 2b 6b f9 39 2b 43 56 3d aa 3d 11 bd
       0.021916972 0.00047572827 0.05231015 -0.035459198
0003e0 22 26 52 bc 8a 5a d0 bc 3f 6c 06 3d cb 6f b7 bb
       -0.012826474 -0.025433797 0.032818075 -0.0055980436
0003f0 c4 dd e8 3c b4 c8 6a 3d a7 9b 49 bc 13 a8 87 3d
       0.028426059 0.05732031 -0.012305177 0.066238545

weight f4 [28]
000000 02 05 36 39 08 8c dd 3d 16 47 01 36 c2 1b 5f 3e
       0.00017358738 0.108177245 1.9263875e-06 0.21787933
000010 c0 d1 7e 37 04 b2 d9 36 c7 2c 47 36 d4 40 85 3b
       1.5188416e-05 6.4878277e-06 2.9679375e-06 0.004066566
000020 a0 5b 54 3f 62 d2 9f 3e f7 47 10 3e 11 a7 cf 34
       0.8295231 0.31215197 0.14089952 3.867831e-07
000030 24 43 cb 33 e4 3f 30 3e b8 e4 60 3e 18 4b 15 3a
       9.465137e-08 0.17211872 0.2196225 0.0005695089
000040 c8 fb 30 39 86 a2 6a 38 a3 30 84 3a ed d9 f4 3b
       0.00016878464 5.594131e-05 0.0010085296 0.007472268
000050 b0 d4 04 3a f6 56 2c 3e 1e 64 f2 3a ad 5a aa 3e
       0.00050670933 0.16830048 0.0018492972 0.33272305
000060 41 51 92 3e 18 cf 5c 3e 19 73 aa bd db fc 37 35
       0.28577617 0.21563375 -0.083227344 6.8540766e-07

bias f4 [28]
000000 a3 56 02 bb a5 6b 3d 3e 5d d7 45 b7 07 80 24 3f
       -0.0019888065 0.18498094 -1.1792258e-05 0.64257854
000010 9e d4 99 b9 0e 48 00 b9 62 40 0b b8 24 0f 1b bc
       -0.00029340846 -0.00012233874 -3.3200144e-05 -0.009464059
000020 39 bb f7 be c1 74 24 bd 99 6a a7 bc c1 cb 91 b6
       -0.48385027 -0.040150408 -0.020436572 -4.345057e-06
000030 c6 e6 10 b6 2d 75 be 3e 92 78 70 be ff 8c 10 bc
       -2.1592e-06 0.37198773 -0.23483494 -0.008822679
000040 e8 d4 7b ba ba 8b c1 b9 32 cf 4a bb c8 4e 69 bd
       -0.00096066156 -0.00036915933 -0.0030946252 -0.056959897
000050 47 71 48 bb 8f e5 c0 bd 8a 36 47 bc a4 05 cc 3e
       -0.0030585097 -0.09418785 -0.012158999 0.39848053
000060 1e 43 d9 bd fc a4 b1 3e fd 84 44 3d 13 80 93 b6
       -0.10608505 0.34696186 0.04797839 -4.395851e-06

running_mean f4 [28]
000000 77 aa a1 3d ad e4 db be 61 08 33 be 8c b6 1a 3e
       0.07893842 -0.42947903 -0.17483665 0.15108699
000010 db 17 06 3d ef 40 4c bd ab 33 f4 bc a5 30 da 3e
       0.032737594 -0.049866613 -0.029809793 0.42615238
000020 c5 b9 81 3f c3 36 9e 3d 97 01 be 3c c5 f4 94 3e
       1.0134817 0.07725289 0.023194117 0.29092994
000030 bd c0 25 bd 60 59 68 bd a6 b8 8d bd 46 b7 4b be
       -0.040467013 -0.05672586 -0.069199845 -0.19894132
000040 f6 a3 1b bb 97 06 cb be 9b 86 c2 be 04 2c 71 3d
       -0.0023748851 -0.39653465 -0.3799332 0.058879867
000050 b6 8f cf bd a9 7a 6b 3d c8 6a c0 3d 10 26 08 be
       -0.101348326 0.057490025 0.09395367 -0.1329577
000060 fa 84 41 3d 27 4f 1f 3e cf 56 db 3e 13 68 38 be
       0.047245957 0.15557538 0.42839667 -0.18008451

running_var f4 [28]
000000 43 c5 3b 3e 71 04 54 3e a3 0e 9c 3e 53 c1 3b 3e
       0.18336968 0.2070482 0.30479917 0.18335466
000010 ff a0 16 3f 65 7a 80 3f 77 73 b1 3f a6 70 54 40
       0.5883941 1.0037352 1.3863362 3.3193755
000020 00 42 73 41 28 4d 9e 40 5a 7c 3e 41 e6 f7 1c 40
       15.203613 4.9469185 11.905359 2.4526305
000030 90 98 54 3f 9d ee ad 3f 8c bb 3c 41 22 cd 2e 40
       0.8304529 1.3588444 11.795788 2.7312703
000040 b2 cd c3 40 20 18 41 40 76 26 04 40 48 00 32 3f
       6.1188593 3.0170975 2.0648475 0.6953168
000050 51 c0 08 40 5c 65 62 40 49 c7 8f 40 55 26 20 40
       2.136738 3.5374365 4.493077 2.5023396
000060 ae 25 8e 41 b6 df 12 40 a7 56 50 40 55 00 05 40
       17.768398 2.2949042 3.2552888 2.0781453

weight f4 [16, 28, 1, 1]
000000 92 86 e3 b9 a6 fb 2d bd ad 17 b7 b5 1b c0 f7 3d
       -0.00043397077 -0.04247632 -1.3641453e-06 0.12097188
000010 2a d0 35 37 2f 73 18 36 89 e2 bb 36 42 c9 44 3b
       1.0836908e-05 2.271681e-06 5.5994064e-06 0.0030027186
000020 e9 d4 af 3e 0e 61 4a 3d a3 8e 13 3d 59 fe e1 b5
       0.34342125 0.049408965 0.0360247 -1.6837831e-06
000030 20 8f 8c 36 df 10 b4 bd 07 1b 0e bd 91 54 1c ba
       4.188987e-06 -0.087922804 -0.034693744 -0.0005963529
000040 d6 1b dc b8 e0 ae e2 b7 5f 28 42 39 36 24 2a 3c
       -0.00010495602 -2.7022732e-05 0.00018516321 0.01038461
000050 ca 7a ab 38 9b 26 33 3c d5 05 74 bb fb 8f ea bc
       8.176787e-05 0.010934497 -0.0037234921 -0.028633108
000060 87 2e 88 bd 2e f6 01 3d d3 c1 ed 3b a9 a9 cd b5
       -0.066494994 0.031728916 0.0072557717 -1.5323068e-06
000070 b3 78 81 ba e4 49 49 3d 1c 1b 69 36 9c 22 c6 be
       -0.000987789 0.049142733 3.4735485e-06 -0.3869828
000080 1b d2 1b 39 41 1e 03 38 f4 d5 d0 b6 54 2d 1b bb
       0.00014860222 3.126101e-05 -6.2237905e-06 -0.002367814
000090 8b b0 8f be 2f c0 77 3d 1b f1 34 bd 8e f9 93 35
       -0.2806438 0.060486015 -0.04417525 1.1024983e-06
0000a0 6c 42 0a 36 96 32 7a 3e 74 05 26 be 52 c4 74 3b
       2.0602265e-06 0.2443336 -0.16213018 0.0037348461
0000b0 89 d9 16 3a 8d f0 41 38 f1 33 ba 39 47 9f 84 3c
       0.0005754461 4.6238816e-05 0.00035515384 0.01618923
0000c0 41 39 de 39 8f 2a 85 3d a9 11 38 ba 7e 41 9b bc
       0.00042385797 0.06502258 -0.00070216745 -0.018952128
0000d0 3c 52 0a be ef d2 32 bc 40 fb 76 bc 26 f7 de b5
       -0.13507932 -0.010914548 -0.015074551 -1.6612219e-06
0000e0 ac 68 50 3a 8c 0b af bd 99 ab e0 b5 60 a1 9c 3e
       0.00079501676 -0.08547124 -1.6739242e-06 0.3059187
0000f0 2d e2 dd b8 b5 19 35 b7 f5 88 ed b6 b0 68 ca ba
       -0.0001058023 -1.0794426e-05 -7.0790943e-06 -0.0015442576
000100 52 18 94 bd c3 a3 46 bd 11 5d 14 3d 38 7e 2b b6
       -0.07231201 -0.04849602 0.036221568 -2.5554455e-06
000110 eb cf 98 b5 70 bc 95 ba cf ed ac bc 3b 45 f4 b9
       -1.1385395e-06 -0.0011423957 -0.02110949 -0.00046590887
000120 43 53 31 ba 5a da ce 37 be 9e d8 b9 13 5c 5b 3c
       -0.0006764421 2.4658792e-05 -0.00041317003 0.013388651
000130 1e 50 f7 ba e2 33 04 be 23 9f 1c bb dc 0f 0a 3e
       -0.0018868481 -0.12910417 -0.0023898564 0.13482612
000140 ed 55 f7 bd fd 69 06 be 1f 15 f1 3c f3 69 8d 35
       -0.12076936 -0.13126369 0.029429017 1.0536154e-06
000150 9c ef f3 3a 40 a5 5e 3d 99 22 c1 35 9a 3a 8d 3d
       0.0018610838 0.054356813 1.438969e-06 0.06895943
000160 5e 0c b7 b8 32 68 b5 b7 20 a0 f9 35 59 f8 10 3a
       -8.7284236e-05 -2.1625401e-05 1.8598548e-06 0.0005530171
000170 57 c1 b8 bd 51 ad 65 3e 9c 0d 09 bd 03 af c6 35
       -0.09021252 0.22429396 -0.033460245 1.4803085e-06
000180 62 58 46 b5 af 32 33 bd dc 76 94 3d 0f 66 c4 39
       -7.388936e-07 -0.043749508 0.07249233 0.00037460073
000190 a4 d9 95 b9 d1 9c b9 b7 d6 fb 21 b9 40 6a 1d bb
       -0.0002858165 -2.2126742e-05 -0.00015447973 -0.0024019629
0001a0 53 e3 02 b9 3b 77 44 3c 1c 55 31 bb dd 0d 63 3d
       -0.00012482451 0.011991317 -0.0027058786 0.055433143
0001b0 26 0c 47 bb c5 bf ee 3c 7a c9 f2 bc 11 f1 96 b4
       -0.0030372231 0.029144177 -0.029637087 -2.8115076e-07
0001c0 40 1b 07 39 e5 1b b1 b9 57 35 f3 35 5f 71 9b 3a
       0.00012884755 -0.00033780854 1.8120435e-06 0.0011859349
0001d0 ef cf 91 b8 e5 c3 9e b7 2d 68 d6 b6 7b 9b 36 37
       -6.9528694e-05 -1.8926288e-05 -6.3898246e-06 1.0884246e-05
0001e0 f3 64 61 39 fc ae 3b 3a dc 18 a9 38 43 ee a4 b5
       0.00021495279 0.00071595586 8.0631784e-05 -1.2288295e-06
0001f0 54 21 3c b6 13 e9 47 ba 2f ba 26 b9 73 57 ad 38
       -2.8033583e-06 -0.00076259783 -0.00015900352 8.2655715e-05
000200 d5 a4 0b b9 f1 2f 19 b6 16 4f 36 b8 84 4b f7 b8
       -0.00013317478 -2.2826682e-06 -4.3465836e-05 -0.00011791944
000210 c9 4b 9c b8 60 68 40 b7 73 5e 82 b8 de c8 8d 39
       -7.452776e-05 -1.14683935e-05 -6.2164756e-05 0.00027043273
000220 a0 2d 95 b9 c7 c9 ef b9 85 cc 8e b9 8d b0 28 35
       -0.00028453488 -0.00045735968 -0.0002723673 6.284179e-07
000230 8c 52 6d ba e6 1f c3 bd 39 9a 10 b6 62 63 3c bd
       -0.0009053133 -0.095275685 -2.1547442e-06 -0.045993216
000240 72 46 90 38 1f 30 59 36 83 6b 21 36 1b 17 b0 39
       6.8795765e-05 3.236353e-06 2.405345e-06 0.0003358655
000250 04 d5 34 3e 37 be 88 be 66 d9 01 be 4a 9e bb b3
       0.17659384 -0.26707622 -0.12680587 -8.736659e-08
000260 ba 5a b6 33 fa 36 f2 bc e4 58 97 bd a9 b7 33 bb
       8.4915385e-08 -0.02956723 -0.073900014 -0.0027422702
000270 30 36 19 3a 1f fb 7c b8 f7 36 f4 b9 bf 39 95 bc
       0.00058445614 -6.0315357e-05 -0.0004658026 -0.018216012
000280 4d 53 c0 3a ba f4 2b 3e c8 c2 6c bb ba e1 a5 bd
       0.0014673263 0.16792575 -0.003612684 -0.080996946
000290 5a f6 15 be 7a 3d b7 3d 40 ef 7c 3d d8 24 eb 35
       -0.14644757 0.089472726 0.061751604 1.7519587e-06
0002a0 e3 8a 27 3a d4 0c 01 bd b3 9c 98 b5 2d bc c3 bd
       0.000639124 -0.031506374 -1.1370488e-06 -0.09557376
0002b0 1e 8b 0b 37 2c dc e5 35 41 eb 6b b7 89 c9 d8 ba
       8.317436e-06 1.7125908e-06 -1.4061866e-05 -0.0016539554
0002c0 b8 8a 2c be 47 9e fd bc d3 66 1c bc 71 ac c4 b4
       -0.16849792 -0.030959262 -0.009546 -3.6633313e-07
0002d0 50 ca 22 b6 5a af f4 3d 23 b2 20 be 2d f6 7d 3b
       -2.4257643e-06 0.11947508 -0.15692954 0.0038751469
0002e0 a1 90 d1 39 78 f0 e2 38 0f 14 97 39 a3 57 a4 bc
       0.00039971343 0.000108213106 0.0002881591 -0.02006132
0002f0 00 4f 60 3a cc bd 94 3d 68 60 8d 3b fb a3 e8 3e
       0.0008556694 0.072627634 0.004314471 0.45437607
000300 9f a8 1a bb 5a f1 ed bd a0 3d db 3c f3 08 b4 35
       -0.002359904 -0.116183 0.026762784 1.341365e-06
000310 c2 60 36 ba be d2 17 be eb 07 07 b6 18 a9 54 3e
       -0.0006957167 -0.14826486 -2.0121176e-06 0.20767629
000320 5f 35 ea b7 fb 36 b9 b7 e0 d4 88 37 c6 14 0b bb
       -2.7919827e-05 -2.207932e-05 1.6311591e-05 -0.0021222099
000330 4a ad 29 be a4 6c 36 bd 96 e4 6b bd b1 82 9c 35
       -0.16570011 -0.0445372 -0.057591043 1.1660942e-06
000340 ba 2d 86 35 44 b4 fd bd 20 53 5d bd f3 e3 2d ba
       9.997086e-07 -0.123878986 -0.054034352 -0.00066333934
000350 12 9d 32 3a b6 6d d0 b7 48 1b c4 b9 86 5e 40 3b
       0.00068135664 -2.484662e-05 -0.0003740436 0.0029353215
000360 8a 82 22 3a 34 e6 d7 3c 94 90 48 3b 0c 60 e2 bd
       0.00061992614 0.026354887 0.0030603753 -0.11053476
000370 d1 b4 af bd d2 86 1b 3e af 52 99 bc 54 53 a6 b5
       -0.0857941 0.15188149 -0.018716184 -1.2392215e-06
000380 d6 17 5b 39 a5 0f fa 3c 7d 39 55 36 6b fc 49 3e
       0.00020894347 0.030525038 3.1772936e-06 0.19725196
000390 ca 3d 9b b8 bb bd 75 b8 23 0c ae 36 55 98 99 b8
       -7.402485e-05 -5.8589252e-05 5.187017e-06 -7.3239826e-05
0003a0 eb f6 19 3d 58 a4 d4 bc a1 73 4d 3c c8 18 b5 b5
       0.037588995 -0.025957271 0.012539775 -1.3492763e-06
0003b0 97 17 82 b5 d5 8c 49 bd 71 00 ad 3c 1a a2 da ba
       -9.69262e-07 -0.049206574 0.021118375 -0.001668039
0003c0 21 dc 99 38 f5 e1 85 b8 8a 89 27 37 e5 98 2d 3b
       7.336611e-05 -6.384022e-05 9.985999e-06 0.0026488837
0003d0 a8 56 a6 b8 77 c7 f9 3c 5b 15 96 bb cc 35 75 be
       -7.931638e-05 0.03049062 -0.0045801825 -0.23946303
0003e0 4d ec b6 bd a8 b5 a3 3c 10 14 4f bb 14 af 22 b5
       -0.089317895 0.019984081 -0.0031597652 -6.0604475e-07
0003f0 8d c6 31 bb 36 89 3b 3b a8 52 87 36 3c 40 8f be
       -0.0027126402 0.002861572 4.032936e-06 -0.27978694

weight f4 [16]
000000 ba 10 ad 3e da 88 9a 3e 7d 4a 52 3e 1d 54 40 3e
       0.33801824 0.30182534 0.20536228 0.18782087
000010 50 b5 af 38 96 b8 4f 3e aa 65 9b 3e 19 be c2 3e
       8.378422e-05 0.20285258 0.30351 0.38035658
000020 df 87 11 3e 9d e3 b2 3e 29 65 03 3e 9a a9 f7 3e
       0.14211987 0.3493928 0.12831558 0.48371583
000030 f4 5b 3b 3e 9e b6 ef 3c 23 db e4 3e be 57 f0 3e
       0.18296796 0.029261883 0.44698438 0.46941942

bias f4 [16]
000000 d5 7d 1b be 5c f0 b4 3e 93 88 30 3c 07 b3 2d be
       -0.1518472 0.3533963 0.010774749 -0.16962825
000010 d9 f9 1b ba b0 31 16 3e 0d 1d ee 3e a0 a3 1d be
       -0.0005950011 0.14667392 0.4650654 -0.15394449
000020 c9 f4 9e 3e ab 27 2a bc ca 58 8a 3d 24 b8 a4 be
       0.3104613 -0.010385434 0.067552164 -0.32171738
000030 88 9c 5d 3e 01 5d f5 bb d6 a8 e8 be 6a 6f 92 be
       0.21641743 -0.0074878936 -0.45441312 -0.28600627

running_mean f4 [16]
000000 70 28 b9 3d 8a 1f 55 be 6e 45 2d 3e 00 2e 9d 3d
       0.09040916 -0.20812812 0.16921017 0.076747894
000010 59 e3 e0 39 cc fd 81 bd 2c 4c d0 3d fb 12 ea 3c
       0.00042893997 -0.06347236 0.10170779 0.028573504
000020 53 9c 9e 3c c6 32 24 be 66 89 07 3d c9 e1 1b 3d
       0.01936165 -0.16034994 0.033090018 0.038057122
000030 f0 60 9e bd 7a f0 49 bc 49 63 64 3d e0 2c f1 3c
       -0.07733333 -0.0123254005 0.05575875 0.029440343

running_var f4 [16]
000000 8a 7a 80 3c ff f0 c2 3c e9 1d a1 3b 19 50 16 3b
       0.015683431 0.023796557 0.0049168956 0.0022935926
000010 6c 5d 0c 34 5d 1d 15 3c e6 49 08 3d a9 1b 22 3c
       1.3072503e-07 0.009101239 0.0332736 0.00989429
000020 0e bc 3a 3c a2 68 b6 3c 64 6b 0e 3b 6f 3a 05 3d
       0.011397375 0.02226669 0.002173149 0.03252643
000030 20 7d 82 3c d3 b5 09 38 4d c8 e3 3c 09 2d a7 3c
       0.015928805 3.2832682e-05 0.027805472 0.020407217

weight f4 [4, 16, 3, 3]
000000 36 5f ed 3b 70 8a 20 bd a1 dc d4 3c 78 22 7e 3d
       0.007244016 -0.039194524 0.02598411 0.06204459
000010 2f 91 7a be 64 24 a9 3c 6a a8 ae bd 5a 59 00 3e
       -0.24469446 0.020647235 -0.08528216 0.12534085
000020 fe 6f 01 3d 91 fb 5d 3d 6c 75 b3 be fe e2 6d 3d
       0.031600945 0.05419499 -0.35050523 0.058077805
000030 68 ec db bd 3c 1d 92 3e 55 b5 49 be 9a fb 8f bc
       -0.1073845 0.2853793 -0.19698079 -0.017576028
000040 a9 1f b0 be f7 7e 92 3c ab d1 10 3d e1 49 73 3e
       -0.34399155 0.017882807 0.035356205 0.23758651
000050 7b 8a d7 bd b2 55 db 3d 84 99 6b bd 8e 6c fa 3d
       -0.1052446 0.107097045 -0.05751945 0.122277364
000060 d4 eb 8c bd d6 15 25 3e fb c9 6f 3b 49 e9 ca 3c
       -0.06880918 0.16121611 0.0036588896 0.024769442
000070 34 8d 8a bd 24 1f 4a 3e dc 73 3b bd 32 d2 73 3d
       -0.067652136 0.19738442 -0.04576479 0.05952663
000080 19 10 90 bc ca 75 c4 3d d3 0b 6f 3d 4b ba 1f bd
       -0.017585801 0.09592779 0.058360886 -0.038996022
000090 99 68 6c b7 aa dd a0 3a 72 d1 ea 39 1d 75 08 3a
       -1.409105e-05 0.0012273092 0.00044788007 0.00052054395
0000a0 2f 14 fe b7 f4 5b 23 3a 11 08 05 38 83 81 21 38
       -3.0288558e-05 0.00062316586 3.1717183e-05 3.850601e-05
0000b0 51 36 e4 38 2b 54 8a 3d 34 7e a8 bc 01 4a 40 3d
       0.000108820044 0.06754335 -0.02056799 0.046945576
0000c0 12 3a 28 be f5 20 0d be 1b 7d b7 bc 3e c1 65 bd
       -0.16428402 -0.13782103 -0.022398522 -0.056092493
0000d0 a2 b0 e1 3c 98 7e 35 3d e6 fe f2 bd 92 c5 a1 be
       0.027550045 0.044310182 -0.11865024 -0.31596047
0000e0 04 a3 f7 bc 59 ad 54 3d a8 2f a6 3e 00 28 de bd
       -0.0302291 0.05192313 0.32458234 -0.10847473
0000f0 77 cc 34 be 34 28 df be 3f 9a be bd 6e 2c 1f 3e
       -0.17656122 -0.4358536 -0.09306764 0.15544292
000100 45 ba ab 3e 69 ac 51 3e 77 11 c2 3d 3f 93 8a 3d
       0.3354055 0.20475926 0.094759874 0.06766366
000110 9a 24 af 3d 94 43 34 3d 73 ac 9a bd ab 0a 22 bd
       0.08551903 0.04400976 -0.07552423 -0.039560955
000120 9b 02 c4 bc dc 35 86 3e 0a 66 48 bd 5b 33 43 3d
       -0.023927024 0.26212966 -0.048925437 0.0476564
000130 13 20 67 be 06 8f 6d 3d 3e 3c f1 3c a1 c8 5c 3e
       -0.22570829 0.057997726 0.029447671 0.21560909
000140 21 b5 c8 3c 4d 71 91 3d d4 cf 16 be 57 b0 dc 3d
       0.024500431 0.071016885 -0.14727718 0.10775822
000150 ec bc 0a bd 49 f6 0a 3e 57 44 de bd ab d2 a5 bd
       -0.033871576 0.13570513 -0.108528785 -0.08096822
000160 41 1c 4b be 2a 09 93 bc 15 ff 9f bc b4 d8 7e ba
       -0.19834997 -0.017948706 -0.019530812 -0.00097216223
000170 25 90 0a bd cc 8f d9 bc 6a 7c 88 3d be f7 9c bb
       -0.033828873 -0.026557826 0.06664355 -0.0047902754
000180 92 28 34 bc 28 d6 27 bd 86 c4 c9 3c dd 98 6d bd
       -0.010996001 -0.04097572 0.024629842 -0.05800711
000190 48 84 f7 bd e7 f5 c4 bd cc c1 e4 3c 79 f6 71 be
       -0.120857775 -0.09617215 0.02792444 -0.23629178
0001a0 d8 44 dd 3b bf c8 84 bc 5b 2e 9c 3d e3 2f 81 3d
       0.0067525916 -0.016209004 0.07626029 0.06307962
0001b0 d8 8d 3a bd e3 21 62 bd 08 aa 62 3c 74 b3 38 bb
       -0.04554543 -0.0552081 0.013834484 -0.0028183134
0001c0 f9 9a 09 3e ca 5b 1d bd 72 f8 d7 bb 9f 51 2c be
       0.13438024 -0.038417615 -0.0065908963 -0.16828011
0001d0 47 5a c2 bd 56 e5 1e bc 8e e1 7e bc f3 03 8d bc
       -0.09489875 -0.009698233 -0.015556706 -0.017213797
0001e0 e9 14 ec 3a 7e 18 0b 3b c2 b0 5b 3a 04 2a 9d bb
       0.0018011603 0.0021224315 0.0008380526 -0.0047962684
0001f0 6e 9c 67 bb 95 80 a0 38 87 c3 82 bd 42 6b c6 3d
       -0.0035341042 7.653345e-05 -0.0638495 0.096884266
000200 9a 6f 4f 3c 5f 89 d0 3d 22 35 94 bd 39 53 9d bd
       0.012660885 0.101824515 -0.07236697 -0.07681889
000210 82 8d cd 3d 73 18 94 bc 2e f0 f3 bd ae a4 9d bb
       0.10036756 -0.018078065 -0.11911045 -0.004810891
000220 b1 d6 c6 bd e1 a2 ec bc 6b 0b 15 be a2 ed 93 be
       -0.09708918 -0.02888626 -0.14555137 -0.28892237
000230 27 c8 df 3d 2d 69 27 bd b6 9c c9 3d 49 40 46 3d
       0.10926848 -0.040871788 0.09844343 0.04840115
000240 47 eb 06 3d 8a 52 13 3e 24 8d 97 bc f4 52 75 3d
       0.03293922 0.14386955 -0.018499918 0.059893563
000250 51 38 76 bd 18 6f 19 3c 31 4b 22 bd d7 c0 00 be
       -0.0601123 0.009364866 -0.03962249 -0.12573563
000260 8e 56 7c bd 8c 9f 15 be 2b 66 c7 be 34 a0 24 be
       -0.061605982 -0.14611644 -0.38945135 -0.16076738
000270 1f d8 14 3e 04 2d eb 3d c9 33 e0 3d 22 cb 47 bd
       0.14535569 0.114831954 0.10947377 -0.048777707
000280 17 a1 b7 3e 19 23 0d 3e 68 e7 3d bd 0d 81 56 bd
       0.3586509 0.1378292 -0.046363264 -0.052369166
000290 21 2a bd ba ba 21 58 bd d2 5e 07 bd 37 a4 95 bd
       -0.0014432111 -0.05276654 -0.033049412 -0.07306712
0002a0 04 21 0c 3e cf 2b 2b bd a7 4f 8d 3d 41 f7 41 bd
       0.1368447 -0.041789826 0.06899958 -0.04735494
0002b0 15 83 2f 3d f1 f9 d9 3c 2b c9 87 bd 4b 07 95 bd
       0.04284962 0.02660844 -0.066301666 -0.07276782
0002c0 3a f3 d8 bd 3e c3 b6 bc e8 77 9c bd c4 7d 37 be
       -0.10593267 -0.022309896 -0.07640058 -0.1791907
0002d0 04 27 f7 b9 06 93 4c 39 4d 82 08 38 ff 7a 60 38
       -0.0004714058 0.00019509727 3.254628e-05 5.352031e-05
0002e0 2d 48 68 b7 1e c2 1a b9 24 c4 90 39 8e 86 06 ba
       -1.3845082e-05 -0.00014758899 0.00027611956 -0.00051317445
0002f0 16 bd b3 b8 72 a1 11 3e fd 6d f3 3d 3f ec d4 bc
       -8.570605e-05 0.14221743 0.11886213 -0.025991557
000300 c4 f4 25 bd 5b 2b d4 bd 2b 26 02 bc c2 b6 6a be
       -0.04051663 -0.10359832 -0.00794367 -0.22921279
000310 7e b6 5c be 37 ac bb 3b 65 4b 35 be 66 11 d9 be
       -0.2155399 0.0057273167 -0.17704542 -0.42396086
000320 3b 14 6b bd a2 68 ab 3d db a5 8d 3d ee 9b 33 3c
       -0.05739234 0.083695665 0.069164 0.0109624695
000330 3b 18 49 3c fe f7 80 3e 2c 21 1e 3d 1f ef b6 3a
       0.012273843 0.25189203 0.038605854 0.0013956762
000340 d3 1b d6 bc e6 64 69 bd ad 4b 65 be 34 51 a4 bd
       -0.026136314 -0.05698099 -0.2239215 -0.08023301
000350 f8 91 4c bd 29 c8 f8 3c 52 f8 cd bc 22 2e 56 bb
       -0.049943894 0.030368881 -0.025142822 -0.0032681306
000360 50 f4 ff 3d 3f 4e 85 3e 80 eb d6 3b 85 18 1c be
       0.12497771 0.2603626 0.0065588355 -0.15243728
000370 cd 2a 0a be 5e 7e c0 bd 29 ee 3d 3c bb 8e eb bd
       -0.1349289 -0.09399103 0.011592426 -0.11501833
000380 e4 6c 9c 39 59 88 07 be 73 cb c3 be 77 59 3a be
       0.00029835769 -0.13235606 -0.38241157 -0.1819819
000390 09 97 a3 3d 79 b7 8a 3d 62 3d 2b bd 2c dd 05 bc
       0.07987792 0.06773276 -0.041806586 -0.008170407
0003a0 ce f1 74 3e c0 92 1e 3d 26 14 99 bd 35 ff 0c be
       0.23920366 0.03871417 -0.07474546 -0.13769229
0003b0 e9 7e cd bc 1e 24 10 bb 48 85 d1 3c da c5 33 3c
       -0.02508493 -0.0021994184 0.025576249 0.010972464
0003c0 5f 29 16 3c c9 60 ae 3d b3 b5 bc 3c df ec 15 3d
       0.009165137 0.08514554 0.02303586 0.03660285
0003d0 1f fb 08 3e b6 41 8a 3d 42 d1 84 3d 88 23 47 bd
       0.13377045 0.067508146 0.06485225 -0.04861787
0003e0 2e 65 0d 3d c2 1e f8 bc ff 5b 24 be a1 2a 60 bc
       0.03452032 -0.030288104 -0.16050719 -0.0136820385
0003f0 0a 76 e1 bd 0a eb 6d be a1 e0 4f bd e7 88 f2 3c
       -0.11008842 -0.23234192 -0.050751332 0.029606296

weight f4 [32]
000000 83 bf 5f 3e 45 9a 52 3e 26 54 30 3e fc d8 20 3f
       0.218504 0.20566662 0.172196 0.6283109
000010 32 9a 39 3e f5 a7 90 3e 61 d9 a1 3e 4d 02 28 3e
       0.18125227 0.2825314 0.3161116 0.16407128
000020 a7 e9 30 3e af 68 63 3e 6e 35 17 3e fb 9c 24 3e
       0.17276631 0.22207902 0.14766476 0.16075508
000030 8e ec 04 3e 16 a8 8e 3e 1d 41 76 3e bc a3 83 3e
       0.12980863 0.27862614 0.24048276 0.25710857
000040 6f 5e 45 3d 0b 5e 84 3e c5 d6 b2 3d d8 9c e7 3d
       0.048185762 0.25853 0.0873237 0.113092124
000050 fc 3e 59 3e 49 22 3f 3e ff d8 7d 38 0c 49 44 3e
       0.21215433 0.18665422 6.0521994e-05 0.1916849
000060 a9 c1 ca 3c cf 44 eb 3d ce 4a 3e 3e 29 de 73 3e
       0.024750547 0.114877336 0.18583223 0.23815216
000070 e7 25 9a 3e a0 d7 92 3d e7 b5 94 3d 74 da 74 36
       0.30107042 0.071700335 0.072612576 3.648599e-06

bias f4 [32]
000000 15 61 e5 3d 96 37 9a 3d 55 22 51 3d 37 ee 0a bf
       0.112001576 0.075301334 0.051058132 -0.54269737
000010 ba 91 2e 3e e8 c3 01 3e 78 15 bd 3c 26 66 8f 3e
       0.17047778 0.12672389 0.023081526 0.2800762
000020 9f 6b 1b 3d 65 e0 fb 3d 35 95 90 bc b9 2e ba 3d
       0.037944432 0.12298659 -0.017649272 0.09090943
000030 59 08 43 3d 51 5d 8e 3e 62 d7 b7 3e ef 81 03 be
       0.047615383 0.2780557 0.35906512 -0.12842534
000040 b1 e1 10 bd dc 27 5b 3e 04 77 00 3e 89 c2 a6 3b
       -0.035371486 0.21401924 0.12545401 0.0050891084
000050 6b e4 49 3e 64 c7 13 bd 6c 7c 4f b9 de d0 e8 3e
       0.19716041 -0.036078826 -0.00019787409 0.45471853
000060 a3 0f 73 bb 92 97 4a 3e b1 0c 2b bd e9 5a 32 3e
       -0.0037088178 0.19784382 -0.04176015 0.17417492
000070 3f 43 41 3e 13 2c 04 3e 2c eb 5b bc 90 9b d9 b7
       0.18873309 0.12907438 -0.013422769 -2.5940855e-05

running_mean f4 [32]
000000 56 dd 29 bf c0 b5 af be 97 fe 4c be b8 20 54 3f
       -0.66353357 -0.34318352 -0.20018993 0.82862425
000010 77 aa a1 3d ad e4 db be 61 08 33 be 8c b6 1a 3e
       0.07893842 -0.42947903 -0.17483665 0.15108699
000020 db 17 06 3d ef 40 4c bd ab 33 f4 bc a5 30 da 3e
       0.032737594 -0.049866613 -0.029809793 0.42615238
000030 c5 b9 81 3f c3 36 9e 3d 97 01 be 3c c5 f4 94 3e
       1.0134817 0.07725289 0.023194117 0.29092994
000040 bd c0 25 bd 60 59 68 bd a6 b8 8d bd 46 b7 4b be
       -0.040467013 -0.05672586 -0.069199845 -0.19894132
000050 f6 a3 1b bb 97 06 cb be 9b 86 c2 be 04 2c 71 3d
       -0.0023748851 -0.39653465 -0.3799332 0.058879867
000060 b6 8f cf bd a9 7a 6b 3d c8 6a c0 3d 10 26 08 be
       -0.101348326 0.057490025 0.09395367 -0.1329577
000070 fa 84 41 3d 27 4f 1f 3e cf 56 db 3e 13 68 38 be
       0.047245957 0.15557538 0.42839667 -0.18008451

running_var f4 [32]
000000 98 27 34 3e cc 85 bc 3e c5 b7 41 3e 7b d1 db 3e
       0.17593229 0.3682083 0.18917759 0.42933258
000010 43 c5 3b 3e 71 04 54 3e a3 0e 9c 3e 53 c1 3b 3e
       0.18336968 0.2070482 0.30479917 0.18335466
000020 ff a0 16 3f 65 7a 80 3f 77 73 b1 3f a6 70 54 40
       0.5883941 1.0037352 1.3863362 3.3193755
000030 00 42 73 41 28 4d 9e 40 5a 7c 3e 41 e6 f7 1c 40
       15.203613 4.9469185 11.905359 2.4526305
000040 90 98 54 3f 9d ee ad 3f 8c bb 3c 41 22 cd 2e 40
       0.8304529 1.3588444 11.795788 2.7312703
000050 b2 cd c3 40 20 18 41 40 76 26 04 40 48 00 32 3f
       6.1188593 3.0170975 2.0648475 0.6953168
000060 51 c0 08 40 5c 65 62 40 49 c7 8f 40 55 26 20 40
       2.136738 3.5374365 4.493077 2.5023396
000070 ae 25 8e 41 b6 df 12 40 a7 56 50 40 55 00 05 40
       17.768398 2.2949042 3.2552888 2.0781453
