checkpoint/Densenet100-5-4_0.pth (torch_old, 825303 bytes, 498 tensors)

weight f4 [24, 3, 3, 3]
00000000: 8abb f03b 9b48 c23e cdc7 1d3b 344e ba3d
00000010: e983 153f 1818 1a3e 05c1 e83d 6d60 a73e
00000020: 0df2 e73d 5518 eebd 3da3 36bf 997a b7bd
00000030: 1e08 30bf a569 babf 275a 1fbf c112 64bd
00000040: 538c 2ebf 4317 afbd 7453 413e 8fb3 b43e
00000050: fd25 213e 1bf2 a83e 39d0 023f aba7 af3e
00000060: 6770 b93d e4b6 5a3e d9c1 8c3d faf1 ad3c
00000070: 00bd 943e f4f0 b5bc 664a 133c 6f5e d2be
00000080: dd90 81bd 90bb a8bb c3c1 6bbe 0e75 b2bc
00000090: a09a 303e b083 b03e 71ba 523c e948 963d
000000a0: 6929 d9be 6f12 25bd e029 8cbb 3f18 29be
000000b0: ed16 25bc 09c9 273d aa87 753e 1bf5 37bd
000000c0: ea76 a4bc db2d 62be 4898 30bd 83ad cbbc
000000d0: ca64 2fbe 69f4 4fbd 4d28 9dbe 930c 0bbf
000000e0: 207f 44be a8e7 c63c bba7 b9bd b88c f63c
000000f0: 462f 8a3e b70b 103f 4d08 893e d1a8 c4be
00000100: fc54 26bf 1653 8ebe b7b7 fdbc 7f29 d4bd
00000110: 4e8e fe3b 20b9 883e 1450 1a3f e935 913e
00000120: 70fa efbd 65b8 bcbe 0af8 9ebd 405c be3c
00000130: aa04 68bc 067a 153b c7e5 333e 4cff de3e
00000140: 02a4 083e c70c 723d 6c42 ec3d 45af d13d
00000150: 5514 9a3d 524c 033e d60f c73d 44db c13d
00000160: 77b3 ce3d 56c6 f63c 466f 3ebe dafa 54be
00000170: 745b 23be 57d2 52be d74f 57be 2867 1dbe
00000180: 3833 f4bd e1c9 e8bd 1e22 c1bd 7852 763d
00000190: 9916 e43d d211 673d d738 e03d 6940 433e
000001a0: 0d8f f43d eada c43d ce9c 283e ffb9 b23d
000001b0: a342 88bd 1c25 71be a384 a0bc 2f22 69be
000001c0: e19b d6be 6eef 31be 80d6 7abe 3eec 8cbe
000001d0: ea76 4abe 5906 133e 3a8b c63e d185 1a3e
000001e0: 6cfc 9b3e a2a2 243f 0451 a63e 5703 933d
000001f0: e572 c33e 4e04 e43d 5909 12bd 2737 92bd
00000200: 5d8f 45bd 914c 92bd 2d38 93bd b881 b2bd
00000210: 3e3b 36bd 9e1f c4bc 1f0b 72bd 6398 883e
00000220: 81a9 c63e e576 743e 779a b33e 0b85 f93e
00000230: d064 a43e 5198 db3d 6fc4 3d3e 30a6 b93d
00000240: 5351 813b 59f4 80bc ad5f ddbb e653 cb3b
00000250: a488 04bd acc1 c13b 1d75 38bd cfd1 b3bd
00000260: be9c 16bd 956f 45be a7f6 9dbd d521 32be
00000270: d6ce 13be 87d3 22bd f2c4 05be bf9e 11be
00000280: 526b 1fbd d974 bdbd 1888 e43d 0653 7a3e
00000290: 77a8 a63d be40 ed3d 6db4 e23d 4df0 323e
000002a0: 0238 5c3e 6849 083e f9f0 463e 5f82 bcbc
000002b0: 5c75 13bd 8f45 f5ba 7c20 86be 7f5b f9be
000002c0: 4ef9 a4bd b745 693c 2871 66be cb6f 0abc
000002d0: 5f28 26bd 228e 0bbe c9a6 12bd 2d0a bdbe
000002e0: a389 22bf 7294 23be f6fb 90bd 612a 95be
000002f0: 85a1 bcbc 3f46 d43d 5507 62bd bf93 92bd
00000300: 10db d73e a5f9 5cbe 31f6 28be d3ea 103e
00000310: c9f1 7abd b1a1 44bd a5d3 1d3e 9459 21be
00000320: 6d3f c4bd c2a3 033f fee5 a9be b5d2 5cbe
00000330: 069e 5b3e 8514 d3bc ef6f 2ebd 3e8e 9b3d
00000340: 3153 2dbe b141 1fbc 5c44 b63e f19b 91be
00000350: d184 09be bd20 033e 7cee 14be c327 55bd
00000360: b6ad 3d3e 1ed7 a63c 8a85 13be 1340 393f
00000370: 2dd4 b3bd 0a15 23bf 8675 033e 8c8b a9bd
00000380: 7604 67be 6a5f 833e f1ba 61bd 2859 75be
00000390: 6a59 5c3f 1d2b e2bd aee9 36bf 2843 623e
000003a0: 8e1d c4bc a42e 52be 0994 373e 4503 8abd
000003b0: e6a3 28be 3be8 343f 1e8f d7bd 0286 13bf
000003c0: e4a8 2f3e 1c9f e1bc ef03 14be 8031 27bd
000003d0: 74fb bd3e b28e 43bd 2f14 d13e 8884 3fbf
000003e0: a222 f43e c555 0cbe e65d 2e3d 1e07 373d
000003f0: f6bd b13b 6980 f3bd c146 84bd 4dcc e93e
0.007346575 0.3794602 0.002407539 0.09096947 0.58404404 0.15048254 0.113649406 0.32690755
0.113254644 -0.11625735 -0.7134283 -0.089589305 -0.68762386 -1.456349 -0.62246937 -0.055681948
-0.6818287 -0.08549359 0.18879491 0.35293242 0.15737148 0.32997212 0.5109897 0.34307608
0.09054642 0.2135883 0.06872911 0.021233547 0.29050446 -0.022209622 0.008989906 -0.41087672
-0.063264586 -0.0051493123 -0.23023133 -0.021784332 0.17246485 0.3447547 0.012861834 0.07338125
-0.42414406 -0.040300783 -0.004277453 -0.16513155 -0.010076267 0.040963206 0.23977533 -0.044911485
-0.020076234 -0.22087805 -0.043113977 -0.02486301 -0.17128292 -0.050770197 -0.3069481 -0.5431606
-0.1918912 0.024280384 -0.09065195 0.030096397 0.26989192 0.56267875 0.26764145 -0.38410047
-0.64973426 -0.27797765 -0.030971391 -0.10359477 0.007768429 0.2670374 0.6027844 0.28361443
-0.11717689 -0.36859432 -0.077621534 0.023237348 -0.014161268 0.0022808327 0.17568122 0.4355415
0.13343814 0.059094217 0.115361065 0.10238508 0.07523409 0.12822083 0.09719817 0.0946565
0.10092824 0.03012387 -0.18597135 -0.20798817 -0.15952855 -0.20588051 -0.2102655 -0.15371382
-0.11923832 -0.1136663 -0.094303355 0.060137242 0.11137123 0.05641348 0.10948341 0.1906754
0.11941347 0.09612067 0.16466066 0.08726882 -0.06653335 -0.23549312 -0.019594496 -0.22766946
-0.419158 -0.17376491 -0.24495888 -0.27523988 -0.19771925 0.1435789 0.38778096 0.1509011
0.3046602 0.6431066 0.32483685 0.071783714 0.38173595 0.111336336 -0.035653446 -0.07139426
-0.048232425 -0.0714351 -0.07188449 -0.08716148 -0.04449009 -0.023940857 -0.059092637 0.26678762
0.38801196 0.2387348 0.35078785 0.48734316 0.32108164 0.107224114 0.18531965 0.09064901
0.003946462 -0.015741514 -0.00675579 0.00620507 -0.032356873 0.00591298 -0.045033563 -0.08780252
-0.036770575 -0.19280846 -0.07713061 -0.17395718 -0.1443437 -0.03975251 -0.1306341 -0.14220713
-0.038920708 -0.092508025 0.1115877 0.24445733 0.08137601 0.11584614 0.1106957 0.1747448
0.2150574 0.13309252 0.19427861 -0.023011385 -0.036000594 -0.0018712747 -0.2619666 -0.48702618
-0.080553636 0.014237813 -0.22504103 -0.008449505 -0.040565845 -0.13628438 -0.03580359 -0.36921826
-0.63491267 -0.15974596 -0.07079308 -0.29133895 -0.023026237 0.10364961 -0.055182774 -0.071570866
0.4215932 -0.21579607 -0.16500165 0.14152078 -0.06126574 -0.048005763 0.15412767 -0.15756828
-0.0958241 0.5142175 -0.33183283 -0.21564753 0.21447 -0.02576662 -0.042587217 0.0759549
-0.16926266 -0.009720252 0.3559903 -0.28439286 -0.13429572 0.12805457 -0.145441 -0.052039873
0.18523297 0.020366248 -0.1440641 0.72363394 -0.08780704 -0.6370398 0.128378 -0.082785696
-0.22560295 0.25658733 -0.05510992 -0.23959792 0.86073935 -0.110433795 -0.71450317 0.2209593
-0.023939874 -0.20525604 0.17927565 -0.06738905 -0.16468772 0.70666856 -0.10525344 -0.57626355
0.1715427 -0.02754169 -0.14454626 -0.04081869 0.37105906 -0.047743507 0.4083571 -0.748116
0.47682673 -0.13704593 0.042570017 0.04468452 0.0054242564 -0.11889727 -0.06458808 0.45663682

weight f4 [24]
00000000: b192 1a3e 6b33 fc3d 33e7 4a3e f09f b23d
00000010: 237a a73d 8e2c ac3e 0c31 193f 59b5 633c
00000020: 1fb7 af3e c23b b639 4988 0f3d 01b3 933e
00000030: 6193 d43e a509 273d 852d 533d f27f 8f3e
00000040: 797c a33e 63af 313e 1870 bd3d be76 843d
00000050: b503 b03e 7ca1 b439 f1d9 8d3e 9b79 593d
0.15095021 0.12314495 0.19814758 0.08721912 0.081775926 0.33627743 0.59840465 0.013898217
0.34319398 0.00034758268 0.03504208 0.28847507 0.4151869 0.040780682 0.051557083 0.28027302
0.31930903 0.17352061 0.09249896 0.06467961 0.34377828 0.0003445259 0.2770534 0.053094488

bias f4 [24]
00000000: b669 5e3c dde3 e93b 1068 23bd 5c9b b73d
00000010: 9f25 a73d 94c3 b9bc fb67 51be d927 abba
00000020: abd5 52bd 1457 57b9 7d0f 7a39 39a0 393f
00000030: 80ff 1c3f d6f7 943b 602b 94bc bf99 2dbc
00000040: a28d 123e 01d7 33bd 6544 2b3c fb7d 1bbc
00000050: 7bfa 113f 5b1a 42bb 5c00 adbc d5ea a2bc
0.013575008 0.007137759 -0.039894164 0.08965179 0.081614725 -0.022676267 -0.20449822 -0.001305814
-0.0514733 -0.00020536437 0.00023847628 0.72510105 0.6132736 0.004546146 -0.018087089 -0.010595738
0.14311841 -0.043906216 0.010453318 -0.009490485 0.5702283 -0.002961776 -0.021118335 -0.019887367

running_mean f4 [24]
00000000: dbb5 6b3e e935 833e b014 033c 02ad 98bd
00000010: 9b01 9cbd 2de8 b9be 696f df3e bdcc b63d
00000020: 16a5 6d3d 20e6 b43c fe9a d2bc 078d dbba
00000030: 8b5a 21be 12e0 f83d 5576 413f aebb 553d
00000040: 2c0c cf3d 3983 4d3d b842 0c3e 13ac d83d
00000050: cc0b 59be f2d4 ee3c 28d3 f73d a069 e8be
0.23018591 0.25627068 0.008000538 -0.074548736 -0.07617494 -0.3630995 0.43639687 0.089257695
0.058018766 0.022082388 -0.025708672 -0.0016750403 -0.15757196 0.12152113 0.75571185 0.05218094
0.101097435 0.05017397 0.13697326 0.105796956 -0.21195906 0.029154275 0.12100822 -0.45393085

running_var f4 [24]
00000000: 5666 1640 ba82 0740 639c 0741 f802 cb3e
00000010: 1597 553f 0ece 6140 9aa4 b040 e03b 1b40
00000020: c45f 1341 0e37 8f3f 877d 0141 17d4 323f
00000030: a4ef a13f af5c 5d40 166a 2841 f3c2 9b41
00000040: 34bc 8940 82c7 c53f 7327 933f db01 ad3f
00000050: 64cd 913f 57cb a03f ecc5 9940 d0cf 9240
2.349996 2.117354 8.47568 0.39650702 0.8343366 3.5282016 5.520093 2.4255295
9.21088 1.1188676 8.093146 0.69854873 1.2651258 3.458782 10.5259 19.47019
4.304224 1.545151 1.1496414 1.3516191 1.1390805 1.2562054 4.8054104 4.5878677

weight f4 [20, 24, 1, 1]
00000000: 3b78 85bd f29e 86bc 08c5 c73c 88f7 35bd
00000010: 670a 9fbc 53d6 13be b41b b23c ca23 6c3a
00000020: 3113 42bc 119b 63b6 2a6f b03b 3eb8 b73d
00000030: 690e c33c 2c49 873a 1021 863a 9353 953b
00000040: a3b5 d9bd 925c 17bc 582e 043d ca30 ec3b
00000050: c1e6 8bbd e83d d8b9 2739 3f3d b66f f5bc
00000060: 032a 9a3a 6f09 b7bc 7004 76bb 3a08 a73d
00000070: 5ed1 b73a a8b9 a8bd b42b 97bd 98d7 d5bb
00000080: 98c8 90be 58e8 1f38 a451 9bbc f087 bbbe
00000090: c934 2ebd c897 08bb 3488 e1bc f39b 26b8
000000a0: 34b0 40bc b820 c7bb 2b01 2dbc 68c7 28bd
000000b0: 878d 913d afc9 ee39 798e 37be 8dcc 863a
000000c0: 859e fc3c 88bf ea3c 829e 89bd 6b6c 073d
000000d0: 6add fabc e755 0c3c 2309 89bd 56a9 c43a
000000e0: 89ea 2fbc 8853 24b6 8b79 a0bb 0e14 243c
000000f0: eb1d 713e b90e 5fbc 1de9 713b 4b0c c5bd
00000100: b0a8 fdbc 2354 e8bc 5213 d5bc 9782 b6bb
00000110: 4238 62be 3abf f0ba 9bd3 63bc 2007 ac3c
00000120: eb66 e5bc 022f 1b3c 1dce fbbd c961 febc
00000130: 1b65 1f3c b422 3b3c 8d9b 07bd b1fc c1ba
00000140: 4242 17bd b7bd 67b8 a904 963b 0420 40bd
00000150: 574b 63be c405 3bbb 4db6 09bd b643 733d
00000160: f52d 93bd 8ec1 233c f6f6 1fbd c819 2bbb
00000170: 9207 ec3d d830 09ba ec1a c03b 8529 bfbc
00000180: aebb cf3c e4de 253d 3188 aa3c fbbd 193d
00000190: 9fae 1a3b 4ba4 02be f743 ebbd 5c37 c6bb
000001a0: ec64 19be 3a10 6b38 8789 8ebb 85a6 213e
000001b0: 2620 c1bb 51b3 363b a343 093c ddb4 d8bc
000001c0: e64f 923d 23aa e3bb dad3 d7bb da02 e7bb
000001d0: c52f bfbb 7e35 09b9 2cd8 c3bb b890 923c
000001e0: 6985 0ebd db39 be3c 03f9 6a3d 29e4 09bd
000001f0: 6307 8abd f201 5dbe 5a6e d53e ee8a 6c3b
00000200: d9cd 133d 3c18 5f39 178e 7c3c 9ec9 ccbc
00000210: 9965 d3bd 890a 71bc 6fb4 6c3b dc5c 6b3d
00000220: 9bbf 28be 5ae5 2b3c 9fb1 103d d9c2 733b
00000230: d915 443c e23b 77b9 151c cc3d d94e a23c
00000240: d8ba 98bc 99c9 55ba bf4b 5fbd e563 f1bc
00000250: 04b7 39bd 3cae 473e 5312 963e a4f1 af3b
00000260: 80bb fd3d 56a7 a8b9 9954 623c b5c6 85bd
00000270: 07e4 1e3d e0ec 84ba 194b 3d3b 2975 aabd
00000280: 721d e6be 9720 08bd 0730 3fbb 73c2 c23c
00000290: 3196 053d 1bef f3ba a90e 5d3d e3b2 923c
000002a0: 31df 7b3d d511 37bd 2fb3 e7bd a93d 813d
000002b0: 6042 003c 38d5 803c d999 dcbc 59a2 813a
000002c0: 8feb cb3d 659d dcb8 8fe7 bb3a 4f0b 91bd
000002d0: 7206 e9be 4d9f 68bb 85a1 d0bb 67f4 22bd
000002e0: 14c9 81bc 1701 82bd db2d 99bc 5815 e4bb
000002f0: bd01 983e ffb7 9138 23ad 80bc 3514 043c
00000300: 2725 253d d909 d83c e813 2a3d ed83 5c3d
00000310: 6bd0 a3bd 7830 e43c 6ef2 c73e 07d6 593b
00000320: 9ad9 8fb7 f174 1639 81b3 143c 72c6 093c
00000330: 10a6 cc3d 057f a1bc 6707 773c e5e1 b93d
00000340: fa79 3cbd 0529 2c3d 510a f33c 178a 97bb
00000350: 3e2b 52bd bb35 2039 59e6 c23c f723 783b
00000360: cc63 273d 3a60 b6bd aeb1 8c3d f006 553d
00000370: 5899 2f3d 9650 03bd 4885 3cbd 5fe3 a53b
00000380: e88b 253e c77c 0db8 f6d7 903c 9456 80bd
00000390: 347a c2be 51ee 283c 1076 d93b dc00 04be
000003a0: 7c35 29bd d38f f3bd cd7f fc3c 5dd5 603c
000003b0: 861f b93e 6e7a 3539 0a0f cf3d 6fd9 843c
000003c0: 7a31 f33b fc61 603d 1e76 74bd 68d5 133c
000003d0: de3b 0aba 7e4a a73c c908 f4bd 2465 25bc
000003e0: 5c07 7abe 217d adb8 0485 6cbc 48fd cc3e
000003f0: 1c32 f83d ae99 ff3b bdfb ccbc e603 dd3a
-0.06517073 -0.016433213 0.024385944 -0.044425517 -0.01941414 -0.14437227 0.021741726 0.00090080185
-0.011845396 -3.3915896e-06 0.0053843455 0.08970688 0.023810582 0.001032149 0.0010233242 0.004557082
-0.106303476 -0.009238379 0.03227076 0.0072079645 -0.06831122 -0.00041244854 0.046685364 -0.029960494
0.0011761788 -0.022343365 -0.0037539266 0.08155866 0.0014024188 -0.08238536 -0.073813826 -0.006525945
-0.2827804 3.812494e-05 -0.018959828 -0.3662715 -0.04253081 -0.0020842422 -0.027530767 -3.9722723e-05
-0.01176076 -0.0060768984 -0.0105593605 -0.041205794 0.07107072 0.00045545163 -0.17925443 0.001028435
0.030837307 0.028655782 -0.06719686 0.03306238 -0.030623157 0.008565403 -0.06691196 0.0015004079
-0.01073707 -2.4486526e-06 -0.0048973016 0.010014547 0.23546569 -0.01361435 0.0036912628 -0.09621485
-0.030964226 -0.028360432 -0.02601019 -0.0055697667 -0.22091773 -0.0018367537 -0.013905431 0.020999491
-0.028003177 0.009471657 -0.12295172 -0.031052487 0.009728695 0.011421848 -0.03310733 -0.0014800039
-0.036928423 -5.5251377e-05 0.0045781923 -0.046905532 -0.22196709 -0.0028537372 -0.03362112 0.059390746
-0.071865 0.0099948775 -0.03905388 -0.0026107896 0.115248814 -0.00052334135 0.0058625843 -0.023335228
0.025358047 0.04049577 0.020816894 0.037534695 0.0023602617 -0.12757985 -0.11487573 -0.00604908
-0.14979905 5.604348e-05 -0.0043498906 0.15786178 -0.005893725 0.0027877877 0.008377942 -0.02645343
0.07144146 -0.006947772 -0.006586534 -0.0070499005 -0.005834552 -0.00013085266 -0.0059766974 0.017891273
-0.0347952 0.023220947 0.057366382 -0.033664856 -0.0673969 -0.21582773 0.41685754 0.003609355
0.036084983 0.00021275965 0.015414736 -0.024998482 -0.103221126 -0.014711984 0.003611829 0.057461604
-0.16479342 0.010491693 0.035325643 0.0037194996 0.0119680995 -0.00023578064 0.09966294 0.019812988
-0.018643782 -0.00081553456 -0.054515596 -0.029466579 -0.045340553 0.19500059 0.29310855 0.005369382
0.123892784 -0.00032168132 0.013814115 -0.06532041 0.038791683 -0.0010141395 0.0028883873 -0.08323128
-0.4494434 -0.033234205 -0.0029172914 0.023774361 0.032613937 -0.0018610688 0.05396906 0.017907565
0.06149215 -0.04469474 -0.113134734 0.06310589 0.007828325 0.01572667 -0.026928829 0.0009890302
0.099570386 -0.000105197345 0.0014335978 -0.07082235 -0.4551273 -0.0035495341 -0.006366911 -0.03978386
-0.015842952 -0.06347864 -0.018698623 -0.006960552 0.29688826 6.948411e-05 -0.015707558 0.008061458
0.040318634 0.026371883 0.04152289 0.05383675 -0.07998737 0.027855143 0.39052147 0.0033239143
-1.7148257e-05 0.00014348679 0.009076 0.008409129 0.099926114 -0.019713888 0.015077448 0.09076289
-0.046014763 0.042031307 0.029668005 -0.004624616 -0.05131077 0.00015278805 0.023791479 0.0037863234
0.040866658 -0.089050725 0.06869827 0.05200857 0.04287085 -0.032059275 -0.046025544 0.005062505
0.16166651 -3.3733228e-05 0.017681103 -0.062665135 -0.3798386 0.010310725 0.0066363886 -0.12890953
-0.041310772 -0.11892667 0.030822659 0.013722745 0.36156863 0.00017307114 0.1011029 0.016216962
0.0074216696 0.054780945 -0.059682958 0.009023048 -0.0005273203 0.020421263 -0.11915738 -0.010094915
-0.2441687 -8.27259e-05 -0.01443601 0.40036988 0.121189326 0.0078003025 -0.025022382 0.0016862124

weight f4 [20]
00000000: 2629 133e 7550 a73e 3e0e 4a3e 247a 523e
00000010: 3504 433e db81 e73e 7cec 7b3e 9fb6 ba3e
00000020: 2c10 943e 511f 9d3e 86d0 473e e821 bb3e
00000030: fdab 9a3e fee8 523e e90a db3e 8ecb 943e
00000040: 9911 6a3e c8bd 273e 304f 393e b7fa 963e
0.14371166 0.3267857 0.19731995 0.20554405 0.19044574 0.4521626 0.2460193 0.36467454
0.28918588 0.30687955 0.19513139 0.36549306 0.30209342 0.20596692 0.4278176 0.2906155
0.22858275 0.1638099 0.18096614 0.29488155

bias f4 [20]
00000000: 7afa 173d ea38 f8bd 688b 173e 35d7 bfbb
00000010: 3fe5 8e3d dff2 42be 8a09 953d a323 623e
00000020: 613f 0bbe 7e2e df3e 335e cf3e 16a5 a8bd
00000030: cea7 8f3e 3ea9 b73d d5ce d3bd f333 0dbe
00000040: 1f8d 5ebd 74d3 9e3e b1f7 ca3d 5cdf 82bd
0.037104107 -0.121202305 0.14799273 -0.005854512 0.06977319 -0.1903796 0.0727721 0.22083907
-0.13598396 0.43590158 0.40501556 -0.08234613 0.28057712 0.08967827 -0.103421845 -0.13789348
-0.054333802 0.310207 0.09910525 -0.06390259

running_mean f4 [20]
00000000: d96c faba c1aa 9ebe 1376 113b 5778 09be
00000010: b632 aa3d ffb5 86bd 3324 ffbc 00ab 2cbe
00000020: 280c dc3d c36d 9fbd 11b1 d23e b309 68be
00000030: f9e3 bbbe e824 1ebe 5138 b1bd 871f 0dbe
00000040: 0aa7 9fbe 9389 49be 69f3 babd 6a4a 853e
-0.0019105925 -0.3098965 0.0022195622 -0.13424812 0.083104536 -0.06577682 -0.03114519 -0.16862106
0.10744506 -0.07784607 0.41150716 -0.2265995 -0.36697367 -0.15443766 -0.086533196 -0.13781558
-0.31182128 -0.19681387 -0.09128458 0.26033336

running_var f4 [20]
00000000: 4ff9 3d3b 9db9 653c fe9b 3a3c cf2b 093c
00000010: cd9e 9c3b aa42 aa3c 5e77 b83c 703d 033d
00000020: 37b7 293c f144 e73c c0ec cf3c 9c2c 4d3c
00000030: 3ac0 a83c 4c00 443c fcaa 8e3c 9b05 9b3b
00000040: 7a74 083c 30b6 943c 457c 1b3c 0aae 4f3c
0.002898771 0.014021304 0.0113897305 0.008372261 0.0047796727 0.020783741 0.022517856 0.032041013
0.010358623 0.028231116 0.025381446 0.012522843 0.020599473 0.011962961 0.017415516 0.004730893
0.008328551 0.01815328 0.009490077 0.0126757715

weight f4 [5, 20, 3, 3]
00000000: bc9b afbc 2640 5abd 4a39 f2bc 4ff1 31bd
00000010: 483d c5bc 491c 963c 5e27 41bd eae3 0cbb
00000020: b8f8 56bb 3042 99bd 6ef2 15bd f5af bfbc
00000030: 064c 0f3d 96d6 09bc 442f f7bc 8960 7bbd
00000040: 678a d93c 2741 0c3d 598c 09be cb83 28be
00000050: afe7 97bd 6380 8cbc dd52 1d3d 7619 743d
00000060: 23d9 c3bc 0499 fb3d f960 f13c d38d 2e3c
00000070: d8c4 083e da24 333d eaa1 7b3d c327 383d
00000080: 14ba 493d 420f abbc b28e 3bbd bd92 583d
00000090: 110e 85bd 40e3 8ebd a9c5 3fbd cf24 93bd
000000a0: 30b1 343d 5265 e03d bcd7 1abd 13ce 723d
000000b0: 6ad7 963c ca8c c33d 63c5 5d3d aec3 143e
000000c0: e3da c6bd 506f 3dbe 50cb bdbd 09b7 54bd
000000d0: bf32 0dbe a776 60bd adec ad3b 049c 8fbd
000000e0: c220 283d 1493 10be 2bca 51be 8605 ccbd
000000f0: 3319 07be fbc2 dcbd 9ced 6dbd 7426 f53c
00000100: 37e8 a53e 73dd a43d 063e f13c d52d b33b
00000110: 65e3 303c 0c8a 923c 6c95 32be 9712 9dbc
00000120: c76f d33d 4121 c33d cbc5 123e ccbb 84bd
00000130: 66a1 d5bd cae8 c7bc 4cd8 d6bd 10b1 1ebe
00000140: 7d9f b3bd 4910 f23c 0a82 a33e 050f 3c3d
00000150: 3756 073d baf6 19bd 5935 77bd 8da0 a0bc
00000160: 03b9 74be 258c 9cbd 35e2 c3bd 6760 08be
00000170: 58c6 e6bd 1864 34be 0409 203d cc88 263e
00000180: 3a2e b1bd 2f0f 723d 5dfa a4bc 1b90 ac3d
00000190: e65a 033e 6c91 dc3d 439f c23c c024 6abd
000001a0: f372 523d 4fa7 24bd 1b81 f4bd 6b96 f8bc
000001b0: ef32 dd3c 5bd4 853d 8650 52bd 8537 263e
000001c0: bcd3 9cbc c77e 74be 0835 4abd 8b65 b33c
000001d0: 1844 10bd c4dd febd be6f 37be b0de c5bd
000001e0: 5b06 cabc 41cd 04bc b5f8 2c3c c2e2 753b
000001f0: 6e62 ac3d da0d 493d 38ba 14be dbf2 de3d
00000200: 8824 c13c ee94 1b3d a7ec 793d feb9 263e
00000210: 37ec 013d 80f2 96bd dc76 bc3d 664f 4ebd
00000220: c7f0 533d d065 3f3d a2c1 32bd ba18 9a3c
00000230: 1903 973d ef68 41bc 65d6 95bc 4ad1 ea3c
00000240: 55d3 0e3d 7eac 9dbc 273b 59bd 8dfd b03d
00000250: 7f99 91bc f9c2 82bd 9aca c23b d37f bd3b
00000260: 3a2a a53c 1425 0cbe edeb 63be ab77 e1bd
00000270: ab06 673d e99e 9abb f928 babd 17ff a83c
00000280: 559a 0d3e 9639 f9bb 41ed d0bd c9b5 25be
00000290: f94f bfbd 811f d0bc baf5 463c e2e3 253d
000002a0: 77d1 2e3c 5d11 d13d 2407 173d 9752 62bd
000002b0: 3362 28bd 544e ba3a 486e a9bd 5beb 343d
000002c0: 2b03 303e fa83 29bd b826 6b3c b257 19bd
000002d0: fb4c 84bb fe89 423d 95ed 9c3c 0ace 303d
000002e0: 1796 4d3d dcb9 363d 68d9 b6bc 1803 b53b
000002f0: f586 253d 9e52 edbd 7274 82bd 1f81 2e3d
00000300: e5cf 2cbe a1bd 0d3d 3da8 5d3e 3a13 c8bd
00000310: 0645 acbd 9138 dabc e5a3 0fbd 76f9 5b3e
00000320: ddd3 743d 37ac 9dbd 78ed c3bb b3de acbc
00000330: 857b e5bd 2cf2 66be 93f3 dcbd f867 4abd
00000340: 311c ddbd 5412 13bc 75af bcbc 6f06 a73c
00000350: 50e2 093c 5614 96ba 0320 1a3e 9110 77bb
00000360: 02a7 0cbc f792 943a a659 cd3c 3478 ed3c
00000370: 4300 7bbd 1fd8 bfbd 0e36 c3bd bb4c 71bd
00000380: 3e11 193b 5db6 d3bd 39b1 cb3b 1f84 c2bd
00000390: 2bad bc3c eb08 5f3e 8c1b 6f3d 4cda 2abe
000003a0: fe01 2a3d f371 f4bd 2c5e 0abc 302e 3b3e
000003b0: fe18 b93b 0ca2 60bd 3e28 a23d 3aaa 783d
000003c0: 43e1 cfbd a7ca 16be 436d 1bbd 254b a0bd
000003d0: 1368 a8be ff75 19bd 6084 93bc 22ec 2fbd
000003e0: 80e7 5f3b 88bd 20bb 0a53 803e a845 aa3c
000003f0: 3225 ccbd 3cb1 383d 9195 5cbd 1b0b 9abd
-0.021436565 -0.053283833 -0.029568333 -0.04344302 -0.024077073 0.018324034 -0.047156684 -0.0021498152
-0.0032802057 -0.074833274 -0.036608152 -0.023399333 0.03498461 -0.008412978 -0.030173905 -0.06137136
0.026555253 0.03424182 -0.13432445 -0.16456525 -0.07417237 -0.017151063 0.038409103 0.059594594
-0.02390725 0.12285045 0.029465185 0.010653931 0.1335634 0.043736316 0.06143371 0.044959795
0.049249724 -0.020881299 -0.04579038 0.052874316 -0.064968236 -0.06976938 -0.046819363 -0.07184755
0.04411429 0.10956825 -0.037803397 0.05927856 0.018413264 0.09548338 0.05414332 0.14527771
-0.09709718 -0.18499494 -0.092672944 -0.05193237 -0.1378889 -0.054800656 0.005307755 -0.070121795
0.041046865 -0.14118606 -0.20487277 -0.09961991 -0.13193206 -0.10779377 -0.05808793 0.029925562
0.32403728 0.080500506 0.02944852 0.00546811 0.010796403 0.017888092 -0.17439812 -0.019173903
0.10324054 0.09527827 0.14333265 -0.06481132 -0.10431175 -0.024402995 -0.10490474 -0.15497231
-0.08770654 0.029548781 0.3193515 0.04591276 0.033041205 -0.037588812 -0.06035361 -0.019607807
-0.23898701 -0.07643918 -0.0956463 -0.13318025 -0.112683 -0.17616308 0.039071098 0.16263121
-0.08651395 0.05909651 -0.020138914 0.084259234 0.12827644 0.107699245 0.023757583 -0.057163954
0.051379155 -0.04019862 -0.119386874 -0.030345162 0.027001826 0.06534644 -0.051346324 0.16232117
-0.019143932 -0.23876487 -0.04936698 0.021899005 -0.03522119 -0.12444642 -0.1791372 -0.09661615
-0.024661234 -0.008105577 0.010557343 0.0037519191 0.084172115 0.049085476 -0.14524162 0.10886165
0.02357699 0.037983827 0.061016705 0.16281888 0.031719413 -0.07370472 0.09202358 -0.05036869
0.051743295 0.046727955 -0.043641694 0.018810619 0.07373638 -0.011804803 -0.018290708 0.02866425
0.03486951 -0.01924729 -0.053034928 0.08642111 -0.017773388 -0.06384844 0.005944562 0.00578306
0.020161737 -0.13686019 -0.22257967 -0.11009153 0.056402843 -0.0047186506 -0.09089846 0.020629449
0.13828404 -0.0076057417 -0.102015026 -0.16182627 -0.093414254 -0.025405647 0.012143547 0.04050053
0.0106700575 0.1020839 0.036872044 -0.055254545 -0.041109275 0.0014214017 -0.082729876 0.044169765
0.17188708 -0.04138563 0.014352493 -0.03743715 -0.004037497 0.04749488 0.019156257 0.043165244
0.050191965 0.044610843 -0.022320464 0.0055240504 0.04041191 -0.115880236 -0.063698664 0.04260361
-0.1687618 0.034604672 0.21646209 -0.09769292 -0.08411603 -0.026638301 -0.03506841 0.2148188
0.05977236 -0.07698863 -0.005979236 -0.021102285 -0.112052 -0.22553319 -0.107886456 -0.04941556
-0.10796393 -0.008976538 -0.023032883 0.02038881 0.0084157735 -0.0011450152 0.15051274 -0.0037699083
-0.00858474 0.0011335303 0.025067162 0.028987981 -0.061279546 -0.09367394 -0.095317945 -0.058911067
0.0023356224 -0.103375174 0.006216195 -0.09497856 0.023031792 0.21780746 0.05837588 -0.16684836
0.041505806 -0.119357966 -0.008445304 0.18279338 0.0056487313 -0.05484204 0.07917832 0.060709216
-0.10150387 -0.14725743 -0.037945997 -0.07826833 -0.32891902 -0.037466045 -0.018007457 -0.042949803
0.0034165084 -0.0024527032 0.25063354 0.020785168 -0.09968032 0.0450909 -0.053853575 -0.075216495

weight f4 [29]
00000000: eb3b b434 e434 373e 1191 2f3a d18f 8036
00000010: 332b 603e 2d90 8e3e 38ce 8c3e cd84 9e3e
00000020: 87aa ab3d 9b3a 733d 3afc b43e 4d01 973e
00000030: 093c 403d 0570 9b36 9510 0b3e d1b7 553b
00000040: 0911 2c3e aa21 ac38 368b 7f3e 6ec9 1b3f
00000050: 1a81 713e ef48 bb3e e0d2 bf3a 4d7f 923e
00000060: e5e6 643b 44ee 803e b239 9e3e 7a40 5a3a
00000070: 23a8 bb35
3.357121e-07 0.1789127 0.0006697337 3.8314397e-06 0.21891479 0.27844372 0.27501082 0.30960694
0.08382135 0.059382062 0.35348684 0.2949318 0.046932254 4.6324008e-06 0.13580544 0.0032610784
0.16803373 8.2078695e-05 0.24955449 0.6085423 0.23584405 0.3657908 0.0014634989 0.28612748
0.0034927663 0.25181782 0.30903393 0.0008325648 1.398152e-06

bias f4 [29]
00000000: a47a 60b6 108c 143f 875d 953b aebd 0fb8
00000010: f862 813e 5288 49be 2bc3 e83d 2ffc e73d
00000020: 1762 26bc 52ea 3c3c 57d7 72be ac3f 983d
00000030: 502e 533d 461f f8b7 c229 153e 8c38 a2bc
00000040: 8bb6 a53e 47d6 c9ba 5046 393e 53d0 b6be
00000050: 4aca b83e 961a c63e c1cf a2ba bccc d03e
00000060: 4041 82ba 2b82 d7bc 67a6 2f3f ca22 953a
00000070: c1fa 99b6
-3.3449987e-06 0.5802622 0.0045582685 -3.427051e-05 0.2527082 -0.19680908 0.1136535 0.11327397
-0.010155222 0.011530476 -0.23714958 0.074340194 0.05155784 -2.9578467e-05 0.1456671 -0.019802354
0.32365832 -0.0015398943 0.18093228 -0.35705814 0.36091834 0.38692158 -0.0012421535 0.407812
-0.0009937659 -0.026307186 0.68613285 0.0011378166 -4.588947e-06

running_mean f4 [29]
00000000: 8ba8 cbbe 8440 00bf 4685 023e 6347 21bf
00000010: 3b70 99be dbb5 6b3e e935 833e b014 033c
00000020: 02ad 98bd 9b01 9cbd 2de8 b9be 696f df3e
00000030: bdcc b63d 16a5 6d3d 20e6 b43c fe9a d2bc
00000040: 078d dbba 8b5a 21be 12e0 f83d 5576 413f
00000050: aebb 553d 2c0c cf3d 3983 4d3d b842 0c3e
00000060: 13ac d83d cc0b 59be f2d4 ee3c 28d3 f73d
00000070: a069 e8be
-0.39777026 -0.50098443 0.12746152 -0.6299955 -0.29968438 0.23018591 0.25627068 0.008000538
-0.074548736 -0.07617494 -0.3630995 0.43639687 0.089257695 0.058018766 0.022082388 -0.025708672
-0.0016750403 -0.15757196 0.12152113 0.75571185 0.05218094 0.101097435 0.05017397 0.13697326
0.105796956 -0.21195906 0.029154275 0.12100822 -0.45393085

running_var f4 [29]
00000000: e7d3 8f3e b749 a83e 90ce 173e 619c 9c3e
00000010: 6563 5c3e 5666 1640 ba82 0740 639c 0741
00000020: f802 cb3e 1597 553f 0ece 6140 9aa4 b040
00000030: e03b 1b40 c45f 1341 0e37 8f3f 877d 0141
00000040: 17d4 323f a4ef a13f af5c 5d40 166a 2841
00000050: f3c2 9b41 34bc 8940 82c7 c53f 7327 933f
00000060: db01 ad3f 64cd 913f 57cb a03f ecc5 9940
00000070: d0cf 9240
0.28091356 0.3286874 0.14824891 0.30588058 0.21522291 2.349996 2.117354 8.47568
0.39650702 0.8343366 3.5282016 5.520093 2.4255295 9.21088 1.1188676 8.093146
0.69854873 1.2651258 3.458782 10.5259 19.47019 4.304224 1.545151 1.1496414
1.3516191 1.1390805 1.2562054 4.8054104 4.5878677

weight f4 [20, 29, 1, 1]
00000000: 1e5d 8835 3a96 5a3e 0082 9eba e120 2337
00000010: 3b30 c0bd a8c2 833e f400 f8bd 8e60 09bd
00000020: 3c1d 843d 38c1 4fbc abf4 7e3e 1f59 633e
00000030: 2023 163d 184b dd36 90e0 793c 03f8 17bc
00000040: 2f80 04be 09e9 b73b 21db bdbc ee58 993d
00000050: 01d2 93bd 4f02 1abb f41f 99b8 1a6c 803d
00000060: cf2f e1ba cb27 b53d 5974 6f3d 6314 ddba
00000070: 153b 0d34 969b 5f34 4a46 0d3d 2923 9bb9
00000080: 31be 1db7 0b25 d4bd b672 0ebc b6c3 643c
00000090: 693e 623d 4184 e9bb 77c7 55bb b287 6ebc
000000a0: 56e8 a33d cdd6 99bc 35a2 07b6 70c0 c23c
000000b0: b745 dbba 2350 1f3d 6345 66ba 499a c1bb
000000c0: 60de 533d 8975 3cbc d54f d53c 3897 d638
000000d0: b157 643d 2318 02ba 5588 63bd 6206 983c
000000e0: 0940 d9b8 b01f 0236 fac8 1e35 8a1c 52bd
000000f0: 97fd 34ba a99e 9f36 642a 8fbb f103 6b3d
00000100: e227 4fbe 761f f9bd c4d0 2b3d f7a5 273d
00000110: 7af6 193d 7161 28be 924f 863c 4c05 8237
00000120: 52b5 753d ab21 0b3c 874b 523d 15e9 4e3a
00000130: 42f1 093d dc55 79be 41a8 9ebe 152f d73d
00000140: e380 7bba 8902 91be 14e8 3b3b ebec 9a3d
00000150: bf57 03bf 414e 7f3a 21b1 9ab5 5a91 7e35
00000160: 283f 56be ee0f 6d3a 026f bb37 080f a73d
00000170: cc28 cfbd 8d20 93bd a3fc 323e fbb6 a33c
00000180: 3850 933c 1c36 003d c69a d4bd 6f82 6b3c
00000190: 0f43 1637 42ad 46bd d565 a7ba b681 f73d
000001a0: e448 433b 4219 1d3e 71ab 003c e9ea 47be
000001b0: 0cad 663e 4804 8738 2300 093d cbd0 27b9
000001c0: c3f0 563d f962 23be 9521 2ab9 df1e 6f35
000001d0: d171 2ab5 25f0 a2bd 5f95 06ba 162d beb7
000001e0: 9193 823d a3b3 9a3a fd94 22bd bf8c f1bd
000001f0: a53b 243a f62f 4b3b 3215 b03d 2aac 9bbd
00000200: 42ec 26bc d813 3cb7 55c7 8ebd 1a5e 14bc
00000210: 22d9 02bd ce45 073b f439 733d 22e8 cfbd
00000220: 6a29 a43d 328f 333e 074f fab9 175b 13be
00000230: 3b17 60b9 493b 1f3d 9f79 0dbe 3800 c1ba
00000240: 9d03 38b6 f70a 1b35 b9e7 eb3a 4dfc 53b9
00000250: 92f4 72b7 03b5 3f3d f89a b6bc be84 72bd
00000260: c34e 903d a1c9 d2ba f695 eebb 8ddb 5abb
00000270: b60c 133e 6bbe 2a3d ffc4 1fb6 5251 763d
00000280: f144 d83b 43c7 9c3e 6bfd 3bbb 02f1 2ebe
00000290: d794 e03d 5bea 04be 0e3f 22be 4215 1939
000002a0: 6af0 c03d 0eb1 fa39 2a7a 5d3d 1b29 a93d
000002b0: 9a4f 803a a15f 7435 8088 4b35 5663 7abd
000002c0: 1119 fdba 6b3a efb7 bedf 57be 1118 913c
000002d0: 40e3 37bd 714b 993d 5d73 983c ee49 d1bb
000002e0: bc21 823d 1121 d53c 080c a73b ac96 0536
000002f0: 560c aebd cde2 0e3b a7eb 903c 9d1b 103b
00000300: 7da6 2abe 3749 193e 2868 66be 8838 7a3d
00000310: f002 1b39 d310 a4bd b567 2e3a 3cc6 2e3c
00000320: 3cc2 16be 1de0 1fb9 a345 6b35 b65a 1236
00000330: 6ec2 603c c669 32ba c68b 45b5 e453 03be
00000340: 4354 8bbc 3ba0 9bbd 4b96 85be 3a49 a7bb
00000350: feaf 353c 07bc 303e fe68 b03d 0426 81bd
00000360: 2eb7 2cb7 03f4 dbbd ac7b 4dbb b25a 91bd
00000370: cb25 08bb 16bc aa3d a6b3 ddbd b4c4 273d
00000380: dcd3 ed3d 0644 f0b9 61b6 9fbe af08 1b3a
00000390: f5c7 913d 1566 b9be 92a1 a5ba fbbb 8eb5
000003a0: ac51 6035 573c 063e fc33 b53a bb1c 7bb5
000003b0: c0a1 b13d 6feb 023d bb66 9b3c b111 ebbd
000003c0: f115 c4bc 8045 113a 2cd8 deba 3418 933d
000003d0: 9f05 f33c 932a cfb6 1100 d23d 275f d53b
000003e0: 6e5e 0cbd 672a 943b e6a0 d9bc 4ea3 a63e
000003f0: f956 a9bc 4211 9e3c dcd4 0eba ab3f 07bd
1.015989e-06 0.2134637 -0.0012093186 9.723212e-06 -0.09384199 0.25734448 -0.12109557 -0.033539347
0.064508885 -0.012680344 0.24898021 0.22201966 0.03665459 6.5950553e-06 0.015251294 -0.009275439
-0.12939523 0.0056124968 -0.023175778 0.07487665 -0.072177894 -0.0023499911 -7.30156e-05 0.06270619
-0.0017180386 0.088454805 0.058460567 -0.0016867038 1.3153142e-07 2.0825095e-07 0.03449086 -0.000295901
-9.402212e-06 -0.10358628 -0.008694341 0.013962677 0.0552353 -0.0071263616 -0.003262011 -0.0145587195
0.08003299 -0.018779183 -2.0210985e-06 0.023773402 -0.0016729151 0.038894784 -0.0008784143 -0.005908285
0.051725745 -0.011502632 0.026039043 0.00010232482 0.05574769 -0.0004962703 -0.05554994 0.018557731
-0.00010359294 1.9389954e-06 5.9152046e-07 -0.05129675 -0.0006904243 4.7570397e-06 -0.004369067 0.057376806
-0.20230058 -0.12164204 0.04194714 0.04092976 0.037588574 -0.16443421 0.016395364 1.5499674e-05
0.059987374 0.008491914 0.05134156 0.00078930083 0.033677347 -0.24349159 -0.30987743 0.10507027
-0.0009594096 -0.28322247 0.0028672265 0.0756472 -0.51305765 0.0009739139 -1.1525445e-06 9.483389e-07
-0.2092253 0.0009043206 2.234383e-05 0.08157164 -0.10115203 -0.07183943 0.17479186 0.019984713
0.017982587 0.031301603 -0.10381083 0.0143743595 8.95631e-06 -0.048505075 -0.0012771437 0.12085287
0.0029798085 0.15341666 0.007853375 -0.19523205 0.2252695 6.438099e-05 0.033447396 -0.00016004143
0.052475702 -0.15955724 -0.00016224974 8.907936e-07 -6.349556e-07 -0.0795596 -0.00051339524 -2.267076e-05
0.06375802 0.0011802803 -0.039692868 -0.11794423 0.0006264991 0.0031003929 0.08597793 -0.07601197
-0.010188164 -1.1210293e-05 -0.06971613 -0.009055639 -0.031945355 0.0020640972 0.05938144 -0.10151698
0.080157116 0.17535093 -0.00047742596 -0.14390217 -0.00021370959 0.038874898 -0.13815926 -0.0014724797
-2.742024e-06 5.7757956e-07 0.0017998136 -0.00020216517 -1.44812675e-05 0.046803486 -0.022290692 -0.059208624
0.070462726 -0.0016081819 -0.0072810603 -0.0033395023 0.14360318 0.041685503 -2.3807513e-06 0.060136147
0.0066000153 0.30620775 -0.0028684984 -0.17084125 0.10965889 -0.12980025 -0.15844366 0.00014599136
0.09420855 0.00047815632 0.054071583 0.08259793 0.0009789348 9.103624e-07 7.5822027e-07 -0.06112989
-0.0019309839 -2.8518223e-05 -0.21081445 0.017711671 -0.044894457 0.074850924 0.018609697 -0.006386987
0.063540906 0.026016744 0.00509787 1.9906247e-06 -0.08498447 0.0021802664 0.017690493 0.0021989115
-0.16665073 0.14969335 -0.2250067 0.06108907 0.00014783046 -0.080110215 0.0006653027 0.01066738
-0.14722532 -0.0001524691 8.7645657e-07 2.1808496e-06 0.013718231 -0.00068059226 -7.3591616e-07 -0.1282497
-0.017007953 -0.07598921 -0.26091227 -0.005105165 0.011089323 0.17259227 0.08613776 -0.06306079
-1.0294649e-05 -0.10739901 -0.0031354232 -0.07097377 -0.002077448 0.08336656 -0.10825281 0.040959075
0.116126746 -0.0004582705 -0.31193832 0.0005914075 0.07118217 -0.36210695 -0.0012636653 -1.0634534e-06
8.356535e-07 0.13108955 0.0013824697 -9.3546595e-07 0.086734295 0.03196281 0.018969884 -0.11477984
-0.023936244 0.00055416673 -0.001700168 0.07182351 0.029665766 -6.174037e-06 0.10253919 0.006511587
-0.034269743 0.0045216563 -0.02656598 0.32546467 -0.020671355 0.019295339 -0.00054485886 -0.033019703

weight f4 [20]
00000000: 3930 b83e a9e5 3a3e 7626 e33e 0675 923e
00000010: 73c5 0f3e 1c78 413e 4e7e a63e bb04 913e
00000020: f51c a13e 6a51 8a3e 262b 873e bb84 4d3e
00000030: be96 5b3e 7fec 3d3e 1796 913e 2268 8d3e
00000040: e7cf d93e 2158 883e f80d 443e cef4 9c3e
0.3597429 0.18251671 0.4436528 0.28604907 0.14040165 0.18893474 0.32518238 0.28323922
0.31467405 0.2701524 0.26400107 0.20070164 0.21444222 0.18547247 0.28434822 0.2761851
0.4254143 0.26629737 0.19145954 0.3065552

bias f4 [20]
00000000: 67aa b1be e7ed 09bd e905 043f bb36 133e
00000010: c9c5 693e 6d61 693e 707e dabd fb2f 003f
00000020: 3730 89be fcfe 943e 6556 0cbe 8431 b3bd
00000030: 6caa f2bd 09d6 72bd 5dd1 5f3d ee25 8a3d
00000040: 8f86 a3be 93a0 a9bd 44c3 bb3d a10b 3bbe
-0.3470032 -0.033674147 0.5157152 0.14376347 0.22829355 0.22791071 -0.10668647 0.5007321
-0.26794598 0.29100788 -0.13704832 -0.08749679 -0.11848912 -0.05928615 0.054643024 0.06745516
-0.31938598 -0.0828258 0.09168103 -0.18266155

running_mean f4 [20]
00000000: 6cae 133e f0c2 963d c6ee 23bf 036e d5bd
00000010: 6cd1 08be 6474 ea3d ad24 98be bafb d1be
00000020: df56 fc3d f7c0 08bd b362 02bd 52c3 483e
00000030: 768f a1bd feaa e63c f85c 353e 33b5 99be
00000040: 4e07 033e fc43 e73d 547c dd3c eb19 883e
0.14422005 0.073614 -0.64036214 -0.10421374 -0.13361138 0.11447981 -0.2971548 -0.41012365
0.12321257 -0.03338715 -0.03183241 0.19605759 -0.07888691 0.028157707 0.17711246 -0.30021057
0.12795755 0.11292264 0.027036823 0.26582274

running_var f4 [20]
00000000: 43ad 2d3c 681f 3a3b 8f40 943d acac a23c
00000010: dd63 853c c290 3a3c 6251 0b3c bb3d 3e3d
00000020: 15e7 c53b 24ef ea3c 6351 023c cc0f 903b
00000030: 3b9a 163b 487f 4f3b 33b2 cb3c ca93 a93c
00000040: 6b3f 813c f96c ec3b 7508 7a3c 98c8 323c
0.010600391 0.0028400067 0.07238876 0.019857727 0.01628297 0.011387052 0.00850329 0.04644559
0.00603951 0.028678484 0.007953974 0.0043964144 0.0022980112 0.003166156 0.024865245 0.020700354
0.01577731 0.007215139 0.015260805 0.010912083

weight f4 [5, 20, 3, 3]
00000000: 317f 0bbd 715a a93a 73ce 58bd 6ece 803d
00000010: bd3e 0fbd a7af 1abe 05e6 863d 8d29 483d
00000020: 6ce2 a2bd cc44 de3b e2a6 533c e557 2e3d
00000030: c58e c13c e0ab a13a 5df0 893b 7368 6c3c
00000040: 284d f5bc 6118 d2bc 4268 bcbc 6690 9fbd
00000050: a4c3 0c3d 4f7e dbbd ceda b0bd e9df 2d3e
00000060: 0e9e b7bc ba0e 18be ce22 f83d 7c18 02bd
00000070: ef9d 58bd 79b6 05bd 3757 8abe ef10 00be
00000080: 96e3 323e de4e 27be c829 c7bc 4c02 193e
00000090: 3c7e 57bd 3799 67bd 460e 25bb 1bd0 19be
000000a0: d4f0 62bb 95b4 423e 7846 ecbd 0d5a 15bd
000000b0: 1a3b f23d 4b0d 863d cbe2 fcbc b366 a6bd
000000c0: e066 843d 8501 e8bd 78fa 23be 0610 343d
000000d0: 8263 dcbd e474 20be ea42 fb3c df42 0f3d
000000e0: 309c bf3d 93d0 eebc dac4 b3bc acdb 803d
000000f0: 3cb1 d03c 5a1e b6bc 9e87 6d3d 0fc7 543d
00000100: 5724 bdbc 49e2 64bc 7cc8 a13d 9969 023d
00000110: cb48 053d 7774 863d 6eee 7ebd 94d8 163b
00000120: 73e6 dfbc ffa9 a7bc 7b51 4dbd 8056 dd3c
00000130: f274 adbc 2293 d4bc 586b b73c ecf3 a63c
00000140: ad52 423d 2ef7 57bd 0f3a 06bc bf3e 063e
00000150: 1f19 c5be 8794 1f3d 331b e13e 8542 1fbe
00000160: 147a 2e3d e887 843e b9fe a93d a408 10bd
00000170: 8a18 03be 6365 833b 4ac1 183b 5e95 233d
00000180: 023a 17bd f156 a3bc 10ab a2bc ae9b 1b3d
00000190: 13ed 49bd 5572 dcbd 5815 2f3d 92cc 7bbc
000001a0: ffc6 80bd 39d2 113d 22fd e6bc abc4 80bd
000001b0: 91e6 ee39 053a 93bc 4d2b 5c3c 32c7 92bd
000001c0: eed2 cc3b e6e6 ca3d da70 48bd 0f1b 9e3b
000001d0: 69ad 3f3d d9bd 41bd 8ccd 29bd 9da5 8539
000001e0: dd52 8fbd 3caf 4cbd b7a2 b33c b0d8 35bd
000001f0: 554c 31bd 5424 4d3c 3763 bdbd 20ff 96bd
00000200: c94b de3d 8e25 22be 0f0d 81bd ed0a 903e
00000210: b9bb 13be 2adc 44bd 7321 0d3e feba 4b3e
00000220: bbc3 843d baed debd 77d4 af3e e1a9 aa3d
00000230: bdf4 66be 2951 833e 0588 263c 8d41 ffbd
00000240: ab17 b1bb 9d97 95bc c1f5 48bd 3375 da3d
00000250: 6140 0d3c 0bbc 86bc 555c e33c 41fe 013c
00000260: dcd8 9f3d a3f9 5fbc 6015 db3c 8184 9cbc
00000270: cea3 57bb 03fd f73b 7276 2bbd a39e 973b
00000280: 62af 07bd 3f9c c23b f13f f63d 8c76 ae3b
00000290: 27b8 18be 80df af3e ea04 afbc 07a9 cbbe
000002a0: b925 103e 1ba2 b1bd cde0 b6be 9fd1 5bbc
000002b0: 7ce7 d8bc 09a7 4bbd 992a b5bc 5ca2 a9bc
000002c0: bff4 543d f300 46bd 769f 4abd 9bcf 543d
000002d0: 7061 883d 2ea2 893d 7810 c63c e6d6 4abd
000002e0: ea93 80bc 868d fb3d cddf f4bd 998c 4bbe
000002f0: 3ec5 dcbc f16a 9bbc 37d7 3bbd 46c1 b7bc
00000300: e694 d33d 41c5 33bc 5416 c5bd 123c 933c
00000310: 8f6f 8a3c 1dc4 adbd dff9 773d f9a5 4d3e
00000320: cd16 cdb7 c32f cabe f976 83bd a71c 903e
00000330: b140 e53d f928 8fbe 4ac1 d4bc 523c f0bd
00000340: ea7c df3c 73cb 063d 6a22 11be 050f cbbd
00000350: d2bc ca3d 4eb3 0d3e 58e0 c0bd 77ca 2cbc
00000360: 497d 973d 6dfa b73d 7d76 92bd 5eb5 b8bd
00000370: c5a1 1e3d 8d32 563c a672 7cbc 684c d0bc
00000380: c968 aa3d 507d 1fbe 1242 edbd a43c a43c
00000390: 2b69 263e 5991 0e3d ec8e 1dbd cfc1 363d
000003a0: a137 943d cf61 b1bd 8a13 5ebd 69fc d33d
000003b0: 6228 f83c c3aa 7abd d353 213d 8105 e63d
000003c0: a846 ca3d 499c 36bd 8496 42bd 222b 883e
000003d0: 5871 3d3e 5168 6dbe 9f00 3ebe 8a6d cf3d
000003e0: 9872 f63d be10 94bd 5cd0 44be dee6 d83d
000003f0: 8c73 c13c 771e 88bc cd70 fbbd 52b8 243d
-0.034056846 0.001292063 -0.05293126 0.06289373 -0.03497194 -0.15106069 0.065868415 0.04886775
-0.07953343 0.0067831036 0.012918206 0.04256429 0.023627648 0.0012334548 0.0042095617 0.0144291995
-0.029944018 -0.02564639 -0.022998933 -0.07791214 0.034366265 -0.10717451 -0.08635484 0.16979946
-0.022414234 -0.14849368 0.121160135 -0.03176163 -0.052884992 -0.032644723 -0.27019665 -0.1250646
0.1746963 -0.16338679 -0.024311915 0.14942282 -0.05261062 -0.0565426 -0.002518551 -0.15020792
-0.0034628408 0.19014199 -0.11536878 -0.036462832 0.11827679 0.06545504 -0.030869862 -0.08125057
0.06464934 -0.11328415 -0.16013515 0.043960594 -0.10761167 -0.1566959 0.030671556 0.034975883
0.09355962 -0.02915219 -0.021944452 0.06291899 0.025475137 -0.02223127 0.057990663 0.05194765
-0.023088617 -0.013969966 0.078995675 0.031838987 0.032540124 0.06565183 -0.062239103 0.0023017274
-0.027331566 -0.020466803 -0.050126534 0.027018785 -0.021173928 -0.025949065 0.022390053 0.020379983
0.047442127 -0.052725963 -0.008192553 0.13109873 -0.38495728 0.038960006 0.43966064 -0.15552719
0.04259689 0.25884938 0.083005376 -0.03516449 -0.1280233 0.004009889 0.0023308569 0.03993737
-0.036920555 -0.019938918 -0.01985696 0.037990265 -0.049298357 -0.107639946 0.042744964 -0.015368598
-0.062879555 0.035600875 -0.028196875 -0.062875114 0.00045566683 -0.017972002 0.013438058 -0.071669
0.0062507307 0.09907322 -0.04893575 0.004825003 0.046796236 -0.047300193 -0.04145579 0.00025491128
-0.06998227 -0.049971804 0.021928174 -0.044396102 -0.043285687 0.012520868 -0.09247439 -0.0737288
0.108542986 -0.15834638 -0.06301319 0.28133336 -0.1442708 -0.048061527 0.13782291 0.1989555
0.06482645 -0.108851865 0.34341785 0.08333183 -0.22554298 0.25647858 0.0101642655 -0.12463675
-0.005404433 -0.018260771 -0.049062494 0.10666885 0.008621306 -0.016447088 0.027753988 0.007934154
0.078050345 -0.013670358 0.02674359 -0.019106152 -0.0032904032 0.007568003 -0.041861005 0.0046270653
-0.033126242 0.005939036 0.120239146 0.0053241905 -0.14913999 0.34350204 -0.021364648 -0.39777395
0.1407689 -0.08673497 -0.35718384 -0.013416677 -0.026477568 -0.049719844 -0.022115039 -0.020707302
0.05199122 -0.04834075 -0.04946848 0.0519558 0.0665921 0.067203864 0.024177775 -0.04952135
-0.01569553 0.12282853 -0.11956749 -0.19877852 -0.026949521 -0.018971892 -0.04585954 -0.022431027
0.103311345 -0.010972322 -0.096233994 0.01797298 0.016898898 -0.08484671 0.06054103 0.20082845
-2.4448522e-05 -0.39489564 -0.064191766 0.2814686 0.111939795 -0.27960947 -0.025971074 -0.11730255
0.027281243 0.032908868 -0.14173284 -0.09914974 0.09899296 0.1383793 -0.0941779 -0.010546318
0.07396943 0.08983312 -0.07151506 -0.09018968 0.038728494 0.013073576 -0.015408194 -0.025427058
0.083207674 -0.15575147 -0.115848675 0.020048447 0.16251056 0.034806583 -0.03846638 0.044618424
0.07237173 -0.08661234 -0.054217853 0.10350878 0.030292694 -0.061198007 0.03938658 0.112315185
0.09876758 -0.04458264 -0.047506824 0.26595408 0.18500268 -0.23184325 -0.18554924 0.10128315
0.12033576 -0.07229756 -0.19220108 0.105909094 0.023614667 -0.01661609 -0.122773744 0.040214844

weight f4 [34]
00000000: a952 c3b5 1479 9a34 d52d ffba caff 723e
00000010: 5ecc a83e ff6f 1c37 0756 7337 27f9 c339
00000020: 2890 703d 0029 bb33 81c1 0238 f410 323e
00000030: 13a1 bb3e 059a e13a bb6a 023e e93d a839
00000040: dbc4 d939 624c 8c3e 96a7 383e 687b 913e
00000050: 2400 3d3e 15ff e734 545c e434 7885 6138
00000060: e595 c53c 9663 723e 1bf8 3c39 2403 593e
00000070: c3dc e13d d84a c33d 4815 f6bb a547 543e
00000080: a9c5 6c3e 5eac 8638
-1.455269e-06 2.877283e-07 -0.0019468615 0.23730388 0.3296842 9.324401e-06 1.45039585e-05 0.0003737893
0.058731228 8.715324e-08 3.117463e-05 0.1738928 0.36646327 0.0017212039 0.12736027 0.00032089584
0.00041536134 0.27402025 0.18032679 0.28414464 0.18457085 4.32127e-07 4.2535487e-07 5.3768483e-05
0.024119327 0.23670802 0.00018021504 0.21192604 0.11028435 0.0953576 -0.007509861 0.20730455
0.23122276 6.421724e-05

bias f4 [34]
00000000: 3274 94b7 30eb 11b6 dc9a bd3a 4f3a 313f
00000010: d43d 803d 2194 7db8 228f 1eb9 1884 3cbb
00000020: f36f 7a3c 03a4 9eb5 7154 bfb9 d8ef 203e
00000030: 1283 b8bd df75 80bc d3ef 173c 2e47 cdba
00000040: 6fc0 8b39 1480 943e cea8 8c3e 415f 423f
00000050: eac9 17be 561b 0bb7 beef fab6 6060 55ba
00000060: 67a6 59bd 0950 d5bd f313 b2ba 84e2 3dbe
00000070: 05a3 813d b1d1 113e 3905 48bd b730 c73e
00000080: 83a5 563e 325e 6db9
-1.7697083e-05 -2.174358e-06 0.0014465707 0.69229597 0.06261793 -6.0457856e-05 -0.00015121375 -0.0028765257
0.01528548 -1.1819651e-06 -0.00036493273 0.15716493 -0.09009375 -0.015681205 0.009273487 -0.0015661472
0.0002665552 0.29003966 0.27472538 0.75926596 -0.14823118 -8.29141e-06 -7.4784903e-06 -0.0008139666
-0.05313721 -0.10415656 -0.0013586268 -0.1854344 0.06329922 0.14240147 -0.048833106 0.38904354
0.20961575 -0.00022637172

running_mean f4 [34]
00000000: a298 e3bd 11d5 ecbd c602 91bf bfc2 c6be
00000010: dcd1 a63e 8ba8 cbbe 8440 00bf 4685 023e
00000020: 6347 21bf 3b70 99be dbb5 6b3e e935 833e
00000030: b014 033c 02ad 98bd 9b01 9cbd 2de8 b9be
00000040: 696f df3e bdcc b63d 16a5 6d3d 20e6 b43c
00000050: fe9a d2bc 078d dbba 8b5a 21be 12e0 f83d
00000060: 5576 413f aebb 553d 2c0c cf3d 3983 4d3d
00000070: b842 0c3e 13ac d83d cc0b 59be f2d4 ee3c
00000080: 28d3 f73d a069 e8be
-0.11113097 -0.11564077 -1.1328971 -0.38820454 0.32581985 -0.39777026 -0.50098443 0.12746152
-0.6299955 -0.29968438 0.23018591 0.25627068 0.008000538 -0.074548736 -0.07617494 -0.3630995
0.43639687 0.089257695 0.058018766 0.022082388 -0.025708672 -0.0016750403 -0.15757196 0.12152113
0.75571185 0.05218094 0.101097435 0.05017397 0.13697326 0.105796956 -0.21195906 0.029154275
0.12100822 -0.45393085

running_var f4 [34]
00000000: 5d4a 123e 7cbd 023e 8c82 813e f7cd 9c3e
00000010: dabd 7b3e e7d3 8f3e b749 a83e 90ce 173e
00000020: 619c 9c3e 6563 5c3e 5666 1640 ba82 0740
00000030: 639c 0741 f802 cb3e 1597 553f 0ece 6140
00000040: 9aa4 b040 e03b 1b40 c45f 1341 0e37 8f3f
00000050: 877d 0141 17d4 323f a4ef a13f af5c 5d40
00000060: 166a 2841 f3c2 9b41 34bc 8940 82c7 c53f
00000070: 7327 933f db01 ad3f 64cd 913f 57cb a03f
00000080: ecc5 9940 d0cf 9240
0.1428618 0.12767595 0.25294912 0.3062589 0.24584141 0.28091356 0.3286874 0.14824891
0.30588058 0.21522291 2.349996 2.117354 8.47568 0.39650702 0.8343366 3.5282016
5.520093 2.4255295 9.21088 1.1188676 8.093146 0.69854873 1.2651258 3.458782
10.5259 19.47019 4.304224 1.545151 1.1496414 1.3516191 1.1390805 1.2562054
4.8054104 4.5878677
