checkpoint/FinetuneDensenet100-5-4_0.pth (torch_old, 825303 bytes, 498 tensors)

weight f4 [24, 3, 3, 3]
0	0x3bbb964b	0.0057247034
1	0x3ec011c7	0.37513563
2	0x3a625dd4	0.00086351973
3	0x3dbe30fb	0.09286686
4	0x3f15849a	0.5840546
5	0x3e1c7157	0.1527761
6	0x3deafd3b	0.11474081
7	0x3ea7fb4a	0.32808906
8	0x3decf969	0.11571009
9	0xbded9b00	-0.116018295
10	0xbf362e32	-0.7116424
11	0xbdb5cd30	-0.08877027
12	0xbf2eb34c	-0.68242335
13	0xbfb9529f	-1.4478339
14	0xbf1da32a	-0.61577094
15	0xbd5d6214	-0.054048613
16	0xbf2d150a	-0.6761023
17	0xbda43608	-0.08018118
18	0x3e41da8b	0.18931024
19	0x3eb53596	0.35392445
20	0x3e235024	0.1594854
21	0x3ea9c70d	0.33159676
22	0x3f038944	0.51381326
23	0x3eb20b64	0.34774315
24	0x3dbb287b	0.091385804
25	0x3e5d7f24	0.21630532
26	0x3d99665c	0.074902266
27	0x3c8c0347	0.017091407
28	0x3e927836	0.2860734
29	0xbcce62bd	-0.025193566
30	0x3bd24025	0.006416338
31	0xbed2df52	-0.41186005
32	0xbd862889	-0.065507
33	0xbbaede00	-0.005336523
34	0xbe6c3c76	-0.23069939
35	0xbcd1e17c	-0.025620215
36	0x3e2d1360	0.16901922
37	0x3eaea365	0.34109035
38	0x3c326535	0.010888387
39	0x3d93f7c7	0.07224994
40	0xbed8dbe5	-0.42355266
41	0xbd280a7c	-0.041025624
42	0xbb450b25	-0.0030066457
43	0xbe2863a8	-0.16444266
44	0xbc4de4f9	-0.012566798
45	0x3d15ee4a	0.036604203
46	0x3e70b78f	0.23507522
47	0xbd434cdd	-0.047680724
48	0xbcb76cb0	-0.022390693
49	0xbe63c757	-0.22244011
50	0xbd3732d1	-0.044726197
51	0xbcd1849b	-0.025575927
52	0xbe3052a4	-0.17219025
53	0xbd5cca72	-0.053904004
54	0xbe9c1f1d	-0.30492488
55	0xbf09bf2d	-0.53807336
56	0xbe3e27a6	-0.18569812
57	0x3cd1b398	0.025598332
58	0xbdb21df4	-0.08697119
59	0x3d0d13c9	0.034442697
60	0x3e8a4f0a	0.27013427
61	0x3f105723	0.5638296
62	0x3e8a6f82	0.270382
63	0xbec4561f	-0.38346955
64	0xbf258377	-0.64653724
65	0xbe8c0198	-0.27344966
66	0xbcff5547	-0.031168593
67	0xbdd0451c	-0.101694316
68	0x3c2e2ba0	0.010630518
69	0x3e87e80c	0.26544225
70	0x3f1a0bbd	0.6017416
71	0x3e91c057	0.28467056
72	0xbdf05951	-0.11735786
73	0xbebb9864	-0.36639702
74	0xbd98c210	-0.074588895
75	0x3cbfd9ae	0.023419227
76	0xbc4ef67b	-0.012632008
77	0x3b8a71be	0.004224985
78	0x3e330a92	0.17484501
79	0x3ede73ec	0.43447816
80	0x3e08ca6e	0.13358471
81	0x3d6e154c	0.05812578
82	0x3de80a0a	0.1133004
83	0x3dcb3b39	0.09923405
84	0x3d9903f0	0.07471454
85	0x3e023046	0.12713727
86	0x3dc38826	0.09547453
87	0x3dc3da77	0.09563153
88	0x3dd1acb1	0.102380164
89	0x3cff2526	0.031145643
90	0xbe3cb5b3	-0.18428688
91	0xbe53d76d	-0.20687647
92	0xbe23bcca	-0.15989986
93	0xbe5065f4	-0.20351392
94	0xbe5511e1	-0.20807602
95	0xbe1c5e5d	-0.15270372
96	0xbded36c7	-0.115827136
97	0xbde07fa2	-0.10961844
98	0xbdbad385	-0.091223754
99	0x3d7a19dd	0.06105982
100	0x3de4e57d	0.11176584
101	0x3d63957b	0.055562478
102	0x3de36615	0.11103455
103	0x3e449c20	0.19200182
104	0x3df55ddc	0.11980793
105	0x3dcac5c7	0.09901004
106	0x3e2c4731	0.16824032
107	0x3db8ae0a	0.0901757
108	0xbd8b0362	-0.067877546
109	0xbe74983d	-0.238862
110	0xbcbe5d61	-0.023237886
111	0xbe6a590e	-0.22885534
112	0xbed86621	-0.42265418
113	0xbe365519	-0.178059
114	0xbe79cd96	-0.24394831
115	0xbe8dc8f7	-0.27692387
116	0xbe4d308a	-0.20038047
117	0x3e126ea0	0.14300013
118	0x3ec45184	0.3834344
119	0x3e16c54b	0.14723699
120	0x3e9b217d	0.30298987
121	0x3f22fd43	0.63667697
122	0x3ea35ee9	0.31908348
123	0x3d958df0	0.07302463
124	0x3ec1c4da	0.37845498
125	0x3ddd2990	0.10798943
126	0xbd0a53fd	-0.033771504
127	0xbd94a5e7	-0.07258206
128	0xbd4cd505	-0.05000784
129	0xbd8f37f8	-0.06993097
130	0xbd972a9d	-0.07381175
131	0xbdb79e65	-0.08965758
132	0xbd2c45d3	-0.042058777
133	0xbcc6e5a8	-0.02427943
134	0xbd76bc88	-0.06023839
135	0x3e8738c8	0.26410508
136	0x3ec578b9	0.38568667
137	0x3e72c8e4	0.23709446
138	0x3eb2c2c4	0.3491422
139	0x3ef907e2	0.48638827
140	0x3ea45a88	0.3210032
141	0x3dd9c462	0.1063316
142	0x3e3d7d13	0.18504743
143	0x3dba6267	0.091008
144	0x3b00eb13	0.0019671365
145	0xbc87e683	-0.016589409
146	0xbbf14aae	-0.007363639
147	0x3bba9423	0.005693929
148	0xbd0088a3	-0.031380307
149	0x3be3049e	0.0069280406
150	0xbd37d317	-0.044879045
151	0xbdb15f3c	-0.08660743
152	0xbd13460e	-0.03595548
153	0xbe467161	-0.19379188
154	0xbd9dc856	-0.07704227
155	0xbe318273	-0.17334919
156	0xbe13a316	-0.14417681
157	0xbd1d94a7	-0.038471844
158	0xbe047342	-0.12934592
159	0xbe112dd2	-0.14177635
160	0xbd1a85ca	-0.037725247
161	0xbdbc0cb1	-0.09182108
162	0x3df6bcbb	0.12047716
163	0x3e823536	0.25431222
164	0x3dbd05d5	0.09229628
165	0x3dfed6aa	0.12443288
166	0x3df9240e	0.1216508
167	0x3e3d0c27	0.18461667
168	0x3e6207e9	0.2207333
169	0x3e122633	0.14272384
170	0x3e4e7930	0.20163417
171	0xbc85660b	-0.01628401
172	0xbce25a3a	-0.027630914
173	0x3c0315fd	0.008000848
174	0xbe8266ba	-0.25469
175	0xbef42f6b	-0.47692427
176	0xbd931e5d	-0.07183526
177	0x3c9e05d6	0.019289892
178	0xbe5d6f07	-0.21624385
179	0xbae7dca3	-0.0017689656
180	0xbd1b6d5d	-0.037946094
181	0xbe06ab82	-0.13151363
182	0xbced4477	-0.02896331
183	0xbebbdd6d	-0.36692372
184	0xbf211bb1	-0.6293288
185	0xbe1e5518	-0.15462148
186	0xbd8ef013	-0.06979384
187	0xbe929637	-0.2863023
188	0xbc9bd687	-0.019023193
189	0x3dd4559f	0.103678934
190	0xbd63f627	-0.05565467
191	0xbd950dae	-0.07278
192	0x3ed79389	0.42104748
193	0xbe5b03c0	-0.2138815
194	0xbe28bb39	-0.1647767
195	0x3e11c5a6	0.14235553
196	0xbd6cec37	-0.05784246
197	0xbd3a41da	-0.045472957
198	0x3e1e55cb	0.15462415
199	0xbe20fcc6	-0.15721425
200	0xbdc4e3f3	-0.0961379
201	0x3f037c63	0.51361674
202	0xbea887d5	-0.32916132
203	0xbe5b945c	-0.21443313
204	0x3e5c1120	0.21490908
205	0xbcb8c6c3	-0.022555714
206	0xbd2429c6	-0.0400789
207	0x3d9cf9be	0.07664822
208	0xbe2c2051	-0.16809203
209	0xbc13fd1a	-0.009032512
210	0x3eb64dd7	0.35606262
211	0xbe8fe557	-0.2810466
212	0xbe0700b5	-0.13183863
213	0x3e03fc6f	0.12889265
214	0xbe10d96c	-0.1414544
215	0xbd458094	-0.048218325
216	0x3e3d3bab	0.18479793
217	0x3cbbe441	0.022935988
218	0xbe121b83	-0.14268307
219	0x3f38bfd3	0.721677
220	0xbdacdc87	-0.084405
221	0xbf227576	-0.6346048
222	0x3e023e42	0.12719062
223	0xbda41a5d	-0.08012841
224	0xbe64fa5b	-0.22361128
225	0x3e83f1cb	0.2577041
226	0xbd4fe8a3	-0.05075897
227	0xbe725b1f	-0.23667572
228	0x3f5c2330	0.8599119
229	0xbdd8456e	-0.10560118
230	0xbf35f5f8	-0.71078444
231	0x3e6153df	0.2200465
232	0xbcafa7ed	-0.021442378
233	0xbe507903	-0.20358662
234	0x3e3a4eeb	0.18194167
235	0xbd7d25e9	-0.061803732
236	0xbe244dd3	-0.16045313
237	0x3f352cbd	0.7077139
238	0xbdcaecf8	-0.099084795
239	0xbf122f66	-0.57103574
240	0x3e305921	0.172215
241	0xbcc0178d	-0.02344873
242	0xbe103830	-0.14083934
243	0xbd340f0a	-0.043959655
244	0x3ebc3ac5	0.36763588
245	0xbd5548b9	-0.052071307
246	0x3ece8ca8	0.40341687
247	0xbf3f61ad	-0.74758416
248	0x3ef0d035	0.4703385
249	0xbe0961d4	-0.13416225
250	0x3d426e95	0.04746874
251	0x3d355e39	0.04427931
252	0x3b0497ac	0.0020232005
253	0xbdf8cb56	-0.12148158
254	0xbd8a768c	-0.06760892
255	0x3ee78fab	0.45226797

weight f4 [24]
0	0x3e184366	0.1486946
1	0x3df7f4df	0.12107252
2	0x3e497548	0.19673645
3	0x3db09ceb	0.0862368
4	0x3da1b138	0.0789513
5	0x3eac8046	0.33691615
6	0x3f1436d8	0.57896185
7	0x3c62093e	0.013796149
8	0x3eaf0719	0.34185103
9	0x39b4d70f	0.00034492507
10	0x3d0ddd1e	0.034634702
11	0x3e943621	0.28947547
12	0x3ed1b5a4	0.40958893
13	0x3d297450	0.04137069
14	0x3d51da8d	0.051233817
15	0x3e8d4c23	0.2759715
16	0x3ea3055f	0.31840035
17	0x3e2f3d74	0.17113286
18	0x3db901c6	0.090335414
19	0x3d82cd99	0.06386871
20	0x3ea95221	0.33070472
21	0x39b3c94c	0.00034291518
22	0x3e8d5b06	0.27608508
23	0x3d592e0d	0.053022433

bias f4 [24]
0	0x3c4a8f87	0.012363321
1	0x3be9b2fc	0.0071319323
2	0xbd255c21	-0.040371064
3	0x3db6b8d8	0.08921975
4	0x3da69654	0.081341416
5	0xbcac345c	-0.02102106
6	0xbe5c21c8	-0.21497262
7	0xbaa521ec	-0.001259861
8	0xbd5173d6	-0.05113586
9	0xb9584c43	-0.00020627775
10	0x390cc6dc	0.00013425521
11	0x3f396d7a	0.7243267
12	0x3f1f56e1	0.6224194
13	0x3ba85356	0.0051368875
14	0xbc98f04d	-0.018669272
15	0xbc8d8561	-0.017275514
16	0x3e18e32b	0.14930408
17	0xbd42be38	-0.047544688
18	0x3c1a2f89	0.009410747
19	0xbc1d66ec	-0.009607058
20	0x3f136030	0.57568645
21	0xbb4154aa	-0.0029499927
22	0xbc9e0922	-0.019291464
23	0xbca01bd5	-0.019544521

running_mean f4 [24]
0	0x3c024b1d	0.007952479
1	0xbd0f1cdf	-0.034939643
2	0xbd0c3a68	-0.034235388
3	0x3cdc008c	0.02685573
4	0xbb90e7a6	-0.004422146
5	0x3d5512a1	0.05201972
6	0xbd94a9d1	-0.072589524
7	0xbc685ce9	-0.014182308
8	0xbb257d18	-0.0025251564
9	0x3b8a9010	0.0042285994
10	0xba3ff0a3	-0.00073219294
11	0x3ba03840	0.004889518
12	0x3d3b4bb8	0.045726508
13	0xbd8cf385	-0.06882385
14	0xbde3b60c	-0.11118707
15	0x3d791ae4	0.06081666
16	0x3b917ca7	0.0044399085
17	0x3c49c475	0.012314905
18	0xbcf8591f	-0.030315934
19	0xbc3d4a5c	-0.011553373
20	0x3c8f0363	0.01745767
21	0xbbd2e8e7	-0.0064364555
22	0xbcd980c6	-0.026550662
23	0x3dada4cc	0.08478698

running_var f4 [24]
0	0x4003138d	2.0480683
1	0x3fc2d5bc	1.5221477
2	0x409bda88	4.870426
3	0x3ec70fc9	0.3887923
4	0x3f4d87cb	0.8028533
5	0x404f6a6a	3.24087
6	0x408e4526	4.445941
7	0x3f9e61fb	1.2373651
8	0x409cd7ac	4.901327
9	0x3f070e27	0.5275597
10	0x408b420d	4.351813
11	0x3f33e1c6	0.7026638
12	0x3f9d8b48	1.230813
13	0x404c70bf	3.1943815
14	0x40e9d5cd	7.3073487
15	0x4135d923	11.365512
16	0x40a84ab8	5.259121
17	0x3f619348	0.8811536
18	0x3f21012e	0.62892425
19	0x3f378e2f	0.7170133
20	0x3f67aab2	0.90494835
21	0x3f040732	0.5157348
22	0x4026710c	2.6006498
23	0x40855eb2	4.1678095

weight f4 [20, 24, 1, 1]
0	0xbd84538e	-0.06461249
1	0xbc8814bd	-0.016611451
2	0x3cc999f0	0.024609536
3	0xbd3571ac	-0.04429786
4	0xbc9d799c	-0.019223027
5	0xbe12d7f0	-0.14340186
6	0x3cbd9560	0.023142517
7	0x3a620e13	0.0008623313
8	0xbc45b8cd	-0.012067986
9	0xb6416a98	-2.8821287e-06
10	0x3bac2fbf	0.005254715
11	0x3db71f6d	0.08941541
12	0x3cc9922c	0.024605833
13	0x3a95f35d	0.0011440326
14	0x3a85e751	0.0010216032
15	0x3bbd9b45	0.005786332
16	0xbdd8ef2b	-0.10592493
17	0xbc0d51e7	-0.008625484
18	0x3d04da22	0.03243459
19	0x3be9ba0c	0.007132774
20	0xbd8c1f7c	-0.06841943
21	0xb9d76816	-0.00041085546
22	0x3d3c4c19	0.04597101
23	0xbcf33d1e	-0.029692229
24	0x3aed0e2d	0.001808589
25	0xbcae1201	-0.02124882
26	0xbb9494c4	-0.004534336
27	0x3da45ec6	0.08025889
28	0x3a87a3a3	0.001034845
29	0xbdaea258	-0.08527058
30	0xbd95f070	-0.073212504
31	0xbbd4a9d6	-0.0064899726
32	0xbe905371	-0.2818866
33	0x381e3e94	3.7728416e-05
34	0xbc9c0098	-0.019043252
35	0xbebabe66	-0.36473387
36	0xbd3533d3	-0.044238877
37	0xbb0c6477	-0.0021422186
38	0xbcdee919	-0.027210759
39	0x3ae67f9a	0.0017585636
40	0xbc44fb4b	-0.012022804
41	0xbba6e2a5	-0.005092936
42	0xbc25570f	-0.010091557
43	0xbd2897e3	-0.041160475
44	0x3d81bff7	0.063354425
45	0x39edd550	0.00045363093
46	0xbe3854cb	-0.18001096
47	0x3a3f084b	0.00072873075
48	0x3cf99194	0.030464925
49	0x3ce589fb	0.028019896
50	0xbd89f17a	-0.06735511
51	0x3d077ffa	0.033081032
52	0xbcf94839	-0.030429946
53	0x3bff23b0	0.0077862367
54	0xbd8cc7c2	-0.06874038
55	0x3acf0eec	0.0015797294
56	0xbc0ac857	-0.008470616
57	0xb560bcb3	-8.3721096e-07
58	0xbb9b33f1	-0.0047364165
59	0x3be90909	0.007111673
60	0x3e717dc6	0.23583135
61	0xbc5f29e3	-0.013620826
62	0x3b6475d4	0.003486027
63	0xbdbfa7a6	-0.09358148
64	0xbd03e876	-0.032204114
65	0xbcde9b85	-0.027173767
66	0xbcd34e8e	-0.025794294
67	0xbbb2eca2	-0.0054603377
68	0xbe6074be	-0.21919534
69	0xbaefcada	-0.0018294707
70	0xbc614730	-0.013749883
71	0x3cac533c	0.021035783
72	0xbce29f72	-0.02766392
73	0x3c258caf	0.010104342
74	0xbdfaa66d	-0.122387744
75	0xbcfd45b4	-0.030917026
76	0x3c170dd1	0.009219603
77	0x3c274cd0	0.010211185
78	0xbd0211f4	-0.031755403
79	0xbac0d06a	-0.001471055
80	0xbd14c990	-0.036325037
81	0xb86a8b88	-5.5919896e-05
82	0x3b8f60a5	0.0043755346
83	0xbd40487b	-0.046944123
84	0xbe64881b	-0.22317545
85	0xbb5b3f2b	-0.00334544
86	0xbd0880cb	-0.03332595
87	0x3d6faa62	0.0585121
88	0xbd8e73af	-0.06955659
89	0x3c1fa355	0.009743531
90	0xbd1ec24a	-0.038759507
91	0xbb309ff2	-0.0026950804
92	0x3de7d0cd	0.113191225
93	0xba08a762	-0.000521293
94	0x3b9d259c	0.004795743
95	0xbcbea72b	-0.023273071
96	0x3ccf051d	0.025270993
97	0x3d242de1	0.040082816
98	0x3cb2b43f	0.021814464
99	0x3d19b93c	0.03753017
100	0x3b096b68	0.002096856
101	0xbe022000	-0.1270752
102	0xbde4ca13	-0.11171355
103	0xbbc6cd9f	-0.0060669924
104	0xbe19bc72	-0.15013292
105	0x386e97b4	5.6884906e-05
106	0xbb6ba85e	-0.003595851
107	0x3e232aab	0.15934245
108	0xbc11ec26	-0.0089064
109	0x3b390806	0.0028233542
110	0x3c08fc59	0.008360946
111	0xbcdd1d89	-0.026991623
112	0x3d8c7382	0.06857969
113	0xbbfbd533	-0.0076853274
114	0xbbda3713	-0.0066593974
115	0xbbbb01de	-0.0057070097
116	0xbb57eef4	-0.0032948824
117	0xb908acb8	-0.00013034313
118	0x3a8a135a	0.0010534332
119	0x3c92083b	0.01782619
120	0xbd0b234e	-0.033969216
121	0x3cb84ffe	0.02249908
122	0x3d69515e	0.056962363
123	0xbd0659e4	-0.03280057
124	0xbd88d6fc	-0.0668163
125	0xbe5cf3d3	-0.21577387
126	0x3ed2b43e	0.4115314
127	0x3b6749d0	0.0035291798
128	0x3d14d4c8	0.036335737
129	0x395f864a	0.00021316964
130	0x3c817e36	0.015807252
131	0xbcec7b03	-0.02886725
132	0xbddd0c4e	-0.107933626
133	0xbc73a92e	-0.014871879
134	0x3b429d49	0.00296958
135	0x3d75e615	0.060033876
136	0xbe2a723a	-0.16645136
137	0x3c4294b7	0.011876277
138	0x3d0b4991	0.034005705
139	0x3b89c674	0.0042045657
140	0x3c90ec65	0.017690847
141	0xb976440e	-0.0002348574
142	0x3dcf4a46	0.101215884
143	0x3c9eaee9	0.019370513
144	0xbca1ea30	-0.01976499
145	0xbb45a588	-0.0030158479
146	0xbd5c851d	-0.053837884
147	0xbce60080	-0.02807641
148	0xbd35c8de	-0.044381015
149	0x3e494948	0.19656861
150	0x3e90f211	0.28309682
151	0x3bb21957	0.0054351497
152	0x3e021253	0.12702303
153	0xb9a6f16b	-0.00031841858
154	0x3c62941e	0.013829259
155	0xbd86dcb6	-0.06585066
156	0x3d41e3cf	0.047336396
157	0xba8615ad	-0.0010229849
158	0x3b0472a8	0.0020209942
159	0xbda690a8	-0.0813306
160	0xbee6b2c8	-0.45058274
161	0xbd052074	-0.032501653
162	0xbb5746b3	-0.0032848537
163	0x3cbe3b48	0.023221627
164	0x3d1e61c5	0.03866746
165	0xbaf2fab7	-0.0018537854
166	0x3d57369b	0.05254231
167	0x3c941df6	0.018080693
168	0x3d76c228	0.060243756
169	0xbd333dda	-0.043760158
170	0xbde5d62c	-0.11222491
171	0x3d8078db	0.06273051
172	0x3bf2187b	0.007388172
173	0x3c70368f	0.014661445
174	0xbcd96ef4	-0.026542164
175	0x3a856e85	0.0010180032
176	0x3dcd4b6f	0.100241534
177	0xb8db52f7	-0.00010458187
178	0x3acd512f	0.0015664453
179	0xbd8d62e4	-0.069036275
180	0xbee7fc46	-0.45309657
181	0xbb85c8cc	-0.0040827747
182	0xbbd7faca	-0.0065911757
183	0xbd241a67	-0.04006424
184	0xbc80e57b	-0.015734425
185	0xbd81c765	-0.063368596
186	0xbc9f1f25	-0.01942403
187	0xbbd8dd93	-0.0066182106
188	0x3e97ed22	0.29673105
189	0x3891227f	6.920564e-05
190	0xbc6ad808	-0.014333732
191	0x3bfe3d66	0.007758784
192	0x3d250e9a	0.04029713
193	0x3cd6c276	0.026215773
194	0x3d245972	0.040124364
195	0x3d604154	0.0547498
196	0xbda24ecc	-0.079251856
197	0x3cfedb15	0.031110326
198	0x3ec619ee	0.38691658
199	0x3b57726a	0.0032874593
200	0x3a1d8b60	0.0006009843
201	0x3917db91	0.00014482277
202	0x3c147cf9	0.009062999
203	0x3bea5da4	0.007152276
204	0x3dd6f0a4	0.10495117
205	0xbca2b4a6	-0.01986153
206	0x3c6e0884	0.0145283975
207	0x3dc0078d	0.0937644
208	0xbd422aee	-0.047404222
209	0x3d32d2fc	0.04365824
210	0x3ce6d7e0	0.02817911
211	0xbb9f41ae	-0.0048601246
212	0xbd417e7a	-0.047239758
213	0x391f9d4e	0.00015222022
214	0x3cb3ee01	0.021964075
215	0x3b831238	0.0039999746
216	0x3d1fee3d	0.03904556
217	0xbdb3f891	-0.08787645
218	0x3d8a51d1	0.067538865
219	0x3d50ac84	0.050945774
220	0x3d2f16bc	0.04274629
221	0xbd03be1a	-0.032163717
222	0xbd3dd36c	-0.046344206
223	0x3ba4090b	0.005005961
224	0x3e23f21d	0.16010328
225	0xb8110ed2	-3.4584496e-05
226	0x3c8fc550	0.01755014
227	0xbd7e89d6	-0.06214317
228	0xbec1b675	-0.37834516
229	0x3c2b950e	0.010472549
230	0x3bca89fb	0.0061809993
231	0xbe0334f9	-0.12813176
232	0xbd3261d2	-0.04355032
233	0xbdf290ea	-0.118440464
234	0x3cf02558	0.029314682
235	0x3c5e888f	0.013582363
236	0x3eb916f7	0.36150333
237	0x3934c3f1	0.00017239132
238	0x3dcc4a05	0.099750556
239	0x3c813bab	0.015775522
240	0x3bdfe30e	0.006832487
241	0x3d5cf31a	0.053942777
242	0xbd6e740a	-0.058216132
243	0x3c167eea	0.009185532
244	0xb9ae9e55	-0.00033305833
245	0x3cab3a0e	0.020901706
246	0xbded85c9	-0.11597783
247	0xbc25ea08	-0.010126598
248	0xbe7a22a2	-0.24427274
249	0xb8aaf76b	-8.152317e-05
250	0xbc5e5fd1	-0.013572649
251	0x3ecd0708	0.40044427
252	0x3df6d4e7	0.12052327
253	0x3c0436b1	0.00806968
254	0xbccbe3fb	-0.024888983
255	0x3a230e0e	0.0006220051

weight f4 [20]
0	0x3e16b36d	0.14716883
1	0x3ea7ce90	0.32774782
2	0x3e4d8a30	0.20072246
3	0x3e53a360	0.20667791
4	0x3e41741e	0.18891951
5	0x3ed82932	0.4221893
6	0x3e723024	0.23651177
7	0x3ebbfb35	0.36715093
8	0x3e8a2d79	0.26987818
9	0x3e9c49c1	0.3052502
10	0x3e467fab	0.19384639
11	0x3eba1fe8	0.36352468
12	0x3e99dc29	0.3005078
13	0x3e5a6726	0.2132841
14	0x3edb7771	0.42864564
15	0x3e93afcc	0.2884506
16	0x3e6a6074	0.22888356
17	0x3e311540	0.17293262
18	0x3e40f80a	0.1884462
19	0x3e9671d5	0.29383722

bias f4 [20]
0	0x3d18159b	0.03712998
1	0xbdedb309	-0.11606414
2	0x3e1c2009	0.15246595
3	0xbbcddde7	-0.0062825563
4	0x3d926560	0.07148242
5	0xbe579447	-0.21052657
6	0x3d8e3dba	0.06945367
7	0x3e5df38f	0.21674941
8	0xbe18889f	-0.14895867
9	0x3edefed5	0.43553796
10	0x3ed036e4	0.40666878
11	0xbdafa33b	-0.085760556
12	0x3e92afff	0.286499
13	0x3dbb4b9f	0.09145283
14	0xbdd20b2b	-0.10256036
15	0xbe0dd630	-0.13851237
16	0xbd605926	-0.05477252
17	0x3e9ed86e	0.31024498
18	0x3dc98000	0.09838867
19	0xbd808640	-0.06275606

running_mean f4 [20]
0	0xba8638b3	-0.0010240286
1	0xbea18d01	-0.3155289
2	0x3ae4e4ec	0.0017463244
3	0xbe0c74b6	-0.13716397
4	0x3dae8b35	0.085226454
5	0xbd965db4	-0.07342091
6	0xbceb5089	-0.028724926
7	0xbe2c1f23	-0.16808753
8	0x3ddcb2ae	0.10776268
9	0xbd9d4c9d	-0.076806284
10	0x3ed3fbab	0.41402945
11	0xbe695a99	-0.22788467
12	0xbebcbff4	-0.368652
13	0xbe202370	-0.15638518
14	0xbdbe320f	-0.09286892
15	0xbe0f2cd4	-0.13981944
16	0xbea0ad46	-0.31382197
17	0xbe482ef3	-0.1954916
18	0xbdba8723	-0.091078065
19	0x3e8682e1	0.26271728

running_var f4 [20]
0	0x3b349e00	0.0027559996
1	0x3c62989d	0.013830331
2	0x3c3f50ac	0.0116769485
3	0x3c0aa9e7	0.008463359
4	0x3baa76ee	0.005202166
5	0x3c9587ac	0.01825317
6	0x3cdb415e	0.026764568
7	0x3d0c0eac	0.03419368
8	0x3c349f4c	0.011024307
9	0x3d00f012	0.03147895
10	0x3cb212c6	0.021737467
11	0x3c5c12ed	0.013432247
12	0x3ca86c74	0.020559527
13	0x3c45b1c5	0.012066309
14	0x3c9a810f	0.018860368
15	0x3bb6a5ef	0.00557398
16	0x3c0a4e81	0.008441568
17	0x3c93a21e	0.01802164
18	0x3c1a1acf	0.009405806
19	0x3c4863b5	0.012230803

weight f4 [5, 20, 3, 3]
0	0xbcac5286	-0.021035444
1	0xbd58c34c	-0.052920625
2	0xbcee98ef	-0.029125659
3	0xbd2fa5bd	-0.04288267
4	0xbcc2ebd4	-0.023794092
5	0x3c9a80f2	0.018860314
6	0xbd40fa84	-0.04711391
7	0xbb018535	-0.0019763235
8	0xbb1ebfad	-0.0024223134
9	0xbd98b66c	-0.07456669
10	0xbd16e969	-0.03684369
11	0xbcba33bb	-0.022729745
12	0x3d1012fb	0.03517435
13	0xbc0f3c92	-0.008742468
14	0xbcf42e3d	-0.029807204
15	0xbd7832bc	-0.06059526
16	0x3cd4e05a	0.025985885
17	0x3d0d50bb	0.03450082
18	0xbe082603	-0.1329575
19	0xbe27c28d	-0.16382809
20	0xbd96fb11	-0.07372106
21	0xbc6dcfda	-0.014514888
22	0x3d211d01	0.0393343
23	0x3d75cdf3	0.06001086
24	0xbcb0d60e	-0.021586444
25	0x3dfc5b42	0.123220935
26	0x3cf82f93	0.030296123
27	0x3c4535d4	0.012036759
28	0x3e0974c0	0.13423443
29	0x3d37170a	0.044699706
30	0x3d7c1940	0.061547518
31	0x3d385031	0.04499835
32	0x3d4c0f6e	0.049819402
33	0xbca9302c	-0.020652853
34	0xbd3b35de	-0.04570567
35	0x3d5a2bbb	0.05326436
36	0xbd81a8c6	-0.06331019
37	0xbd8ab7dc	-0.0677335
38	0xbd378159	-0.04480109
39	0xbd909eb3	-0.070615195
40	0x3d398679	0.04529426
41	0x3de2ece5	0.1108034
42	0xbd17e548	-0.037083894
43	0x3d76614d	0.060151387
44	0x3ca2931b	0.019845536
45	0x3dc6e798	0.09712142
46	0x3d666144	0.056245103
47	0x3e15b07f	0.14618109
48	0xbdc0bbba	-0.09410806
49	0xbe3912b8	-0.18073547
50	0xbdb731ab	-0.0894502
51	0xbd4bc7e4	-0.049751177
52	0xbe09aa22	-0.13443807
53	0xbd538f69	-0.05165044
54	0x3bbf0a56	0.0058300896
55	0xbd8ef67e	-0.069806084
56	0x3d27dc86	0.040981792
57	0xbe0eabd3	-0.13932733
58	0xbe501798	-0.203215
59	0xbdc9da11	-0.09856046
60	0xbe04e5cc	-0.12978286
61	0xbdd9423a	-0.10608335
62	0xbd692f5e	-0.05692994
63	0x3d0b910d	0.034073878
64	0x3ea6dcef	0.32590434
65	0x3dac2f64	0.084074765
66	0x3d0322ec	0.032015726
67	0x3bed38af	0.007239423
68	0x3c6482d9	0.013947212
69	0x3ca79aed	0.020459617
70	0xbe3020f6	-0.17200074
71	0xbc87e51c	-0.01658874
72	0x3dd5d002	0.10440065
73	0x3dc60713	0.09669318
74	0x3e139dba	0.14415637
75	0xbd7f90e7	-0.06239405
76	0xbdcf9cf2	-0.10137357
77	0xbcb55ec1	-0.022139909
78	0xbdd2c3fb	-0.102912866
79	0xbe1bd042	-0.15216163
80	0xbdae644a	-0.08515222
81	0x3d05a437	0.03262731
82	0x3ea36736	0.3191468
83	0x3d46375a	0.04839263
84	0x3d0d144a	0.034443177
85	0xbd1a8a90	-0.0377298
86	0xbd6f0042	-0.058349855
87	0xbc8bdd0e	-0.01707318
88	0xbe734de6	-0.23760185
89	0xbd99fe82	-0.07519247
90	0xbdc3b42e	-0.09555851
91	0xbe076f91	-0.13226153
92	0xbde4e213	-0.11175933
93	0xbe33ab26	-0.17545757
94	0x3d208ccd	0.039196778
95	0x3e268869	0.16262974
96	0xbdb18bed	-0.08669267
97	0x3d6f802b	0.05847184
98	0xbc9dbd04	-0.019255169
99	0x3dae6a47	0.085163645
100	0x3e0387c2	0.12844756
101	0x3ddf33b9	0.10898537
102	0x3ccad938	0.024761781
103	0xbd66490a	-0.056222
104	0x3d577e5c	0.05261074
105	0xbd1ef702	-0.038809784
106	0xbdf1761b	-0.11790105
107	0xbcefbba9	-0.029264288
108	0x3ce3af70	0.027793616
109	0x3d81b960	0.063341856
110	0xbd4f3466	-0.05058708
111	0x3e26958d	0.16267987
112	0xbca5cb0a	-0.020238418
113	0xbe73349b	-0.23750536
114	0xbd3f405a	-0.04669223
115	0x3cb1cc33	0.021703815
116	0xbd09f1d6	-0.0336779
117	0xbdfc7b03	-0.1232815
118	0xbe36d9c2	-0.17856506
119	0xbdc4d7b0	-0.096114516
120	0xbcbbcbd5	-0.022924343
121	0xbbfe8f60	-0.0077685565
122	0x3c333cd7	0.010939798
123	0x3b9ea7b6	0.00484177
124	0x3dac498f	0.08412468
125	0x3d4c2530	0.049840152
126	0xbe124cf6	-0.14287171
127	0x3de2ab1d	0.110677935
128	0x3cd5c6d0	0.026095778
129	0x3d1d995e	0.03847634
130	0x3d7bf3fd	0.061511982
131	0x3e2820c1	0.16418745
132	0x3d025d07	0.031827
133	0xbd961890	-0.07328904
134	0x3dbdba9b	0.09264108
135	0xbd44911b	-0.047989946
136	0x3d5e23a5	0.054233212
137	0x3d47e969	0.04880658
138	0xbd2d0318	-0.04223928
139	0x3ca5a4d8	0.020220205
140	0x3d9968b0	0.07490671
141	0xbc325e1d	-0.010886696
142	0xbc8d5e5b	-0.017256906
143	0x3cf25725	0.02958257
144	0x3d1498c3	0.036278497
145	0xbc970e90	-0.018439561
146	0xbd53380d	-0.051567126
147	0x3db30860	0.08741832
148	0xbc8db746	-0.017299306
149	0xbd8082cf	-0.0627495
150	0x3be97879	0.007124957
151	0x3bc13e2f	0.0058973054
152	0x3cab96d1	0.020945938
153	0xbe09b1a6	-0.13446674
154	0xbe62e6cd	-0.22158356
155	0xbdde7960	-0.10862994
156	0x3d752e9f	0.059858914
157	0xbb502196	-0.00317583
158	0xbdb68ff9	-0.08914179
159	0x3cc8cf07	0.02451278
160	0x3e0eef09	0.13958372
161	0xbbb44301	-0.0055011516
162	0xbdcd93d6	-0.10037963
163	0xbe24dd45	-0.16100033
164	0xbdbdc64d	-0.092663385
165	0xbcbc1176	-0.022957545
166	0x3c52258a	0.012826333
167	0x3d27a8cb	0.040932458
168	0x3c50cb0c	0.012743723
169	0x3dd24743	0.10267498
170	0x3d1ad90b	0.037804645
171	0xbd5fad6c	-0.054608747
172	0xbd1ffcbc	-0.039059386
173	0x3b22fd36	0.0024870164
174	0xbda76331	-0.08173216
175	0x3d3b94ae	0.04579609
176	0x3e30c140	0.17261219
177	0xbd27529b	-0.040850263
178	0x3c80ccf7	0.015722735
179	0xbd12d604	-0.035848632
180	0xbb905f56	-0.004405896
181	0x3d3cfd9e	0.046140306
182	0x3c940f06	0.01807357
183	0x3d2eb6b5	0.04265471
184	0x3d4864ac	0.048924133
185	0x3d30f5bc	0.0432031
186	0xbcb4afa3	-0.022056406
187	0x3b97ea40	0.004636079
188	0x3d1ec928	0.038766056
189	0xbdeae7d8	-0.11470002
190	0xbd802637	-0.06257289
191	0x3d2d11bd	0.042253245
192	0xbe2b9e38	-0.16759574
193	0x3d0fefb6	0.035140716
194	0x3e5ced76	0.21574959
195	0xbdc730ab	-0.097260796
196	0xbdaa1c1f	-0.08306145
197	0xbcd07dbf	-0.025450585
198	0xbd141669	-0.036154184
199	0x3e5affa7	0.21386586
200	0x3d747908	0.059685737
201	0xbda1ee1f	-0.07906746
202	0xbbcb20f1	-0.0061989953
203	0xbca95d5f	-0.020674406
204	0xbde8972a	-0.11356957
205	0xbe666035	-0.22497638
206	0xbddae8a9	-0.10688908
207	0xbd48faad	-0.049067188
208	0xbddbcb8b	-0.10732182
209	0xbc0cbc73	-0.008589852
210	0xbcb4bc1c	-0.022062354
211	0x3cad7fee	0.021179166
212	0x3c115a35	0.008871605
213	0x398fd39b	0.00027432744
214	0x3e1aec72	0.15129259
215	0xbb378583	-0.0028003163
216	0xbc1a69b2	-0.009424614
217	0x3a09f664	0.00052628503
218	0x3cc83fe2	0.024444524
219	0x3ceb61b3	0.02873311
220	0xbd78eb32	-0.060771175
221	0xbdbf7cf5	-0.093500055
222	0xbdc23d72	-0.09484376
223	0xbd71cdda	-0.059034206
224	0x3ab918cc	0.001412177
225	0xbdcd344d	-0.10019741
226	0x3be436f1	0.0069645573
227	0xbdbe72e7	-0.0929926
228	0x3cd298a3	0.025707548
229	0x3e5dfbe8	0.21678126
230	0x3d720536	0.059087
231	0xbe25f5ae	-0.16207
232	0x3d316a77	0.043314423
233	0xbdefc8cf	-0.11708223
234	0xbbee0731	-0.007264041
235	0x3e3b315e	0.18280551
236	0x3bc42e91	0.0059869965
237	0xbd5d94e6	-0.05409708
238	0x3da11081	0.07864476
239	0x3d7710ad	0.060318638
240	0xbdcf7a7d	-0.10130785
241	0xbe166207	-0.14685832
242	0xbd19b7a9	-0.037528668
243	0xbda0884d	-0.07838497
244	0xbea7ad3e	-0.3274936
245	0xbd1a7ae1	-0.037714843
246	0xbc8f0d4c	-0.017462395
247	0xbd2cd446	-0.042194627
248	0x3b38ca26	0.0028196662
249	0xbaf6e52d	-0.001883661
250	0x3e806cff	0.25083157
251	0x3caf1e7f	0.021376846
252	0xbdc6cf8a	-0.09707554
253	0x3d3f68f2	0.046730943
254	0xbd531383	-0.05153228
255	0xbd9622aa	-0.073308304

weight f4 [29]
0	0x34b384a3	3.3437854e-07
1	0x3e4dcf52	0.20098618
2	0x3a319157	0.00067736715
3	0x368015a1	3.817215e-06
4	0x3e5e9327	0.21735822
5	0x3e8de50f	0.2771382
6	0x3e8b980a	0.27264434
7	0x3e9a20d7	0.3010318
8	0x3dad5f27	0.084654145
9	0x3d744073	0.059631776
10	0x3eb5f9e7	0.35542223
11	0x3e958c1f	0.29208466
12	0x3d3e3759	0.046439502
13	0x369a062c	4.590276e-06
14	0x3e0beb14	0.13663894
15	0x3b53db80	0.0032326877
16	0x3e215b2c	0.15757436
17	0x38ab79a8	8.176576e-05
18	0x3e81d090	0.25354433
19	0x3f184e94	0.594949
20	0x3e5a8dc1	0.21343137
21	0x3ebd4f70	0.36974669
22	0x3abbf5ea	0.0014340256
23	0x3e8f4f21	0.27990058
24	0x3b61f956	0.0034480891
25	0x3e85973a	0.2609194
26	0x3e8f9309	0.28041866
27	0x3a54a79b	0.00081121334
28	0x35baf0db	1.3928178e-06

bias f4 [29]
0	0xb65f958a	-3.3316633e-06
1	0x3f145781	0.5794602
2	0x3b94cc8f	0.004540987
3	0xb80f3438	-3.414249e-05
4	0x3e80a052	0.25122315
5	0xbe4ba739	-0.19888009
6	0x3de48ccd	0.11159668
7	0x3df4233d	0.11920784
8	0xbc1e0a2f	-0.009645983
9	0x3c4a41ab	0.012344758
10	0xbe7009de	-0.23441264
11	0x3d9c9ac4	0.07646707
12	0x3d53d06c	0.05171244
13	0xb7f7300f	-2.9467074e-05
14	0x3e13dc68	0.14439547
15	0xbca19b04	-0.019727238
16	0x3ea5727f	0.32313916
17	0xbac90fb9	-0.0015339769
18	0x3e38a598	0.18031919
19	0xbeb958aa	-0.36200458
20	0x3eba6f1c	0.36412895
21	0x3ec5fdfe	0.38670343
22	0xbaa1224e	-0.0012293549
23	0x3ed41b72	0.4142719
24	0xba84ab86	-0.0010121919
25	0xbc708940	-0.01468116
26	0x3f30e742	0.6910287
27	0x3a94d02a	0.0011353542
28	0xb6996205	-4.5711663e-06

running_mean f4 [29]
0	0xbeb7f17c	-0.35926425
1	0xbf0082e5	-0.5019973
2	0x3dfea5f5	0.124339975
3	0xbf13bbf4	-0.5770867
4	0xbe8638c7	-0.26215193
5	0x3c024b1d	0.007952479
6	0xbd0f1cdf	-0.034939643
7	0xbd0c3a68	-0.034235388
8	0x3cdc008c	0.02685573
9	0xbb90e7a6	-0.004422146
10	0x3d5512a1	0.05201972
11	0xbd94a9d1	-0.072589524
12	0xbc685ce9	-0.014182308
13	0xbb257d18	-0.0025251564
14	0x3b8a9010	0.0042285994
15	0xba3ff0a3	-0.00073219294
16	0x3ba03840	0.004889518
17	0x3d3b4bb8	0.045726508
18	0xbd8cf385	-0.06882385
19	0xbde3b60c	-0.11118707
20	0x3d791ae4	0.06081666
21	0x3b917ca7	0.0044399085
22	0x3c49c475	0.012314905
23	0xbcf8591f	-0.030315934
24	0xbc3d4a5c	-0.011553373
25	0x3c8f0363	0.01745767
26	0xbbd2e8e7	-0.0064364555
27	0xbcd980c6	-0.026550662
28	0x3dada4cc	0.08478698

running_var f4 [29]
0	0x3e9dde89	0.30833843
1	0x3eaae36f	0.33376643
2	0x3e371527	0.17879163
3	0x3ea0d9af	0.3141608
4	0x3e6708e7	0.2256199
5	0x4003138d	2.0480683
6	0x3fc2d5bc	1.5221477
7	0x409bda88	4.870426
8	0x3ec70fc9	0.3887923
9	0x3f4d87cb	0.8028533
10	0x404f6a6a	3.24087
11	0x408e4526	4.445941
12	0x3f9e61fb	1.2373651
13	0x409cd7ac	4.901327
14	0x3f070e27	0.5275597
15	0x408b420d	4.351813
16	0x3f33e1c6	0.7026638
17	0x3f9d8b48	1.230813
18	0x404c70bf	3.1943815
19	0x40e9d5cd	7.3073487
20	0x4135d923	11.365512
21	0x40a84ab8	5.259121
22	0x3f619348	0.8811536
23	0x3f21012e	0.62892425
24	0x3f378e2f	0.7170133
25	0x3f67aab2	0.90494835
26	0x3f040732	0.5157348
27	0x4026710c	2.6006498
28	0x40855eb2	4.1678095

weight f4 [20, 29, 1, 1]
0	0x3587d3a8	1.0119884e-06
1	0x3e5b4ab3	0.21415214
2	0xba9e2ed9	-0.0012068405
3	0x372278df	9.684095e-06
4	0xbdbeeb66	-0.093222424
5	0x3e833bd9	0.25631598
6	0xbdf56ef5	-0.11984054
7	0xbd1bf6e7	-0.03807726
8	0x3d845644	0.06461766
9	0xbc4b9399	-0.012425327
10	0x3e8001b7	0.25001308
11	0x3e62fc95	0.22166665
12	0x3d1562d5	0.036471207
13	0x36dc7496	6.5700833e-06
14	0x3c7b433b	0.015335853
15	0xbc175f46	-0.009239024
16	0xbe038dec	-0.12847108
17	0x3bb731c1	0.005590648
18	0xbcb81d30	-0.022474855
19	0x3d96b005	0.07357792
20	0xbd8d5d52	-0.06902565
21	0xba68b5d3	-0.00088771916
22	0xb89228c3	-6.969415e-05
23	0x3d65a985	0.05606987
24	0xbadf8bc2	-0.0017055201
25	0x3db5b38e	0.08872138
26	0x3d574064	0.052551642
27	0xbadcbfd0	-0.0016841833
28	0x340cb19f	1.3103134e-07
29	0x345eb67c	2.0741749e-07
30	0x3d0ce68f	0.034399565
31	0xb99c1c1c	-0.00029775582
32	0xb71d2575	-9.36665e-06
33	0xbdd770e1	-0.10519577
34	0xbc0cf9d5	-0.0086044865
35	0x3c24a9e2	0.010050269
36	0x3d6cbcf8	0.057797402
37	0xbbe15370	-0.0068764016
38	0xbb4da58c	-0.0031379191
39	0xbc663016	-0.0140495505
40	0x3d9fd565	0.07804374
41	0xbc9f5dc3	-0.019453889
42	0xb607193c	-2.0131256e-06
43	0x3cbf9bfd	0.02338981
44	0xbada6990	-0.001666354
45	0x3d2279f3	0.03966708
46	0xba656049	-0.00087500043
47	0xbc030d67	-0.007998801
48	0x3d3f7958	0.04674658
49	0xbc4fed8f	-0.012690916
50	0x3cd5161b	0.026011517
51	0x38d448df	0.00010122521
52	0x3d61c366	0.055117987
53	0xb9f40aca	-0.00046547345
54	0xbd61bee5	-0.05511369
55	0x3c9f1a59	0.019421743
56	0xb8c3e751	-9.3414106e-05
57	0x36019968	1.9311792e-06
58	0x351e303e	5.892979e-07
59	0xbd3169bc	-0.043313727
60	0xba384ab4	-0.00070301746
61	0x369f05ed	4.739259e-06
62	0xba09106e	-0.00052285835
63	0x3d65fafe	0.056147568
64	0xbe4e9c08	-0.20176709
65	0xbdeca6d4	-0.115552574
66	0x3d2f43d7	0.042789306
67	0x3d28ff5b	0.04125915
68	0x3d1aac4a	0.037761964
69	0xbe2db882	-0.16964915
70	0x3c8446c2	0.016147021
71	0x37818293	1.5438802e-05
72	0x3d84943c	0.06473586
73	0x3c0a95c4	0.0084585585
74	0x3d5924db	0.053013664
75	0x3a4e1341	0.00078611454
76	0x3cfa47bf	0.03055179
77	0xbe8094ea	-0.25113612
78	0xbe9a879a	-0.3018158
79	0x3ddd61ce	0.108096704
80	0xba71d303	-0.00092248636
81	0xbe936dd5	-0.28794733
82	0x3b379ac0	0.0028015822
83	0x3da5bd4b	0.080927454
84	0xbf016f7c	-0.50560737
85	0x3a7a667d	0.0009552015
86	0xb59a1865	-1.1480994e-06
87	0x357d8db4	9.445605e-07
88	0xbe59a959	-0.21256007
89	0x3a6da0f6	0.00090648176
90	0x37bab7ba	2.2258482e-05
91	0x3da7ebdc	0.081992835
92	0xbdd0741e	-0.101783976
93	0xbd9975d7	-0.07493179
94	0x3e2f5ac3	0.17124467
95	0x3cafedca	0.021475691
96	0x3c97c3c6	0.01852597
97	0x3d034880	0.032051563
98	0xbddb86a9	-0.10719044
99	0x3c5fc506	0.013657814
100	0x3715a9de	8.920642e-06
101	0xbd35ec52	-0.044414826
102	0xbaa6c4b6	-0.0012723419
103	0x3df93258	0.121678054
104	0x3b428256	0.0029679737
105	0x3e1958c1	0.14975263
106	0x3b9cd7c6	0.0047864644
107	0xbe43c257	-0.19117104
108	0x3e684ac9	0.22684778
109	0x38836be5	6.266664e-05
110	0x3cdc79de	0.02691358
111	0xb91e7765	-0.00015112532
112	0x3d60a113	0.054841112
113	0xbe1ee7dd	-0.15518136
114	0xb9253336	-0.00015754704
115	0x356e2a7f	8.872375e-07
116	0xb529c9cf	-6.3251076e-07
117	0xbd9fe684	-0.07807639
118	0xba07fddc	-0.00051876693
119	0xb7bd75ce	-2.2585413e-05
120	0x3d838570	0.064219356
121	0x3a3814ef	0.00070221623
122	0xbd262603	-0.040563595
123	0xbded16a9	-0.11576588
124	0x3a841ed3	0.0010079987
125	0x3b5712f4	0.0032817693
126	0x3dadd445	0.08487753
127	0xbd9a8ca8	-0.07546359
128	0xbc277415	-0.010220547
129	0xb73b5c3d	-1.11675445e-05
130	0xbd8cd60d	-0.068767644
131	0xbc13c561	-0.009019227
132	0xbcffbdd7	-0.031218452
133	0x3b06bc58	0.002055904
134	0x3d759e3f	0.05996537
135	0xbdcd4b16	-0.10024087
136	0x3da289ec	0.07936463
137	0x3e34b268	0.17646182
138	0xb9f8eab3	-0.0004747711
139	0xbe1238e7	-0.14279519
140	0xb94bd625	-0.00019439364
141	0x3d22a747	0.03971031
142	0xbe0e1d30	-0.13878322
143	0xbabf5de5	-0.0014600126
144	0xb6374c55	-2.7313556e-06
145	0x351a723b	5.75357e-07
146	0x3a9df3dd	0.0012050826
147	0xb948b313	-0.00019140197
148	0xb7720032	-1.44243695e-05
149	0x3d30f951	0.043206517
150	0xbcba562d	-0.02274617
151	0xbd7fde29	-0.062467728
152	0x3d8e8b7c	0.06960198
153	0xba3cfa19	-0.00072088983
154	0xbbeedb7f	-0.0072893496
155	0xba7ee007	-0.0009722714
156	0x3e0e4289	0.13892569
157	0x3d27c6e5	0.040961165
158	0xb61f2a65	-2.3717523e-06
159	0x3d747650	0.059683144
160	0x3bd76e47	0.0065744254
161	0x3e9b78a9	0.30365494
162	0xbb3b4623	-0.002857574
163	0xbe32dd1a	-0.17467156
164	0x3dd75cb4	0.105157286
165	0xbe02bb3b	-0.12766735
166	0xbe228050	-0.1586926
167	0x391a87ab	0.00014737125
168	0x3dbc5e77	0.09197705
169	0x39e86ccf	0.00044331557
170	0x3d65d84d	0.056114484
171	0x3dbb603c	0.091492146
172	0x3a7c4f1a	0.0009624824
173	0x35736b41	9.068063e-07
174	0x354ac1f2	7.553309e-07
175	0xbd7f5fca	-0.06234721
176	0xbafc9e3a	-0.0019273229
177	0xb7ee460b	-2.8404427e-05
178	0xbe5667dc	-0.20938057
179	0x3c87c029	0.016571121
180	0xbd3cd50d	-0.04610162
181	0x3d92a409	0.071601935
182	0x3c978ed8	0.01850073
183	0xbbd3a8dd	-0.006459339
184	0x3d7f4f67	0.062331583
185	0x3cc40425	0.023927758
186	0x3ba16fce	0.0049266582
187	0x36050cfe	1.9826107e-06
188	0xbdae29be	-0.085040554
189	0x3b0e5727	0.0021719427
190	0x3c9f1bd6	0.019422453
191	0x3b0f9227	0.0021907182
192	0xbe2ba18d	-0.16760845
193	0x3e15c3a5	0.14625414
194	0xbe64a061	-0.22326805
195	0x3d7c584f	0.061607655
196	0x39167b42	0.00014351032
197	0xbda9d7ff	-0.08293151
198	0x3a2f5d1b	0.0006689594
199	0x3c265920	0.010153085
200	0xbe185bce	-0.1487877
201	0xb91eae72	-0.0001513304
202	0x356a6089	8.731227e-07
203	0x3611c1fa	2.1719593e-06
204	0x3cb0cf17	0.021583123
205	0xba358130	-0.00069238525
206	0xb544c538	-7.330268e-07
207	0xbe0029b9	-0.12515916
208	0xbc87d379	-0.01658033
209	0xbd9fc9ac	-0.07802138
210	0xbe836d4c	-0.25669324
211	0xbb91ae2b	-0.0044458113
212	0x3c437692	0.011930125
213	0x3e2f0b3e	0.17094132
214	0x3da80c2c	0.082054466
215	0xbd81b461	-0.06333233
216	0xb72c0e83	-1.0255378e-05
217	0xbdda43ad	-0.106574394
218	0xbb4cb03e	-0.0031232978
219	0xbd92d50f	-0.07169544
220	0xbb079c55	-0.0020692546
221	0x3dabf2ce	0.08395921
222	0xbde37ad4	-0.11107412
223	0x3d30c496	0.04315623
224	0x3df59e30	0.119930625
225	0xb9e7731c	-0.00044145517
226	0xbea042e4	-0.31301033
227	0x3a10a3db	0.00055175804
228	0x3d96672d	0.07343898
229	0xbeb7be3f	-0.35887334
230	0xbaa5d257	-0.0012651187
231	0xb58e3285	-1.0594528e-06
232	0x355f6c92	8.3231964e-07
233	0x3e09ab75	0.13444312
234	0x3ab301c4	0.0013657142
235	0xb57a285b	-9.319098e-07
236	0x3dac0fc8	0.084014475
237	0x3d0a2ee5	0.03373613
238	0x3c9ee492	0.0193961
239	0xbdfcf061	-0.12350536
240	0xbcba88fb	-0.022770396
241	0x3a8a6bf2	0.0010560735
242	0x3b2bf29f	0.0026237143
243	0x3d8d022d	0.068851806
244	0x3ce72f51	0.028220804
245	0xb6ce560d	-6.149296e-06
246	0x3dd4ba30	0.10387075
247	0x3bd4894f	0.006486095
248	0xbd0ac3fa	-0.033878304
249	0x3b9391ab	0.004503449
250	0xbcf2b316	-0.02962641
251	0x3ea27c8a	0.3173564
252	0xbc1bfed7	-0.009521208
253	0x3c9aae77	0.01888202
254	0xba086f6a	-0.000520459
255	0xbd28de16	-0.041227423

weight f4 [20]
0	0x3eb5a80b	0.3547977
1	0x3e38a4d4	0.18031627
2	0x3edb48a6	0.42828864
3	0x3e8ffee4	0.28124154
4	0x3e0fbe63	0.1403747
5	0x3e3bcf7c	0.18340868
6	0x3ea6992c	0.32538736
7	0x3e91f82d	0.28509656
8	0x3e8dbe1a	0.27684098
9	0x3e91e030	0.28491354
10	0x3e89ce8f	0.26915404
11	0x3e494ed0	0.19658971
12	0x3e58c5a2	0.21169141
13	0x3e3f98ca	0.18710628
14	0x3e954fb4	0.2916237
15	0x3e91017a	0.2832144
16	0x3ec1f6eb	0.37883696
17	0x3e82d9a5	0.25556675
18	0x3e459a3f	0.19297121
19	0x3e980c76	0.29697007

bias f4 [20]
0	0xbeb339f6	-0.35005158
1	0xbd1286e7	-0.035773184
2	0x3f087068	0.5329652
3	0x3e16f17c	0.14740556
4	0x3e6c6472	0.23085192
5	0x3e68a679	0.22719754
6	0xbdd5f234	-0.10446587
7	0x3f024c25	0.5089744
8	0xbe917526	-0.2840969
9	0x3e921b33	0.28536376
10	0xbe04a8ca	-0.12955013
11	0xbdb829d8	-0.08992356
12	0xbdf40523	-0.11915042
13	0xbd687d94	-0.056760386
14	0x3d6c6edf	0.057722922
15	0x3d93ac9b	0.07210656
16	0xbeaec144	-0.34131825
17	0xbdb90cf7	-0.09035676
18	0x3dc8f0c8	0.098115504
19	0xbe418db3	-0.1890171

running_mean f4 [20]
0	0x3e0dd35a	0.13850155
1	0x3d927630	0.07151449
2	0xbf207e84	-0.6269305
3	0xbdd5ffa6	-0.10449152
4	0xbe07984f	-0.13241695
5	0x3ded43ba	0.115851834
6	0xbe9a8ffd	-0.3018798
7	0xbecf3868	-0.40472722
8	0x3e003a8a	0.12522331
9	0xbd1a0f8a	-0.037612475
10	0xbcc8deef	-0.024520366
11	0x3e448b72	0.19193819
12	0xbda83ff7	-0.08215325
13	0x3ccf9b83	0.025342708
14	0x3e33fac5	0.1757613
15	0xbe997ade	-0.29976553
16	0x3e091627	0.13387357
17	0x3decf549	0.11570222
18	0x3ce472fc	0.02788686
19	0x3e850c3e	0.25985903

running_var f4 [20]
0	0x3c321420	0.010869056
1	0x3b08e581	0.0020888748
2	0x3d4f0e8f	0.050550994
3	0x3ca3f2b4	0.02001319
4	0x3c5d0d91	0.013492004
5	0x3c31b9c0	0.010847509
6	0x3c05dc4d	0.0081702
7	0x3d1c41e4	0.038148776
8	0x3bb4404d	0.0055008293
9	0x3d095227	0.033525612
10	0x3c13fa92	0.009031909
11	0x3b8cd60d	0.004297978
12	0x3b25c337	0.002529336
13	0x3b6a9678	0.0035795253
14	0x3cd40713	0.02588228
15	0x3ca64fcf	0.020301728
16	0x3c64cb7b	0.013964529
17	0x3bb998e6	0.005663979
18	0x3c8b81ac	0.017029606
19	0x3c18cdc5	0.009326403

weight f4 [5, 20, 3, 3]
0	0xbd0ebb1d	-0.034846414
1	0xb7f84ddf	-2.9600165e-05
2	0xbd57c9c1	-0.052682642
3	0x3d7c712e	0.061631374
4	0xbd13c14f	-0.036073025
5	0xbe1aa9d6	-0.1510385
6	0x3d860da8	0.065455735
7	0x3d4335ac	0.047658607
8	0xbda58e6c	-0.080838054
9	0x3bcb9bb2	0.0062136287
10	0x3c56e789	0.013116726
11	0x3d313052	0.043258972
12	0x3cbc5761	0.022990884
13	0x3a8c3cd7	0.0010699284
14	0x3b82a27f	0.003986656
15	0x3c6138ef	0.013746484
16	0xbcff9c3c	-0.031202428
17	0xbcdb6860	-0.026783168
18	0xbcbdff3c	-0.023192994
19	0xbda2611d	-0.07928679
20	0x3d05dd7e	0.032681935
21	0xbdda3e67	-0.106564336
22	0xbdb297c4	-0.08720353
23	0x3e2c925c	0.16852707
24	0xbc9b9067	-0.018989755
25	0xbe152923	-0.14566474
26	0x3dfa59c8	0.12224156
27	0xbcffcb02	-0.031224731
28	0xbd545a61	-0.051844005
29	0xbd018bae	-0.03162735
30	0xbe89593a	-0.26825887
31	0xbdfc8cf2	-0.12331571
32	0x3e33c375	0.1755503
33	0xbe264a6d	-0.16239329
34	0xbcb7da08	-0.022442833
35	0x3e1a9765	0.15096815
36	0xbd53539f	-0.05159342
37	0xbd687f9f	-0.056762334
38	0xbb87ea44	-0.0041477997
39	0xbe18ce06	-0.14922342
40	0xbb80a2e7	-0.0039256695
41	0x3e40d570	0.1883142
42	0xbde791a6	-0.11307077
43	0xbd10988c	-0.03530173
44	0x3df21280	0.11819935
45	0x3d835b70	0.06413925
46	0xbcf4a301	-0.029862883
47	0xbda190ff	-0.07888984
48	0x3d819264	0.0632675
49	0xbde6171e	-0.11234878
50	0xbe2228c0	-0.15835857
51	0x3d28cff0	0.04121393
52	0xbddf34b3	-0.108987235
53	0xbe20df3d	-0.15710159
54	0x3cef5c1f	0.029218731
55	0x3d091c66	0.03347435
56	0x3dbd0ff1	0.09231556
57	0xbcec580e	-0.028850581
58	0xbcb9a2a4	-0.02266056
59	0x3d808253	0.06274857
60	0x3cd51852	0.026012573
61	0xbcb735dd	-0.022364551
62	0x3d6bc200	0.05755806
63	0x3d565cf3	0.052334737
64	0xbccd90f6	-0.025093537
65	0xbc85df10	-0.016341716
66	0x3da10d80	0.07863903
67	0x3cee4294	0.029084481
68	0x3cf7bfee	0.030242886
69	0x3d8d0130	0.06884992
70	0xbd7ba4c6	-0.061436437
71	0x3aed9fa2	0.0018129239
72	0xbce59ac8	-0.028027907
73	0xbca616e3	-0.020274585
74	0xbd4ca1a5	-0.049958844
75	0x3cd6e7f2	0.026233647
76	0xbcaf4bef	-0.021398513
77	0xbcd93ada	-0.02651732
78	0x3cb28ffb	0.02179717
79	0x3ca3ea7b	0.02000927
80	0x3d3e61a1	0.046479825
81	0xbd4d0a82	-0.05005885
82	0xbbe30694	-0.0069282744
83	0x3e03afc3	0.12860017
84	0xbec3ba85	-0.3822824
85	0x3d25c05e	0.04046666
86	0x3edf78e8	0.43646932
87	0xbe1f9162	-0.15582803
88	0x3d2d699b	0.04233704
89	0x3e842daa	0.2581609
90	0x3da94e47	0.08266883
91	0xbd121faa	-0.03567473
92	0xbe03614c	-0.12830085
93	0x3b708c48	0.0036704708
94	0x3af99577	0.0019041736
95	0x3d1f5173	0.038896035
96	0xbd1b240f	-0.037876185
97	0xbca9c649	-0.020724433
98	0xbcaa53c1	-0.02079189
99	0x3d184a28	0.037180096
100	0xbd4983ed	-0.04919808
101	0xbddbe3c1	-0.107368
102	0x3d2a326e	0.041552
103	0xbc826b5a	-0.01592033
104	0xbd8134f7	-0.0630893
105	0x3d0e9372	0.034808584
106	0xbceadf48	-0.028670922
107	0xbd81c4e5	-0.06336383
108	0x3a9e6164	0.0012083468
109	0xbc8ac44a	-0.016939301
110	0x3c6015de	0.013677089
111	0xbd92518c	-0.0714446
112	0x3bd97191	0.0066358526
113	0x3dca2fbb	0.09872385
114	0xbd475f50	-0.04867488
115	0x3baecd5e	0.0053345403
116	0x3d43053f	0.047612425
117	0xbd3f5613	-0.046712946
118	0xbd26fbeb	-0.04076759
119	0x3a2ba738	0.000654805
120	0xbd8ec60a	-0.06971367
121	0xbd4b4fd5	-0.04963668
122	0x3cb36881	0.021900417
123	0xbd31fe0b	-0.043455165
124	0xbd2db65c	-0.04241024
125	0x3c5c9b52	0.013464766
126	0xbdbb2129	-0.09137184
127	0xbd9543d4	-0.07288328
128	0x3ddbf8ac	0.1074079
129	0xbe210594	-0.15724784
130	0xbd7f75be	-0.062368147
131	0x3e8f26e1	0.2795935
132	0xbe1141a6	-0.14185199
133	0xbd3e2ea2	-0.04643119
134	0x3e0d572d	0.13802786
135	0x3e4c0925	0.19925363
136	0x3d82c6e8	0.063855946
137	0xbdde43ce	-0.108527765
138	0x3eaf84ef	0.34281108
139	0x3da8a90b	0.082353674
140	0xbe66b48b	-0.22529809
141	0x3e83dc9b	0.25754246
142	0x3c2863d9	0.010277712
143	0xbe0033b4	-0.12519723
144	0xbbba2e0d	-0.005681759
145	0xbc91835c	-0.017762832
146	0xbd478bc8	-0.04871729
147	0x3dd8725d	0.10568688
148	0x3c055ce4	0.008139823
149	0xbc8f3721	-0.017482342
150	0x3ce1bd71	0.027556153
151	0x3be2a6f9	0.0069168773
152	0x3d9b0ebe	0.07571171
153	0xbc5fbb09	-0.0136554325
154	0x3ce620a9	0.028091745
155	0xbc8d722a	-0.017266352
156	0xbb896cf3	-0.004193896
157	0x3c0726ad	0.008248967
158	0xbd271edf	-0.040800925
159	0x3b7c4522	0.0038493355
160	0xbd0c17d4	-0.03420241
161	0x3baf9eee	0.005359522
162	0x3df4d8da	0.11955424
163	0x3b700c76	0.003662852
164	0xbe188301	-0.14893724
165	0x3eaee343	0.34157762
166	0xbcc01c0d	-0.023450876
167	0xbecbb361	-0.39785293
168	0x3e0ede89	0.13952078
169	0xbdb6733e	-0.089086995
170	0xbeb77f46	-0.3583929
171	0xbc5dc1f5	-0.0135350125
172	0xbcd15a45	-0.02555574
173	0xbd495ed9	-0.04916272
174	0xbcb6ec93	-0.022329604
175	0xbca2c509	-0.019869344
176	0x3d54e060	0.051971793
177	0xbd46a5e5	-0.048498053
178	0xbd4960ae	-0.049164467
179	0x3d53e0ed	0.051728178
180	0x3d8569ac	0.06514296
181	0x3d871876	0.065964624
182	0x3cbf6a1f	0.023366032
183	0xbd51874f	-0.05115443
184	0xbc8f3ff5	-0.017486552
185	0x3df78a11	0.12086881
186	0xbdf76a3f	-0.12080812
187	0xbe4cbe8a	-0.1999456
188	0xbce7a333	-0.028276062
189	0xbca44565	-0.020052621
190	0xbd3e9dac	-0.046537086
191	0xbcbb5d3d	-0.022871608
192	0x3dd12cdc	0.10213634
193	0xbc3af096	-0.011409899
194	0xbdc4791f	-0.095934145
195	0x3c8c9337	0.017160041
196	0x3c8341e8	0.016022637
197	0xbdadb27e	-0.0848131
198	0x3d780ba4	0.060557976
199	0x3e4c3d35	0.19945224
200	0xbb2bd79c	-0.0026221042
201	0xbec9c814	-0.3941046
202	0xbd84a60b	-0.06476983
203	0x3e8d8231	0.2763839
204	0x3de01e3c	0.10943267
205	0xbe8f7505	-0.28018966
206	0xbd019ea9	-0.03164545
207	0xbdf4d5a7	-0.119548135
208	0x3ccdbe79	0.025115239
209	0x3d013b1c	0.03155051
210	0xbe134ca7	-0.1438471
211	0xbdcef281	-0.10104848
212	0x3dc6d17e	0.09707926
213	0x3e0ab46d	0.1354539
214	0xbdc44841	-0.09584094
215	0xbc450d1c	-0.012027051
216	0x3d96655f	0.07343554
217	0x3db6a7c6	0.08918719
218	0xbd939b53	-0.0720736
219	0xbdb9f018	-0.090789974
220	0x3d1b6cb5	0.037945468
221	0x3c4143a0	0.011795908
222	0xbc88e5c2	-0.01671112
223	0xbcd9966f	-0.02656099
224	0x3da54148	0.08069092
225	0xbe209b2b	-0.15684192
226	0xbdee60dd	-0.11639569
227	0x3c9ea660	0.019366443
228	0x3e25432a	0.16138902
229	0x3d0e1ccf	0.034695443
230	0xbd1b91ea	-0.03798095
231	0x3d30f4a2	0.04320205
232	0x3d91c27b	0.07117172
233	0xbdafe145	-0.08587889
234	0xbd62eb1a	-0.05539999
235	0x3dd30adc	0.10304806
236	0x3cf4e776	0.029895525
237	0xbd80115b	-0.0625331
238	0x3d1d17dd	0.038352836
239	0x3de35924	0.111009866
240	0x3dc7fc7e	0.09764956
241	0xbd39e50b	-0.045384448
242	0xbd4819d5	-0.04885276
243	0x3e8798ea	0.26483852
244	0x3e3c45ee	0.18386051
245	0xbe6e2e7b	-0.23259918
246	0xbe3f41d5	-0.18677457
247	0x3dcc48b2	0.09974803
248	0x3def8a97	0.11696356
249	0xbd98f1dd	-0.07468007
250	0xbe46a8f9	-0.19400395
251	0x3dcdc253	0.1004683
252	0x3cb85dac	0.022505604
253	0xbc92f12a	-0.017937262
254	0xbdf7e202	-0.121036544
255	0x3d23375e	0.039847724

weight f4 [34]
0	0xb5c292e5	-1.4496878e-06
1	0x3499e048	2.8661657e-07
2	0xbb02d1b0	-0.001996141
3	0x3e738243	0.2378016
4	0x3ea70dcd	0.32627717
5	0x371be0e0	9.291078e-06
6	0x377261a7	1.44470605e-05
7	0x39c336e8	0.00037234207
8	0x3d6ee85e	0.05832707
9	0x33ba71b8	8.681985e-08
10	0x380234ca	3.104358e-05
11	0x3e2dac26	0.169602
12	0x3eb96fb2	0.3621803
13	0x3ae0c28a	0.0017147821
14	0x3e01eec2	0.12688735
15	0x39a7956f	0.0003196406
16	0x39da8316	0.00041677867
17	0x3e84d287	0.2594187
18	0x3e2d5a1b	0.16928904
19	0x3e8b0a42	0.27156264
20	0x3e37b19c	0.17938846
21	0x34e719fb	4.3046006e-07
22	0x34e3773a	4.2368794e-07
23	0x3860a05e	5.3555115e-05
24	0x3cc4e0e5	0.02403302
25	0x3e6f3470	0.23359847
26	0x393c3c18	0.00017951464
27	0x3e50eaba	0.20402041
28	0x3ddfb69d	0.109235026
29	0x3dc10ed2	0.09426655
30	0xbbf4fbab	-0.00747629
31	0x3e5fbbea	0.21849027
32	0x3e6c0b1f	0.23051117
33	0x388622e8	6.39612e-05

bias f4 [34]
0	0xb793db75	-1.7625958e-05
1	0xb6115274	-2.1654678e-06
2	0x3ab731fc	0.0013976688
3	0x3f318339	0.69340855
4	0x3d696df7	0.056989636
5	0xb87c9234	-6.0217644e-05
6	0xb91df666	-0.00015064477
7	0xbb3bcca5	-0.0028655913
8	0x3c7556e5	0.014974331
9	0xb59e0b47	-1.17752e-06
10	0xb9be91df	-0.00036348306
11	0x3e2258f5	0.15854247
12	0xbdb7b9a9	-0.08970959
13	0xbc7ff649	-0.015622684
14	0x3c076f65	0.008266305
15	0xbacc8038	-0.0015602177
16	0x3988d40b	0.00026097926
17	0x3e95bd74	0.29246104
18	0x3e8cd054	0.27502692
19	0x3f430749	0.7618299
20	0xbe1b1c66	-0.15147552
21	0xb70a91e0	-8.259405e-06
22	0xb6f9fb5e	-7.4500413e-06
23	0xba548a8c	-0.00081078033
24	0xbd58c975	-0.0529265
25	0xbdd4783e	-0.10374497
26	0xbab15cc9	-0.001353168
27	0xbe419596	-0.18904719
28	0x3d8063a1	0.06269003
29	0x3e1102de	0.1416125
30	0xbd473f38	-0.048644274
31	0x3ec7c5bf	0.39018056
32	0x3e57ef04	0.21087271
33	0xb96c6b5b	-0.00022546707

running_mean f4 [34]
0	0xbdedfe86	-0.11620812
1	0xbe1cd71f	-0.15316437
2	0xbf90d4e4	-1.1314969
3	0xbecc92cf	-0.39955756
4	0x3e927b68	0.28609776
5	0xbeb7f17c	-0.35926425
6	0xbf0082e5	-0.5019973
7	0x3dfea5f5	0.124339975
8	0xbf13bbf4	-0.5770867
9	0xbe8638c7	-0.26215193
10	0x3c024b1d	0.007952479
11	0xbd0f1cdf	-0.034939643
12	0xbd0c3a68	-0.034235388
13	0x3cdc008c	0.02685573
14	0xbb90e7a6	-0.004422146
15	0x3d5512a1	0.05201972
16	0xbd94a9d1	-0.072589524
17	0xbc685ce9	-0.014182308
18	0xbb257d18	-0.0025251564
19	0x3b8a9010	0.0042285994
20	0xba3ff0a3	-0.00073219294
21	0x3ba03840	0.004889518
22	0x3d3b4bb8	0.045726508
23	0xbd8cf385	-0.06882385
24	0xbde3b60c	-0.11118707
25	0x3d791ae4	0.06081666
26	0x3b917ca7	0.0044399085
27	0x3c49c475	0.012314905
28	0xbcf8591f	-0.030315934
29	0xbc3d4a5c	-0.011553373
30	0x3c8f0363	0.01745767
31	0xbbd2e8e7	-0.0064364555
32	0xbcd980c6	-0.026550662
33	0x3dada4cc	0.08478698

running_var f4 [34]
0	0x3e120f8f	0.14263748
1	0x3e3f3524	0.18672615
2	0x3e850669	0.25981453
3	0x3ec1e13a	0.37867147
4	0x3e9cfeae	0.30663055
5	0x3e9dde89	0.30833843
6	0x3eaae36f	0.33376643
7	0x3e371527	0.17879163
8	0x3ea0d9af	0.3141608
9	0x3e6708e7	0.2256199
10	0x4003138d	2.0480683
11	0x3fc2d5bc	1.5221477
12	0x409bda88	4.870426
13	0x3ec70fc9	0.3887923
14	0x3f4d87cb	0.8028533
15	0x404f6a6a	3.24087
16	0x408e4526	4.445941
17	0x3f9e61fb	1.2373651
18	0x409cd7ac	4.901327
19	0x3f070e27	0.5275597
20	0x408b420d	4.351813
21	0x3f33e1c6	0.7026638
22	0x3f9d8b48	1.230813
23	0x404c70bf	3.1943815
24	0x40e9d5cd	7.3073487
25	0x4135d923	11.365512
26	0x40a84ab8	5.259121
27	0x3f619348	0.8811536
28	0x3f21012e	0.62892425
29	0x3f378e2f	0.7170133
30	0x3f67aab2	0.90494835
31	0x3f040732	0.5157348
32	0x4026710c	2.6006498
33	0x40855eb2	4.1678095
