checkpoint/FinetuneDensenet100-6-2.0_3.pth (torch_old, 689970 bytes, 498 tensors)

weight f4 [12, 3, 3, 3]
00000000: 6a33 0b3e 4383 29be ae29 3a3e cbe0 20be
00000010: 72d1 26bf 8c9a 09be f28c c33d 8c7c 90bd
00000020: e29e ba3d 9601 043e 3fb7 bebe 4a97 283e
00000030: 29ff 2ebe c65c 5cbf 3d51 1cbe 6497 543e
00000040: a535 0abe 3a59 723e 81f1 eb3d acaf 36be
00000050: c9bf 9e3d cd00 a8bd b6b6 08bf 4082 0dbe
00000060: 7695 013e 5071 fdbd a26e cb3d e8d4 24bf
00000070: 2db1 d2bf b170 58bf 7b66 893e baf9 9e3d
00000080: 2d03 d43d 5cbd 383f 0529 d03f 41a6 0e3f
00000090: a142 813e 85d3 aa3e 1e4b fb3e 370a 12be
000000a0: bd18 34be dc05 443e 18e5 febe 26eb 61be
000000b0: c2e1 63be 27e9 013f 4b15 9b3f cf70 cb3e
000000c0: 2b9d e53d 080a dcbc 380b 20be 0249 14bf
000000d0: 3133 6dbf 9e29 20bf 6150 813f 05dd 28bc
000000e0: 641f 71bf 2535 b73f 2610 15be 4e04 95bf
000000f0: c065 ea3e 89bd e5bd 2292 02bf 8d19 09bf
00000100: e2c0 e8bc f08d 833e 12ce 84be fb4d 3fbe
00000110: 2ec3 893e f441 dfbb f45b 943e 7657 323e
00000120: c6a0 c8be b90b 503e d90b 223f a2d3 66bf
00000130: 1508 ecbd b2d7 503f e8ad c5be 25fd e2bb
00000140: 23ea 953e 4b68 c53d 379f 90be 0df5 ebbc
00000150: 5f3e 98be a686 15bf ec1c b4be c96a 74be
00000160: e6a0 e7be 03e4 ffbd dd9b 8c3d b464 b13e
00000170: 3e45 7a3d e07e 393f 3ef0 9f3f a94b 2d3f
00000180: 7d76 0c3f 76c7 8b3f 0000 223f d570 97bd
00000190: 280a bcbe 3f6e 123e b4c6 0abf 9a0c 83bf
000001a0: 5cdc 02bf da7d 90be 7f4f 35bf d786 9ebe
000001b0: 5c35 f23d 8948 763f 0c8e 403d bb53 e5bd
000001c0: 89e6 2fbf 9788 30be e621 1f3e 97b6 9cbe
000001d0: 5dff 3e3e b6b6 b53e 722a 933f 3ef6 5f3e
000001e0: b90a 8dbe 396e 8fbf f1de febe bbc8 193e
000001f0: 9b9a d7be f722 a83d 8f49 333d a254 403f
00000200: 9a39 293e d631 84be 41ff fbbe f576 2dbe
00000210: db37 d63d 75ca 2bbd 580e e23d e4d1 453e
00000220: 238f d1bb b9a0 adbe 0917 153f 6e9e a33d
00000230: 043b 2bbf cef4 1c3e c094 323e 17d9 afbd
00000240: b2ee bc3e d245 62bd 4bd1 1abf f103 553f
00000250: 10bb 023e 34e8 5fbf ed12 363e 6085 093e
00000260: 2f7c 44be 78d9 613e eef6 cebc 95a6 9fbe
00000270: a04e 153f e1f7 5e3d 0260 30bf 6da3 0e3e
00000280: 2757 003e 077f b7bd 74fc a23e 95dc 9abe
00000290: 728f 58be f850 2bbf d6b5 613f 9dd7 86be
000002a0: 2567 f23d ba73 cfbd eb29 20bc 247c 173e
000002b0: a083 ad3d 8bd6 a9bd 1fdc 90bf 99a2 b73f
000002c0: 4392 c63c c92e 8d3e f6ff 81be dc79 e3bd
000002d0: ac0d 4c3d e0ed 78bd 8181 8b3d 6241 21bf
000002e0: 6f05 083f 02a2 1dbe aedd 263c 391e 3a3d
000002f0: c877 f4bd c45e 1a3e 5f0d 8b3e d11e ee3d
00000300: e568 8c3e df26 ca3e 57c0 7f3e 07a1 9e3c
00000310: 66f9 2e3d c991 fe3c f360 20be bf43 aebd
00000320: a329 3abe 091f 4b3d f511 083e 218e 1d3d
00000330: d255 c43d 3d25 c83d 8bcb cc3d dd6c 4e3e
00000340: f92a 813e d1ce 553e 55e7 b0bb 75f1 2abd
00000350: adb5 233c ca68 d6bd db9e 77be 38b7 b5bd
00000360: f18d 243e e535 e03e ab77 473e 752e cd3e
00000370: 76e7 383f 13b1 e13e 3e82 263e 7d66 af3e
00000380: 0c79 223e d849 8bbe 1041 44bf 5305 7abe
00000390: 9a2a 2dbf 09b0 a4bf 701e 33bf 7969 95bd
000003a0: 2159 04bf ce6e 1cbe d68b 693d a45e 8e3e
000003b0: 32da 093e 799b 223d 0a13 7a3e 36c9 0e3e
000003c0: d546 a2bb eaa9 673e 74ba 043e 4f7d eabe
000003d0: efee 38bf 037f d2be cffb d1bd 665c 30be
000003e0: f75d b4bc 8500 f43e 68e9 5e3f fd57 e53e
000003f0: fb95 debe c0ec 48bf 86f0 e5be d9a2 5abd
0.13593832 -0.16553979 0.18179962 -0.15710752 -0.6516334 -0.13437861 0.095483676 -0.070550054
0.09112336 0.1289123 -0.3724918 0.16463962 -0.17089523 -0.8607906 -0.15265365 0.20760876
-0.13497026 0.2366685 0.115206726 -0.17840451 0.07751424 -0.08203278 -0.53403795 -0.13819218
0.12654671 -0.12375128 0.09933211 -0.6438737 -1.646032 -0.84546953 0.26836 0.07762475
0.10352168 0.7216394 1.6262518 0.55722433 0.25246146 0.33364502 0.49080747 -0.14261709
-0.17587562 0.1914286 -0.4978416 -0.22062358 -0.22254089 0.5074639 1.2115873 0.39734504
0.11211618 -0.026860252 -0.1562928 -0.579239 -0.92656237 -0.625635 1.0102655 -0.010306601
-0.94188523 1.4313093 -0.14556941 -1.1641939 0.45780754 -0.112177916 -0.5100423 -0.5355461
-0.028412286 0.25694227 -0.2593847 -0.18682091 0.26906723 -0.006813282 0.28976405 0.17416176
-0.3918516 0.20316972 0.6329933 -0.90166676 -0.11524979 0.81579125 -0.38609242 -0.00692715
0.29280195 0.09639033 -0.2824647 -0.028803373 -0.29735085 -0.5840858 -0.35178316 -0.2386886
-0.45239943 -0.12494662 0.06865666 0.34647143 0.06110119 0.7245922 1.2495191 0.67693573
0.548683 1.0920246 0.6328125 -0.07394568 -0.367265 0.14299868 -0.54209447 -1.0238221
-0.5111749 -0.28221017 -0.70824426 -0.3096225 0.11826584 0.9620443 0.047010466 -0.11197611
-0.68711144 -0.17239605 0.15540275 -0.30608055 0.18652101 0.3549096 1.1497328 0.21871278
-0.27547243 -1.1205512 -0.49779466 0.15017979 -0.42110142 0.08209794 0.043771323 0.7512914
0.1652588 -0.25819272 -0.4921818 -0.1693991 0.10459872 -0.041941125 0.11037892 0.19318348
-0.006395237 -0.33911684 0.58238274 0.079892024 -0.66886926 0.1532776 0.17439556 -0.085863285
0.3690086 -0.055242367 -0.60475606 0.8320914 0.12766671 -0.8746369 0.17780657 0.13429785
-0.19187997 0.22055614 -0.02526423 -0.3118178 0.583231 0.054435614 -0.68896496 0.1392953
0.12533246 -0.089597754 0.3183323 -0.30246416 -0.2114847 -0.66920424 0.88168085 -0.26336375
0.118360795 -0.10129495 -0.009775619 0.1479345 0.08472371 -0.08292874 -1.1317176 1.4346496
0.024239665 0.27574757 -0.25390595 -0.11107227 0.049817726 -0.06077373 0.0681181 -0.6299039
0.5313329 -0.15393832 0.0101846885 0.04543898 -0.11936909 0.15075213 0.2715864 0.116269715
0.27423778 0.3948278 0.24975716 0.019363893 0.042718314 0.031075375 -0.15661983 -0.08509015
-0.18179946 0.049590144 0.132881 0.038465623 0.095866814 0.09772728 0.0999976 0.20158716
0.25228098 0.20879675 -0.0053986707 -0.041734178 0.009992045 -0.10469206 -0.24181692 -0.08872837
0.16069771 0.43791118 0.19479243 0.40074506 0.7222818 0.4408041 0.16260621 0.3425788
0.15866488 -0.27204776 -0.7666178 -0.24416094 -0.6764313 -1.2866222 -0.6996832 -0.07295508
-0.516985 -0.15276644 0.057018124 0.2780658 0.13462141 0.03969905 0.24421325 0.13943943
-0.0049522915 0.22623411 0.12961751 -0.45798728 -0.72239584 -0.41112527 -0.10253107 -0.17222747
-0.022017462 0.47656646 0.870749 0.44793692 -0.434738 -0.7848625 -0.44910067 -0.05337796

weight f4 [12]
00000000: 7a49 0238 71e2 223e fe8f 663e c6dc 3733
00000010: fe56 503e 02aa 9c3e 57ff 903e c8e7 293b
00000020: 8625 bf36 fa13 dc3d e1c6 3535 4e3a b03e
3.1062846e-05 0.15906693 0.22515866 4.28088e-08 0.20345685 0.30598456 0.2831981 0.0025925506
5.696612e-06 0.10745998 6.771716e-07 0.34419483

bias f4 [12]
00000000: 3905 87b8 d703 933e 857c 2a3f 6b9b 35b5
00000010: 844d 8ebd 4dd3 ec3d 7516 8c3f 1d4d fdbb
00000020: 1f60 97b8 99c0 25bd 55b1 b6b6 be2b a23e
-6.4382744e-05 0.28713867 0.6659625 -6.765392e-07 -0.06948379 0.1156374 1.0944353 -0.00773014
-7.218145e-05 -0.04046688 -5.444667e-06 0.31673998

running_mean f4 [12]
00000000: 93f1 00be a2e6 073d 3b26 823b dc5d 95bd
00000010: c1c5 bab9 9e95 bfb9 fa58 6c3b 9f38 ba3d
00000020: fb81 4839 7f8a 7cbd eb20 893c fd97 28bc
-0.12592153 0.033178933 0.0039718426 -0.07293293 -0.00035624023 -0.00036541832 0.0036063776 0.09092831
0.00019121908 -0.061655518 0.01673933 -0.010290143

running_var f4 [12]
00000000: fa22 0241 d0a3 a63f 7ea2 4f3f 8a1d 6740
00000010: b524 7740 2403 c140 095d 4a3f 9233 8540
00000020: eb3e 2040 689b 5941 02af f340 d4ef e940
8.133539 1.3018742 0.8110732 3.611178 3.8616154 6.0316334 0.7904821 4.162545
2.5038402 13.600441 7.6151133 7.310526

weight f4 [12, 12, 1, 1]
00000000: 25bd f0b7 49fd a6be b42d 60bd 2e6d 25b5
00000010: 7fa6 3abe cba4 073d e248 ce3d 9420 1d3b
00000020: f20a 3eb8 f692 073d 3123 da35 cb6b da3d
00000030: 8671 2a36 04fe 47bd 37a0 05bd 1b44 57b6
00000040: 1e5a aa3d bed3 473e 89d0 4b3e 22c2 2bbb
00000050: 1c3e 1137 8d17 9a3b 86eb b9b5 2234 5a3e
00000060: 62fe 5a37 6766 4abc 30af 0fbd d413 bcb5
00000070: 0e27 03bd fc92 12bd ae4e 333e 1684 983a
00000080: 0715 7838 ff80 153d 7da4 0436 df5b 49bd
00000090: 2548 cd37 f874 9bbd 49ae 7b3e 1d4a 97b4
000000a0: e120 d8bc 6bf2 ba3c c336 f1be 0e49 3bbb
000000b0: e959 c0b7 c910 1ebc a154 59b6 7972 a3be
000000c0: 8f66 9bb7 4db5 82bd 169f 45bf ef1a a633
000000d0: 5af7 8bbd 0fe0 e2bd 5aeb bd3c 2ada f53b
000000e0: 8403 1db6 c53e b9bc 6217 3636 79d4 5dbd
000000f0: 3b62 08b7 e41e af3d d976 b9bd e2aa f235
00000100: e83f dd3c dfd0 95be f438 1bbf 1d0e bb3a
00000110: b71f a0b7 56c3 93bc 0aec 9a34 e91b fd3d
00000120: 200d 2736 9815 a4bd c2d0 d83e 177a 1935
00000130: eb5e 5b3d 3c80 0bbe 2eaf 653e 2948 023b
00000140: 5e5f f6b7 62eb 5cbb f209 4a36 69e1 32be
00000150: 1e57 f936 b58c d33b 4e1f 653d 5f5a 58b6
00000160: 7e24 09be 2a0c b9be 9d00 b93e 30c9 c53b
00000170: 940a 42b7 3c8e a7bd e049 35b6 d5cc 123e
00000180: e6ef 8bb6 381c 3f3d f5b2 4bbd 3b38 6fb5
00000190: 79f8 933d c04a 993e dc63 033e 7312 c2b9
000001a0: 9cd6 eab5 c6b3 c13c e978 7935 1595 9a3d
000001b0: 8e59 1fb7 3ba6 63be 8a86 39be 3dbf e934
000001c0: 6d7c d7bd be6b 8dbd a333 27be ac84 54bb
000001d0: d941 b9b7 5254 e6bc e444 4836 5542 4abe
000001e0: 1816 02b7 2ef9 d8bd 7eab 1c3c 998b 48b5
000001f0: 360e af3d 8197 f83c c342 2d3f 2cb4 33bb
00000200: b8f2 0b38 edb9 b33d e042 2135 ba32 84bd
00000210: 3f6b 37b8 49cc 2d3e 58a0 77be 25d9 42b5
00000220: 01e8 26be 3adb 343e 2beb 433e 1f67 0a3c
00000230: 8370 08b7 7d44 8d3c 8ce8 0fb5 3747 13bf
-2.8698307e-05 -0.32615116 -0.054731086 -6.162617e-07 -0.18227576 0.033116143 0.10072495 0.0023975717
-4.5309724e-05 0.033099137 1.6252508e-06 0.10665091 2.5398053e-06 -0.048826233 -0.032623496 -3.207714e-06
0.0831797 0.19514367 0.19903769 -0.0026208241 8.6571345e-06 0.0047025145 -1.385212e-06 0.2130895
1.3053041e-05 -0.012353516 -0.03507918 -1.4012862e-06 -0.032019667 -0.035784706 0.17510483 0.0011636044
5.914739e-05 0.036499973 1.9765278e-06 -0.04915988 2.44715e-05 -0.075906694 0.24578203 -2.8179866e-07
-0.026382865 0.022820672 -0.47112092 -0.002857748 -2.2930051e-05 -0.009647557 -3.238478e-06 -0.31923273
-1.8525197e-05 -0.06382237 -0.7719587 7.7348766e-08 -0.06834288 -0.11077892 0.023183513 0.007502814
-2.339687e-06 -0.022612939 2.7133724e-06 -0.054157708 -8.129103e-06 0.08550814 -0.090558715 1.8080138e-06
0.027008012 -0.29260918 -0.6063378 0.0014271174 -1.9088255e-05 -0.01803748 2.8856476e-07 0.12358839
2.489258e-06 -0.08011931 0.4234677 5.7174606e-07 0.053557318 -0.13623136 0.22430107 0.0019879437
-2.9369894e-05 -0.0033709635 3.0106135e-06 -0.174688 7.43092e-06 0.0064559826 0.055938058 -3.223911e-06
-0.13392827 -0.36142093 0.3613328 0.0060359463 -1.1565764e-05 -0.08181426 -2.7014103e-06 0.1433595
-4.1704507e-06 0.04665777 -0.049731214 -8.9116264e-07 0.07225127 0.29939842 0.12831062 -0.0003701631
-1.7496818e-06 0.023645293 9.2935676e-07 0.075479664 -9.49799e-06 -0.2223138 -0.18117729 4.3538776e-07
-0.10521779 -0.06905316 -0.16328292 -0.0032427711 -2.2084381e-05 -0.028116379 2.9842422e-06 -0.19751866
-7.753748e-06 -0.10594402 0.009562371 -7.470895e-07 0.085476324 0.03034568 0.67679995 -0.0027420623
3.3366232e-05 0.08775697 6.007449e-07 -0.06454988 -4.373048e-05 0.1697246 -0.2418226 -7.258662e-07
-0.1629944 0.17661753 0.19132678 0.008447438 -8.132428e-06 0.017244572 -5.361005e-07 -0.5753054

weight f4 [12]
00000000: a698 6a3e 017f a43e 4eec 143e 7719 d43e
00000010: 6f58 a63e 1977 bb3e cf90 713e 8d15 b13e
00000020: 4a9e 903e 544c 4d3e 28ac c53e c0a7 b83e
0.22909793 0.32128146 0.14543268 0.41425678 0.32489344 0.36614302 0.23590396 0.34586754
0.28245765 0.20048648 0.38607907 0.36065483

bias f4 [12]
00000000: 1504 613d 4f26 a4be 4d71 d33d ccce ee3e
00000010: bdf2 c33e 9670 043f e335 a83e 2e86 553e
00000020: 3b7f 79be 68c6 f93d f506 583f f43e a73e
0.054935534 -0.32060477 0.10324345 0.46642148 0.38271132 0.5173429 0.32853612 0.20851967
-0.24364941 0.12196046 0.84385616 0.32665217

running_mean f4 [12]
00000000: 242c 763c 246b 963e b40a 103e 0e52 f7be
00000010: 923a 0dbf 1cc0 34bf de62 d83e 1d10 d53e
00000020: 5859 4f3e ed1b e7be 0238 343f e54e a4bd
0.015025172 0.29378617 0.14066583 -0.4830479 -0.55167496 -0.70605636 0.4226293 0.41613856
0.20248926 -0.45138493 0.7039796 -0.080228604

running_var f4 [12]
00000000: a64a 9c3b dcc1 c73b 9628 203b 77e4 1c3d
00000010: 58b4 e03c 6b9d e63c 3a2d 403c 78d3 e73c
00000020: 072e 713b 3518 e93b d6b6 083d e850 003d
0.004769641 0.006096108 0.0024438254 0.03830382 0.027429745 0.028151235 0.011729533 0.028299078
0.0036801116 0.0071134814 0.03337749 0.03132716

weight f4 [6, 12, 3, 3]
00000000: 4b5e b33d 8821 50bc 32a2 d4bc c2d1 8f3c
00000010: d000 b0bd 4f48 3abd c739 fcbc 2626 48bd
00000020: 6fe2 24ba 7305 abbd 8f52 3a3d 0e6f 273d
00000030: aff6 a7bd 1488 173c 8cf5 2f3e 4394 72bd
00000040: b670 08bc 63b7 f53d 6aea 483d b652 6f3b
00000050: bdb4 15bb 978b 483d 9d68 a0bd 330c 36bc
00000060: f511 533d 5fdb bc3a 6604 dc3c 050d 6dbd
00000070: 9035 18be 3f75 89bd 2b36 893e eef8 c03e
00000080: cb07 f73d 6f5c 533d 6339 0bbe 722f edbd
00000090: 6c36 be3b 05be e9bd c988 b3ba 31f2 0d3e
000000a0: 7685 c53b 06fd 203d e696 68bd 7458 3a3d
000000b0: 14bf f73c 1eaa d93c df16 c7bd a94a 873b
000000c0: b58c 22be 55fb 863e 5c7e b83d 5d01 77be
000000d0: d32c 453c f276 e0bd 736d 0e3d 0192 4b3d
000000e0: 7f03 abbd ad62 c03d 5e81 06bd 1a6f c0bc
000000f0: e8f3 bf3d 3571 04bd ca6f 173c 4b8f 2b3e
00000100: 0a83 a0bd 5663 02b9 a38b 12be 8c69 b9be
00000110: d318 33bd da2d e03b 3969 97bc 9c8e 0f3c
00000120: 06cb 20be b4b3 8dbc 50c1 87bd 06ff cdbd
00000130: 47de b7ba 2eb2 3c3c ad70 fbbd f3bd abbc
00000140: 6cc6 ecbc 2cac 99bc b357 ebbd a910 e33b
00000150: b8f4 253e 8870 113e 3396 503d f3c7 1e3c
00000160: 5844 6abd 7d36 13bd 7b46 243e 913e b33d
00000170: 52f3 84bc 4259 633e 0c6c d4be 4251 3dbd
00000180: 4668 843e 6e06 e7bd 19d3 7d3c b0d3 3bbd
00000190: f30a a5bd 43ce 20bd 7d6d 043f 92ff 273e
000001a0: 5c64 8ebd 2f86 303e 3c02 27bd 6e70 e3bc
000001b0: 436d 4ebd ab0a 3cbe 9d2f 82bd 8261 62bc
000001c0: 6c0a 86bc a8a1 e73d 9b5f b8ba a9a0 ae3d
000001d0: 63ca 253d 4562 b93d 5646 75bd 4d4e c63b
000001e0: 7d64 c33c 51e9 ca3d aed5 a5bd 6957 44bd
000001f0: 3784 8fbb 4d83 57be 33b6 923c a43a 83bc
00000200: c880 223c 82cd 98bb 8034 a6bd 3dec 3dbb
00000210: 0e06 f6bc 6a50 45bd 0b7d 4abc 6673 693d
00000220: b0bc 12bd 375e 8f3d 1dde 92be a742 163d
00000230: 6913 703e da99 28be fe1b 1dbd 0ae2 473e
00000240: a84a d53d 30e8 c33d 769c 06be e904 153f
00000250: 2670 c4bc 8229 2bbf db32 d63e 36e5 c03d
00000260: 4829 d0be 8fc4 06bc 56a9 9a3d aa70 8f3a
00000270: 8994 123d c341 e2bd 4a38 6abe fbf4 e23d
00000280: 80b1 b6bd e7a3 98bc 9138 01be 85be 23bd
00000290: 9a3d f83c 7aee b5be 2680 07bd a41c f33e
000002a0: b53e 8ebe ee16 86bc fc09 683e 6676 c73d
000002b0: 55aa 8a3d 936d 873d 8340 c1bd 68b3 dd3b
000002c0: 7299 013e 55dd 3cbe a305 6bbd 7a42 33bb
000002d0: 4261 363b 9340 22bd e646 a4bd 4f8a bebd
000002e0: 76a8 2a3d 164e 8cbd cbd3 12be d890 d2bb
000002f0: 4765 63bd 62ba 543d 8cb9 36bd 4c02 20bd
00000300: 72be 703d dc8e 6d3d ef72 e0bd 0a1c fa3d
00000310: 3bbc 1c3e efde 33bc 4a53 2ebd fd3e c5bd
00000320: 1187 ec3c dd7a 78bc 1f45 54bd a517 be3d
00000330: 6aa9 dabd 3a5a f23c 643a 8dbc eb3d 0dbd
00000340: 05b2 113e 1dbb c93c e7b3 de3d 5f87 6c3c
00000350: 56f2 91be 453b 683d 9ab7 273d f54e 28be
00000360: 594c 34bd 979e 0ebc 981e 513d a342 803c
00000370: 9026 fdbb 6875 1ebe f42c 273d 8286 e43d
00000380: 5d55 00bd 2984 de3c 2dfc 94bd fc10 b2bd
00000390: 66e5 833d 300a 50bc 7a9f 98bd 102f a03c
000003a0: 028f 87bb f5cf 41bd 7df0 6c3c 726a 7ebd
000003b0: dca8 823d 5210 233d b6c0 ea3b 5f63 8bbd
000003c0: 7cdd 89bc 1b2d 8a3d 7ea9 ce3c 2bea 99bb
000003d0: f675 903e 5ac1 68be 0542 7cbe b4fe b23c
000003e0: ccf7 8e3e 09b7 2f3d 9a11 8abe 0229 143d
000003f0: 6f4c 83bd ab66 b83c b6ae c93d 67bb 6cbd
0.08758219 -0.012703307 -0.025956247 0.017556075 -0.08593905 -0.045479115 -0.03078927 -0.048864506
-0.0006289845 -0.08350649 0.04548889 0.040877394 -0.08201348 0.009248752 0.17183512 -0.059223425
-0.008327654 0.11997869 0.04905168 0.0036517805 -0.0022843324 0.04896125 -0.078324534 -0.011111307
0.051530797 0.0014408639 0.026857566 -0.057873745 -0.14864182 -0.06711816 0.2679914 0.37689918
0.12062033 0.051601823 -0.1359611 -0.11581315 0.0058048274 -0.114131965 -0.0013697381 0.1386192
0.0060278727 0.039303802 -0.056784533 0.04549451 0.03024248 0.026570376 -0.09721159 0.004128773
-0.15873988 0.26363626 0.09008476 -0.24121614 0.012034613 -0.10960187 0.034772348 0.049699787
-0.08350276 0.09393821 -0.032838218 -0.023490477 0.09372693 -0.032334525 0.009242961 0.1675388
-0.07837494 -0.00012434772 -0.1431108 -0.36213338 -0.043724846 0.0068414034 -0.018482791 0.008762028
-0.15702447 -0.017297603 -0.06628668 -0.100584075 -0.0014028036 0.011517091 -0.122773506 -0.020964598
-0.028903209 -0.018758856 -0.11491337 0.0069294763 0.16206634 0.14203084 0.05092449 0.009691226
-0.057194084 -0.035940636 0.16042511 0.08752168 -0.016229305 0.22202018 -0.41488683 -0.04622007
0.25860804 -0.11280523 0.015492224 -0.045856178 -0.08058729 -0.039259207 0.51729566 0.16406086
-0.06952736 0.17238687 -0.040773615 -0.027763572 -0.05039717 -0.18363445 -0.06356738 -0.013817193
-0.016362391 0.1131013 -0.0014066579 0.08526737 0.040476214 0.090519466 -0.05988153 0.0060518146
0.023851627 0.09907783 -0.08097397 -0.047934923 -0.004379775 -0.21046181 0.017909145 -0.016019173
0.009918399 -0.0046631703 -0.08115482 -0.002897992 -0.030032184 -0.048172392 -0.012358914 0.05699482
-0.035824478 0.07000392 -0.28685084 0.03668466 0.23444904 -0.1646494 -0.038356774 0.19519821
0.1041463 0.095657706 -0.13145623 0.5821062 -0.023979258 -0.6686021 0.41835675 0.094187185
-0.40656495 -0.008225574 0.075518295 0.0010943611 0.035786185 -0.11047699 -0.22873035 0.110818826
-0.08920574 -0.018632842 -0.12619235 -0.039976615 0.030302811 -0.35533506 -0.033081196 0.4748279
-0.27782217 -0.016368356 0.22660059 0.097393796 0.067707695 0.066126965 -0.09436133 0.0067657717
0.12656191 -0.18443806 -0.057378422 -0.0027352856 0.0027828966 -0.039612364 -0.08021335 -0.09303724
0.041664563 -0.06850831 -0.14338605 -0.006425958 -0.055516507 0.05193556 -0.044610545 -0.03906469
0.058775373 0.05799757 -0.10959422 0.12212379 0.15306179 -0.0109784445 -0.0425599 -0.09631155
0.028872998 -0.015166012 -0.05182373 0.092818536 -0.106768444 0.029584039 -0.017239757 -0.034482878
0.14228065 0.024625355 0.108741574 0.014436572 -0.285052 0.05669715 0.04094658 -0.1643637
-0.044018123 -0.008704803 0.051054567 0.015656775 -0.0077255443 -0.15474474 0.040814355 0.11158468
-0.03133141 0.027162628 -0.07274661 -0.08694646 0.06440239 -0.012697741 -0.07452293 0.019553691
-0.004136921 -0.047317464 0.014461634 -0.062113233 0.063798636 0.039810486 0.007164086 -0.06806063
-0.016829245 0.067468844 0.025227305 -0.0046971045 0.28214997 -0.22730008 -0.2463456 0.021849968
0.2792343 0.042899165 -0.26966554 0.03617192 -0.06411063 0.022509893 0.098477766 -0.05779591

weight f4 [18]
00000000: 8a82 1e3e 4842 5835 dbb0 0a37 89a3 883e
00000010: a858 1e36 f3dc 1e3e 6b5d d63e 28ee 8439
00000020: ebc8 383d a949 4338 3abd 833e 4fe2 9a3e
00000030: 20f3 383e c3d6 4136 c2a7 353b 4cb3 bc3e
00000040: 0cee 8134 12ed 6d3e
0.15479484 8.056272e-07 8.266618e-06 0.26687267 2.359544e-06 0.15513973 0.41868147 0.00025354442
0.045113485 4.6560224e-05 0.25730306 0.30250785 0.18061495 2.888425e-06 0.00277184 0.36855543
2.4201324e-07 0.23234966

bias f4 [18]
00000000: f3f8 ba3d 8245 0bb7 a42b bbb8 7763 323f
00000010: c559 35b7 5bb3 773e 95df 8abe b73c 9fbb
00000020: 1bb4 27bd 5438 24ba e587 5b3f 5e46 043f
00000030: ff3c 043e 4919 1db7 1fb0 b1bc b635 973e
00000040: d78c 0ab6 ec00 00be
0.091295145 -8.301229e-06 -8.9249836e-05 0.6968302 -1.0809342e-05 0.24189512 -0.27123705 -0.0048595327
-0.040943246 -0.0006264497 0.85754234 0.5166987 0.12913893 -9.363816e-06 -0.021690426 0.29533166
-2.0645582e-06 -0.12500352

running_mean f4 [18]
00000000: 4376 9c3e 6d84 9abe 5df5 2bbc 61ff cebc
00000010: 556b f1bd 3bfc ae3e 93f1 00be a2e6 073d
00000020: 3b26 823b dc5d 95bd c1c5 bab9 9e95 bfb9
00000030: fa58 6c3b 9f38 ba3d fb81 4839 7f8a 7cbd
00000040: eb20 893c fd97 28bc
0.30558977 -0.30179158 -0.010495511 -0.025268259 -0.1178805 0.34176812 -0.12592153 0.033178933
0.0039718426 -0.07293293 -0.00035624023 -0.00036541832 0.0036063776 0.09092831 0.00019121908 -0.061655518
0.01673933 -0.010290143

running_var f4 [18]
00000000: 4eb8 cc3e ff7a be3e 6d58 b03e 5141 4f3f
00000010: 66dc 8b3e 18f3 5e3e fa22 0241 d0a3 a63f
00000020: 7ea2 4f3f 8a1d 6740 b524 7740 2403 c140
00000030: 095d 4a3f 9233 8540 eb3e 2040 689b 5941
00000040: 02af f340 d4ef e940
0.39984363 0.37203214 0.34442464 0.8095904 0.27316588 0.2177242 8.133539 1.3018742
0.8110732 3.611178 3.8616154 6.0316334 0.7904821 4.162545 2.5038402 13.600441
7.6151133 7.310526

weight f4 [12, 18, 1, 1]
00000000: 3a08 d4bd e078 b8b6 75d1 7db7 e8d0 b9be
00000010: 1840 5c36 604e 613c a228 733d 7d39 823a
00000020: 69c0 f5bc 8dbd 1238 a8ad 5fbe ff7a f93d
00000030: fc41 013e 659e 1f36 f956 48bc daf0 823d
00000040: 6917 cbb4 45b5 22be cfda 153d 44fd 8436
00000050: 2808 b4b6 da67 d93e 79b6 3f36 d797 adba
00000060: 3fa5 793c 1ca3 273b 09a0 01bd 0162 b0b9
00000070: e488 fd3d f973 6d3d e4a7 62be 6328 4936
00000080: 55f3 263b 2a5f 2e3e e8ae 28b5 fb22 66bd
00000090: 3366 333d cefc 06b5 4789 8937 4246 423e
000000a0: 6157 0636 a44c 923c 24b0 97bc de7d 4a36
000000b0: 2241 373b 28cd 1bb8 92a2 af3d 6666 b8be
000000c0: 8c32 89bd 6606 1536 7618 453b 98ca b2be
000000d0: 22ec 4fb5 86fc 7d3d 7f5e c1bb bd9b 98b4
000000e0: 5842 0cb8 fbb7 bebe 4e67 6935 1ea5 c2bd
000000f0: 640d abbe 7bd6 4f39 6a87 09bd fdc2 edb7
00000100: 7594 793d 3c7d 023d 6dff b23d 044d ae36
00000110: 8a7e b43a 84cb 663c 29e6 1b35 95df 16be
00000120: bfb8 95bd 379e 96b6 5a85 a7b7 70fe 3c3d
00000130: 5fe5 0a35 a933 0e3e 39ae 0abe da7f 5c3a
00000140: 9cb6 02bc 3034 4cb8 2f67 66be ac29 06bd
00000150: bde4 fa3d 68fe 2636 e1de 82bb 432e cabe
00000160: 998b 9734 18bf cd3d 0c06 babd fc2b eab5
00000170: c007 d137 8764 703e 4533 c9b6 f583 d7bd
00000180: e746 8f3d 2e8d 27ba 3dd8 2a3c d5a3 7d38
00000190: 540c 6cbe d3e3 e2be b09e e0bc 689a b035
000001a0: 98df b8ba 5fac 16be ad55 9fb5 572b 80bd
000001b0: 2a02 dabd 3528 2c36 5f32 bcb6 eb49 11be
000001c0: e123 c3b6 644e 8dbd 3133 f63d 3dcc 3e3b
000001d0: 87ed 52bc 5036 f738 145c c5be bf0c d6bd
000001e0: 1b36 25bc b6f5 db36 d7a1 e5bb c48a a03d
000001f0: 188a 0935 9405 20bd 4544 3a3b f8f5 99b6
00000200: 35be 3436 bcd1 d23d a714 a2b7 e386 193d
00000210: 1b13 c33e baf9 113b 710a 5bbc 6f5d 9bb9
00000220: d7f7 7abd f58b dcbd cff4 45bc 4220 2135
00000230: b98d 3fba fffa 3d3d 578d 8235 7d70 a83c
00000240: 2ea7 fb3d 153c 8fb5 2a39 11b8 5d5b 813d
00000250: 4e96 0db7 0e3f 583e 0bf9 16be 0659 3f3a
00000260: bad0 a0bc 88cc 0c3a ec62 23bf 5202 573e
00000270: fdf2 2bbd 1918 9735 0954 64bb 581d 7cbe
00000280: 305b 9d35 2186 6c3d 079a a7bb b1e7 9cb6
00000290: 6f76 b2b7 ddb0 ec3d c554 8eb7 1d03 a03d
000002a0: ad60 d73d bc5e ec3a e4fd 503d 054c a4b8
000002b0: b8f3 a23e bf9b 533e 7015 84bd 1e93 fa35
000002c0: 30b5 7d3c 80eb 7ebe 4eff b035 438b 2abe
000002d0: a0d6 dabd 0a84 a835 396e 93b6 8473 9fbe
000002e0: e45b 03b7 6794 513e 321c 353e 1ac0 11bb
000002f0: dae3 0fbd 7024 9fb9 17ce 903d fe4f 4dbe
00000300: ee57 163d 88b1 2636 ed24 20bc 45cc 13be
00000310: afdc 52b5 9ecb 65bd e541 5bba 3512 6737
00000320: 84ae 90b6 5ef5 1e3d f588 d2b5 d01b b33d
00000330: e18a 6c3d 49e3 e43a 866c 323c 6dc0 dd38
00000340: 8925 e5bd daa9 8cbd 382e 623d b6d5 10b5
00000350: fefe c8bb 6165 123e da57 58b6 aeb5 7e3d
-0.103531316 -5.497699e-06 -1.5128743e-05 -0.36292195 3.2819862e-06 0.013751596 0.059364922 0.0009935346
-0.029998975 3.4985645e-05 -0.21843588 0.12181663 0.12622827 2.3785044e-06 -0.012227767 0.06393595
-3.782873e-07 -0.15889461 0.036585625 3.9633906e-06 -5.3653675e-06 0.42462045 2.856743e-06 -0.0013244104
0.015237152 0.0025579398 -0.031646762 -0.00033642355 0.123796254 0.05797193 -0.22134358 2.9974842e-06
0.0025474627 0.1702849 -6.28394e-07 -0.056185704 0.043798637 -5.028677e-07 1.6395597e-05 0.18972114
2.0018417e-06 0.01785881 -0.018516608 3.017361e-06 0.0027962406 -3.7145946e-05 0.0857593 -0.36015624
-0.06699094 2.2206455e-06 0.0030074394 -0.34920192 -7.745713e-07 0.062008403 -0.0059011574 -2.842552e-07
-3.344039e-05 -0.3724974 8.694959e-07 -0.0950415 -0.33408654 0.00019820959 -0.033576407 -2.83434e-05
0.060932595 0.031857714 0.08740125 5.19457e-06 0.0013770622 0.014086608 5.8076927e-07 -0.14733727
-0.07310628 -4.488767e-06 -1.9970048e-05 0.046141088 5.1742785e-07 0.13886894 -0.13543023 0.00084113854
-0.007978108 -4.8685994e-05 -0.22500299 -0.032754585 0.122506596 2.4884012e-06 -0.0039938544 -0.3948842
2.8227512e-07 0.10046214 -0.090831846 -1.744716e-06 2.491835e-05 0.23475848 -5.9962354e-06 -0.10523216
0.069959454 -0.0006391582 0.010427532 6.047248e-05 -0.23051578 -0.4431444 -0.027419418 1.315796e-06
-0.0014104722 -0.14714192 -1.1871358e-06 -0.062582664 -0.10644944 2.56534e-06 -5.6087006e-06 -0.14188354
-5.8156297e-06 -0.068997175 0.12021483 0.0029113435 -0.012874014 0.00011787994 -0.38546813 -0.1045165
-0.0100837005 6.555313e-06 -0.007007818 0.078389674 5.123743e-07 -0.03906782 0.002842204 -4.58839e-06
2.6932805e-06 0.1029391 -1.9321522e-05 0.037482154 0.38100514 0.0022274093 -0.013369189 -0.00029633517
-0.061271515 -0.10768882 -0.012082293 6.0024115e-07 -0.000730719 0.046381947 9.72689e-07 0.020561451
0.12287746 -1.0671816e-06 -3.4623932e-05 0.06316254 -8.43925e-06 0.21117803 -0.1474344 0.00072993373
-0.019630779 0.00053710537 -0.6382282 0.20996979 -0.04197978 1.125739e-06 -0.0034840128 -0.24620569
1.1723951e-06 0.057745103 -0.005114797 -4.6761347e-06 -2.1274403e-05 0.115571715 -1.6967193e-05 0.07813094
0.10516486 0.0018033604 0.05102338 -7.834289e-05 0.31826568 0.20664881 -0.064494014 1.8669268e-06
0.015485093 -0.24894524 1.3187325e-06 -0.16654687 -0.10685468 1.2555404e-06 -4.393773e-06 -0.3114282
-7.829603e-06 0.20466767 0.17686537 -0.0022239746 -0.035129406 -0.0003035399 0.070705585 -0.20050046
0.03670495 2.4839264e-06 -0.009774429 -0.14433391 -7.8552233e-07 -0.056102388 -0.0008364006 1.3772912e-05
-4.3118507e-06 0.03880822 -1.5686079e-06 0.08745539 0.057749633 0.0017462756 0.010890132 0.00010573943
-0.111888 -0.06868334 0.05521986 -5.395517e-07 -0.006133913 0.14296485 -3.2237645e-06 0.062184982

weight f4 [12]
00000000: 32f7 b23e 40a5 b03e 0631 a43e 011a a73e
00000010: 8baa 9b3e 502b 9f3e e3d2 9c3e 13f6 bb3e
00000020: a4e7 ae3e 9c5b a13e 4f1e 9a3e 9b85 6a3e
0.3495422 0.34501076 0.32068652 0.32637027 0.3040355 0.31087732 0.30629644 0.36711177
0.34161103 0.31515205 0.3010125 0.22902529

bias f4 [12]
00000000: f04b 9c3d ae5d d03e 8731 7f3e b9e2 e93e
00000010: a3a7 603e 9964 7f3e 56db e63d 449a 58be
00000020: 61ef 033f 0977 763e 89f6 3a3d 88c2 7fbd
0.076316714 0.40696472 0.24921237 0.45680788 0.21938948 0.24940719 0.11272304 -0.21152598
0.5153714 0.24068846 0.04564527 -0.06244138

running_mean f4 [12]
00000000: e717 b2be cc55 ec3e ae59 cfbd 35cd 65be
00000010: b594 8bbe 2092 b6be 632c f8be 6706 2f3c
00000020: aee6 d8be 508f c73e 6eca 84be 45a9 adbc
-0.3478386 0.46159208 -0.10124527 -0.22441562 -0.27261892 -0.3565836 -0.48471364 0.010682679
-0.42363495 0.38976526 -0.25935692 -0.021198878

running_var f4 [12]
00000000: 811d a73c b8d9 af3c 2d1d f93c 6001 713c
00000010: 2ab9 263c d40b a83c fabc 713c 6365 a93b
00000020: 8f1f ad3c e33c cb3c f9f7 773c 593b 9f3b
0.02039981 0.021466121 0.03040942 0.0147098005 0.0101759825 0.020513453 0.014754528 0.005169557
0.021133212 0.024809306 0.015134805 0.0048593697

weight f4 [6, 12, 3, 3]
00000000: d9fb 6fbd f12e 2bbe 9475 dbbc b92f 543d
00000010: 1c8d 023d bf92 8f3a 0756 8ebd 34c3 b1bc
00000020: 4cea dabd cdfa 26be 86e9 03be c1b1 0bbe
00000030: d13a ed3d 9cba 9abc bbd7 8b3d 2e80 803d
00000040: df70 f5bd 8760 b03d 59a6 14be d61a 84be
00000050: c33a 49be 010c 2f3d 7534 4ebd 6cf3 113d
00000060: 052d 9f3d e133 64bd cfdf 73ba 29df 89bd
00000070: 0125 bfbe 28a4 72bd b5ca fb3d 0f02 87bc
00000080: b81d 2f3e 7f49 56bc dd3b 62bd b7a5 18bd
00000090: 3150 71be cfa7 16be f5ae 06be 9faa d93c
000000a0: 84fd 763d 256a d43b 955d 5e3d 0944 da3c
000000b0: 5fa0 15bd c2b9 68bd aff0 b0bd 1979 a2bd
000000c0: 404f f43d b066 e33c f5c5 a4bd c230 b83d
000000d0: 0c2d 9abd 1634 ff3c 7e2a c7bd 678c 87bd
000000e0: a8c1 c4b8 c352 4f3d 78d9 133d fe84 84bc
000000f0: 321d 2ebd 18f2 89bd e957 abbd bba8 3abd
00000100: b59a 2c3e 5be8 643d a656 3ebd 616c 493c
00000110: 2b31 0abc 039b ccbc 1e65 7abd c6e1 77bc
00000120: feb9 81be f97f dabd d6df 10be 65f0 ae3c
00000130: 2f45 3a3e 0e80 013e ddb6 7a3d bb9f b2bd
00000140: 610c ed3c 4d8b 27bd efb8 09be 037a 08be
00000150: 58d2 683a a241 b9bd aebb af3d ad29 5abc
00000160: 1564 88bd 7995 823d 3ff0 9dbc cafb 96bd
00000170: d08a cfbc 0ae6 b4bd 9ea3 82bb 8ddc 973c
00000180: 8dde c8bc 847a 173c 7208 d1bd e240 84bd
00000190: 1c24 a8bc 635b a5bd 8c95 65bd d8f2 27bd
000001a0: 07cb b9bd b66d d337 b6ce 55bd abe9 20bd
000001b0: d13b 743d 7e5b a2bc 57b6 fcbc e3b8 9f3d
000001c0: a2ec 53bb 179e 94bd b8ca 8fbc 6f07 0e3a
000001d0: bbf3 4ebd ff92 40be 5f0b 053d 16c4 013e
000001e0: 9329 f7bd 92e8 e13c 862b 0e3e 7f17 99bd
000001f0: ef64 023d f72f e83d 650f 25bd 0719 e1bc
00000200: 4189 2c3d 16a4 5ebd e3be 283c bbb9 0f3e
00000210: 2369 e5bd 9fd4 0dbd 2f7c 613e ffa2 733e
00000220: 67dd b6bc 649a 06be efe0 2e3e 1b05 0abc
00000230: 7ad6 05be 73f1 aa3d d8f0 95bb 31be aabd
00000240: f8e5 37bd a250 a53b 3b2d ae3d db44 a9bc
00000250: 3580 ff3a 1c0c f43d 1938 6abd 7fba afbc
00000260: 3f11 dc3d 1809 d2bd 7408 8bbd ed47 263e
00000270: 4840 e8bd 5ef2 3d3d 0df6 8d3e e34c 1dbc
00000280: a476 993d da7d 7d3e f15e 93bd 49ee 05bc
00000290: c851 09bd 3eb0 8a3c 9aef 2f3d 9d0d a33d
000002a0: aff1 a3bd 614b d5bc 3dc7 d4bc 65a3 acbc
000002b0: 1118 8d3c c9e4 cd3c 3003 a1bc 80d2 8e3d
000002c0: a266 21bc 34df 0bbb e949 9a3d 0fe9 01b9
000002d0: 3896 64bd 9660 973c 307c 3b3d c39d 8b3c
000002e0: c23a 463c 80ca 1c3d 63de 65bc 297b c03c
000002f0: 4eb2 39bd aee9 553d b8b3 093c e574 a1bd
00000300: 8acb 053d 9963 503c 9eab 4bbd ebe3 d5bc
00000310: 96a7 5f3c d47d bbbc 3929 89bc 14a0 edbd
00000320: de51 bd3b 0547 5abd 22f3 e9bd 8591 403d
00000330: 0a9b 9fbd 2212 08be 87aa 273d 97fa 28bb
00000340: 2b79 91bc 7eaf a83c b9af e63b 6b45 103c
00000350: 7d18 5a3d c210 3fbc d240 0abc 3820 13bd
00000360: 8180 bfbd 8802 113e ccea cabc 274c 803c
00000370: fe38 31be e4c3 a93d 8eb7 25bc a925 7e3e
00000380: f2c3 e3bc 74e7 0e3e dd9e dcbd 57d9 01bd
00000390: 1687 65bd 8c47 e4bc 68e1 593d 0a95 8d3d
000003a0: c83c 06be 0269 d63b 39a6 fabb 585d 543e
000003b0: e61e 963d 00de 0fbd 877f 093d 0536 1d3e
000003c0: 2b80 12be 9a30 94be ed36 48be f758 823c
000003d0: 8b45 393d 9924 573d c438 be3d d3b4 52bd
000003e0: 807b dfba b8c1 f9bc c233 90bd 3e24 87bb
000003f0: 0841 bd3d f9fe 9a3e 8034 d43d 77e1 05be
-0.05858979 -0.16717125 -0.026789464 0.051803324 0.031872854 0.0010953768 -0.06950002 -0.021699525
-0.1068922 -0.1630661 -0.12882051 -0.13642026 0.11583484 -0.01888781 0.06828257 0.06274448
-0.11984419 0.08612161 -0.14516582 -0.25801724 -0.19651322 0.042736057 -0.050342996 0.035632536
0.07772259 -0.055713538 -0.00093030644 -0.067320175 -0.3733292 -0.059238583 0.12294523 -0.016480474
0.1710118 -0.013079046 -0.05523287 -0.037267413 -0.23565747 -0.14712451 -0.13152678 0.026570616
0.060300365 0.00648238 0.054288466 0.02664377 -0.036529895 -0.056817777 -0.08639657 -0.07933254
0.11929178 0.027758926 -0.0804557 0.08993675 -0.07528123 0.031152766 -0.097249016 -0.066185765
-9.3820796e-05 0.050616037 0.036096066 -0.016176697 -0.04250831 -0.06735629 -0.08366377 -0.04557107
0.16855891 0.055885654 -0.046469353 0.012293906 -0.008434574 -0.02497626 -0.06113159 -0.015129512
-0.25337213 -0.1066894 -0.14147887 0.021354863 0.18190454 0.12646505 0.06120955 -0.087218724
0.028936567 -0.040904332 -0.13449453 -0.13327794 0.00088814413 -0.090457216 0.08580719 -0.0133156
-0.06659714 0.06376166 -0.019279597 -0.07372244 -0.025334746 -0.08832939 -0.00398679 0.018537784
-0.024520183 0.009245519 -0.10206689 -0.06457688 -0.02052503 -0.08074071 -0.056050822 -0.04100308
-0.090719275 2.5204248e-05 -0.052199088 -0.039285343 0.059627358 -0.019819017 -0.030848665 0.07798936
-0.003233709 -0.07256716 -0.017552719 0.0005417978 -0.05052541 -0.18806075 0.032481547 0.12672457
-0.120684765 0.027576718 0.1388379 -0.07475185 0.03183454 0.113372736 -0.040297884 -0.027477754
0.042123083 -0.054355703 0.010299417 0.14035694 -0.11201694 -0.0346266 0.22020029 0.23792647
-0.02232237 -0.13144833 0.17077993 -0.008424069 -0.13070098 0.08346834 -0.00457583 -0.083370574
-0.04489705 0.0050450126 0.08504721 -0.020662716 0.0019493165 0.11916372 -0.057182405 -0.021451233
0.10745477 -0.10255641 -0.06788722 0.16238375 -0.11340386 0.046373717 0.27726784 -0.009600851
0.07493332 0.2475504 -0.07195843 -0.008174487 -0.03352526 0.016929742 0.04295311 0.07961581
-0.08005082 -0.02603692 -0.02597391 -0.021074006 0.01722339 0.025133507 -0.01965484 0.069737434
-0.00985113 -0.0021342756 0.075336285 -0.0001238922 -0.055807322 0.018478673 0.04577273 0.017043
0.01209897 0.038279057 -0.014030072 0.023496227 -0.04533606 0.052224807 0.008404665 -0.07883624
0.032664813 0.012719058 -0.049724214 -0.026109656 0.013650795 -0.022887148 -0.01674329 -0.11602798
0.0057775816 -0.053290386 -0.11423327 0.04701378 -0.07793243 -0.13288167 0.040934112 -0.0025784129
-0.017757973 0.020591494 0.0070399907 0.008805613 0.05324601 -0.01166171 -0.008438306 -0.035919398
-0.09350682 0.14161122 -0.024770163 0.015661312 -0.17306897 0.08289316 -0.010114564 0.24819054
-0.027803395 0.1395548 -0.10772488 -0.031701412 -0.05603703 -0.027866147 0.05319348 0.069131926
-0.13109124 0.0065432796 -0.00764921 0.20738733 0.07330112 -0.035123825 0.033568885 0.15352638
-0.14306705 -0.2894333 -0.19552203 0.015911562 0.045232337 0.052525137 0.09288171 -0.05144198
-0.0017050356 -0.03048788 -0.07041122 -0.0041241935 0.09240919 0.30272654 0.10361576 -0.1307429

weight f4 [24]
00000000: c630 8136 2737 7e3e 5663 1c3e fb82 f33b
00000010: 2a36 343e 281d 623e 6720 363e 7979 8f3e
00000020: fda2 2039 42ad 313d 73f0 d53b 9eb9 1839
00000030: 4c23 d93e d3ff 943e 77bb 0a3e 14f6 d734
00000040: 758d 053e fe7a 893e f14c 4d3d b01a a03e
00000050: 5dfa 9839 2ea8 263e 01b6 323e 0c05 643e
3.8501776e-06 0.24825726 0.15272269 0.0074313856 0.17598787 0.22081435 0.17785798 0.28022364
0.00015319507 0.043378122 0.006528908 0.00014564997 0.42409742 0.29101428 0.13548075 4.0225916e-07
0.13042243 0.26851648 0.050122205 0.3127036 0.00029178234 0.16275093 0.17452241 0.2226755

bias f4 [24]
00000000: bef0 cdb7 5e9c aebd d4ef ae3d 248e caba
00000010: c65a 8bbd a839 873b ce73 b13d b712 ed3e
00000020: 763d cfba 4da1 303c 82d9 d7bc 50f7 c9ba
00000030: 9a7d 0ebe 2a75 3c3f 4ba9 e33c 2109 ceb6
00000040: 6d12 443d 71de c3bd 145c 72bc 7cae 64be
00000050: 0c09 76bb b1f3 dbba 065b 2ebd 65b8 07be
-2.4550009e-05 -0.085259184 0.08541837 -0.0015453738 -0.06804423 0.004126746 0.08664666 0.4630334
-0.0015811163 0.010780645 -0.026348833 -0.0015408788 -0.139151 0.7361628 0.027790686 -6.140341e-06
0.047869135 -0.09563912 -0.014792461 -0.22332186 -0.0037542013 -0.0016781 -0.042567275 -0.13253935

running_mean f4 [24]
00000000: f566 5cbf 938c 823e aa28 193e 5871 f0bd
00000010: 77ca bbbe 0c4f 443e 4376 9c3e 6d84 9abe
00000020: 5df5 2bbc 61ff cebc 556b f1bd 3bfc ae3e
00000030: 93f1 00be a2e6 073d 3b26 823b dc5d 95bd
00000040: c1c5 bab9 9e95 bfb9 fa58 6c3b 9f38 ba3d
00000050: fb81 4839 7f8a 7cbd eb20 893c fd97 28bc
-0.860946 0.25497875 0.14956918 -0.117403686 -0.36677906 0.19170779 0.30558977 -0.30179158
-0.010495511 -0.025268259 -0.1178805 0.34176812 -0.12592153 0.033178933 0.0039718426 -0.07293293
-0.00035624023 -0.00036541832 0.0036063776 0.09092831 0.00019121908 -0.061655518 0.01673933 -0.010290143

running_var f4 [24]
00000000: dc68 0e3e f7d2 413e b193 eb3e 5f36 a93e
00000010: b132 bb3e ecc2 013f 4eb8 cc3e ff7a be3e
00000020: 6d58 b03e 5141 4f3f 66dc 8b3e 18f3 5e3e
00000030: fa22 0241 d0a3 a63f 7ea2 4f3f 8a1d 6740
00000040: b524 7740 2403 c140 095d 4a3f 9233 8540
00000050: eb3e 2040 689b 5941 02af f340 d4ef e940
0.13907188 0.18928133 0.46011117 0.33049294 0.36562112 0.5068805 0.39984363 0.37203214
0.34442464 0.8095904 0.27316588 0.2177242 8.133539 1.3018742 0.8110732 3.611178
3.8616154 6.0316334 0.7904821 4.162545 2.5038402 13.600441 7.6151133 7.310526

weight f4 [12, 24, 1, 1]
00000000: 7837 9bb5 a4bf 9e3d 607e c23d fc9e c43a
00000010: f08d 83bd 1def 14be f975 2dbd 2da6 1bbe
00000020: 366a 82ba 6da2 813c b8a0 74bc 770a 24bb
00000030: 46f2 dcbd e4bb 8b3e 989c cdbd 9771 a436
00000040: f99b 703c 99f4 46be efe4 e7bc 21c1 c2bd
00000050: 953e 4abb c240 2ebd 62b2 56bd f66f adbd
00000060: 7cbf f0b6 9f45 5ebe 71c2 243d ba4a 84bc
00000070: 0198 ba3d ad4e 81bc 5806 46be f111 28be
00000080: af40 08ba ebc9 99bb 22a8 7cbc 97a9 503a
00000090: 2277 b6bd ce19 6bbd 9e6b a1bd 5dfa 5836
000000a0: ed76 c63c 16b1 11be f92f c63b 40ac 18be
000000b0: a8fd cfbb 667a 13bd 5196 22bb dfdd 2b3b
000000c0: 073e 29b7 0115 69bd 90dc d0bd e493 b8bb
000000d0: 310f 66bd 9d9a d63b fff8 edb9 f1d3 14be
000000e0: 5f42 10bb 21c9 023c 2d4f 3d3b 8228 07ba
000000f0: c95e 9fbe 1bbe 37be 60c3 123e 9cfb 31b6
00000100: 50ea 86bd cc81 87bd 0fdc a13c f7f3 45be
00000110: 932d 01bb aa34 e0bc 6bc3 f9bd b6ff 76bd
00000120: 3900 3a36 b2c0 12bd f88f 05bd 3f8d 2b3b
00000130: 505c 9abb 51a5 ad3d 2a8e 2b3d 84fa a0bd
00000140: 895a f638 25da f1bb 428a 7e3c 67e5 ba3a
00000150: ab7c dfbd 483c efbe d280 7ebc 1722 1d34
00000160: 96b9 5fbd 57c6 b0bc c599 863b ea59 a5bd
00000170: a035 4b3b 4fd8 c1bd f3ea 99bc 60d1 313d
00000180: 9273 97b6 fc8d 41bd 56f9 dc3c 659b 603a
00000190: 2a87 d8bc f983 b0bc 9f5b 303a 9b24 763c
000001a0: adef 7d3a 5884 ffbb 685b 683b ac6c 80ba
000001b0: a125 8a3d 0675 f03d d4df 833d 12ee 94b6
000001c0: 1736 953d ff80 b43d 48d1 e1bb 0758 b23d
000001d0: cbbc 75b9 1ac7 bf3c d6b8 88ba bb04 5dbd
000001e0: d7a4 17b7 a66e 4f3c 2513 73bd 94ab 8d3b
000001f0: 78ad e2ba 3675 ab3c d584 94bd c69e e43c
00000200: 3c6f 363b c94c 853c 01d3 74bc 2fa2 9cba
00000210: 3e55 f53c a0bc 703e 1249 1cbd 13f8 4d36
00000220: e004 2dbd 1ca5 1abe b6d5 823c 9f19 8e3d
00000230: 7570 c5b8 a516 063c 2eae 6fbc 3a99 ef3d
00000240: 4af3 d7b6 800b b33d 6c25 033e 3f7a 043c
00000250: fa99 a5bd 5482 6cbd 9e03 7e3d 52e1 973d
00000260: 6349 0f3b c0ad a63c 576f 5e3b 3fff b839
00000270: 9637 cd3b 0188 c2be 46df c33c 428c 0bb7
00000280: eea9 02be 7fa9 7fbd 1441 1ebd cfc2 fbbd
00000290: 4f3a 923b 3507 c9bd 977f 7cbe 9c85 a6bd
000002a0: 689c 0237 b9b1 523e dd5a f43b b228 9d3b
000002b0: 1bbf 95bc 01d3 25be 46c8 123e 5788 febd
000002c0: ddb5 713b 9d66 223d 5c61 973b 9115 71b9
000002d0: deb5 15be 0268 e7bc 4b91 08be ebcd 82b6
000002e0: 62d9 00bc fe84 ee3c 3301 c6bc 3933 27bc
000002f0: d8d8 40bb 551d e53a e1f0 853d 4b3a dabc
00000300: 05bc fab6 b198 97bd 5ab9 a0bd 144f 7238
00000310: be91 9a3d 27ea 833b 6b7a 9c3d 0d0b bd3d
00000320: 98f1 84ba cde5 0dbd f786 b83c f438 ed3a
00000330: a4f0 42be 23b9 88be 5dca 553d 509e 09b6
00000340: 4754 5c3c ac13 063e 1840 8ebb b7f7 203e
00000350: 2f3a 6a3b 7a89 32bd 7714 0a3d 2ebf c93c
00000360: 2ec0 9637 b397 d23d a61c 033d c5c1 70ba
00000370: 6195 7bbd e522 933d 8966 f138 0811 1b3e
00000380: 0ed9 c0bb 74ce 45bb ec2c 73bb 9cbf 9a39
00000390: c50e c83d dd66 00be fcc2 383d c8ea 3536
000003a0: 046d 153c e077 a1bd 102a 1dbc 5f31 d53d
000003b0: 425c 8b3a 8466 97bc 41f7 a4bd 4ba8 e2bd
000003c0: 45b7 8537 0c6f b1bd 28c5 953c 2a35 823b
000003d0: ee40 1abe 2f84 82be e4f6 263e 75b6 f1be
000003e0: 904e 82bb 1462 313d 0559 05bc 8cff 693a
000003f0: b0c6 b7bd 6893 9dbd aa32 87bd 1090 c5b5
-1.1564543e-06 0.07751396 0.0949676 0.0015000994 -0.06423557 -0.1454434 -0.042348836 -0.1520011
-0.0009949866 0.015824521 -0.014930896 -0.0025030652 -0.107883975 0.27291787 -0.100396335 4.9008045e-06
0.014685624 -0.19429244 -0.028307406 -0.09509493 -0.0030860056 -0.042542227 -0.052416213 -0.084686205
-7.174849e-06 -0.21706246 0.040224496 -0.016148914 0.09111024 -0.015784586 -0.19338357 -0.16413094
-0.0005197627 -0.00469326 -0.015420945 0.0007959841 -0.089094415 -0.057397656 -0.078818545 3.2332239e-06
0.02422663 -0.14227709 0.0060481993 -0.14909458 -0.006347377 -0.0360054 -0.0024808834 0.0026224775
-1.0087627e-05 -0.056904797 -0.10198319 -0.0056328643 -0.05616683 0.006549193 -0.0004538968 -0.14533974
-0.0022012217 0.007982523 0.0028886304 -0.00051558774 -0.31127003 -0.17943613 0.14332342 -2.6521511e-06
-0.0658766 -0.06616554 0.019758252 -0.19331346 -0.0019711002 -0.027368862 -0.12195476 -0.06030246
2.771629e-06 -0.0358283 -0.032608002 0.0026176719 -0.0047107115 0.08478797 0.041883625 -0.07860282
0.000117470576 -0.007380741 0.015535893 0.0014259041 -0.109124504 -0.46725678 -0.015533643 1.4634166e-07
-0.054620348 -0.02157895 0.004107686 -0.0807379 0.0031007305 -0.09465086 -0.01878879 0.043412566
-4.513605e-06 -0.047254547 0.026974361 0.00085680775 -0.026431639 -0.021547304 0.000672752 0.015023376
0.00096868986 -0.007797759 0.0035454873 -0.0009798012 0.067454584 0.117410704 0.06439176 -4.4384587e-06
0.072857074 0.088136666 -0.0068914033 0.08708196 -0.00023435352 0.023410369 -0.0010431062 -0.05395959
-9.038681e-06 0.012660658 -0.05934443 0.004323432 -0.0017294129 0.020929914 -0.07251898 0.02790774
0.0027837297 0.016271966 -0.014942885 -0.001195019 0.029947873 0.23509455 -0.038155623 3.0691779e-06
-0.042240977 -0.15102047 0.015971046 0.069384806 -9.414639e-05 0.00818411 -0.01462893 0.116991475
-6.435822e-06 0.08742428 0.12807244 0.008085786 -0.08086009 -0.057741478 0.06201517 0.07416023
0.002186381 0.020346522 0.0033940875 0.00035285388 0.00626273 -0.37994388 0.023910176 -8.317702e-06
-0.12760136 -0.062417503 -0.038636282 -0.12293016 0.0044625173 -0.09815828 -0.24658047 -0.08130953
7.78502e-06 0.20575608 0.007457121 0.004796111 -0.018279603 -0.16193773 0.14334211 -0.124283485
0.003688208 0.03964864 0.0046197604 -0.00022991585 -0.14620158 -0.028247837 -0.13336675 -3.898274e-06
-0.007864328 0.02911615 -0.024170494 -0.0102050835 -0.0029426124 0.0017480055 0.06540085 -0.026639124
-7.472469e-06 -0.074021704 -0.07847853 5.7770943e-05 0.07547329 0.004025716 0.07640537 0.092306234
-0.0010142801 -0.034642983 0.022525294 0.0018098638 -0.1903711 -0.26703748 0.05219494 -2.050674e-06
0.013447828 0.13093442 -0.0043411367 0.15719496 0.0035740247 -0.04358814 0.033710923 0.024627294
1.7970884e-05 0.102828406 0.032009743 -0.00091841473 -0.061421756 0.0718439 0.00011510874 0.15143216
-0.00588525 -0.003018287 -0.0037105633 0.0002951593 0.09768442 -0.12539239 0.045107827 2.7107762e-06
0.00912023 -0.078841925 -0.009592548 0.104098074 0.0010632353 -0.0184815 -0.080549724 -0.110672556
1.5940177e-05 -0.08663759 0.018282488 0.003973623 -0.15063831 -0.25491473 0.16305119 -0.47209516
-0.0039766505 0.043306425 -0.0081389 0.0008926324 -0.089734435 -0.07694131 -0.0660146 -1.4719571e-06

weight f4 [12]
00000000: 5641 ac3e c607 583e bf14 8e3e 60c2 863e
00000010: e5b3 473e ea33 473e bb0f 943e c1d1 6e3e
00000020: 5689 623e 5df0 3a3e e404 b83e 5b29 923e
0.33643597 0.21096715 0.27750203 0.2632017 0.19502218 0.19453397 0.2891825 0.23322202
0.22122702 0.18255754 0.3594123 0.28547177

bias f4 [12]
00000000: 6451 a63c 7b6b 153e 4c03 c03b d84f 643e
00000010: ea79 67bd fc03 be3d 6342 22bb d869 dbbc
00000020: dfb3 593e 9825 143d dabe 653e 7a0e 0b3e
0.020302482 0.14591782 0.005859768 0.22296083 -0.05651275 0.09278104 -0.0024758808 -0.026783869
0.21260022 0.036168665 0.22436085 0.13579741

running_mean f4 [12]
00000000: 2cc0 b43d 5f68 36be 5b46 8abe e633 cfbe
00000010: 27b9 ee3d d89f 303e aa4a 86be 856b adbd
00000020: 8f60 22be 7030 f0ba fb01 a3be 1e92 2d3e
0.088257164 -0.17813252 -0.27006802 -0.40469283 0.11656409 0.17248476 -0.2622884 -0.08467773
-0.15857147 -0.0018324982 -0.31837448 0.1695027

running_var f4 [12]
00000000: 3c0d 053c 90c2 a23b 9495 ca3b 7ce8 813c
00000010: 8771 cb3a 2181 a63b 764a 473c a48e 8e3b
00000020: 2595 e13b 35c2 4a3b 6def a03c ad39 f23b
0.008120831 0.0049670413 0.006182382 0.015857928 0.0015521505 0.0050813113 0.012163749 0.0043505
0.0068842345 0.003093851 0.019645417 0.0073921294

weight f4 [6, 12, 3, 3]
00000000: 997d 343c c12e 47be 6bad 5fbe c838 22bb
00000010: b1ec 22be 9283 5abd 884a 2ebd 6365 0d3d
00000020: efab c03d 6741 813d 549a e3bd 5f60 aabc
00000030: b94a 5abd 6dc2 18bc 1558 443c 7e70 edbc
00000040: 149e 193e 7a39 a13d 8865 b4bd c831 dfbd
00000050: 32bc b13d 3da3 8cbd 0a95 b43d 0b50 b23d
00000060: 20f1 073c 5662 1d3e 6674 4abd 90f8 f4bd
00000070: b2bb 0cbc c354 d23d f052 22bd 1556 263e
00000080: 99ad a23c 7503 c23d 6cbf 313a a862 35be
00000090: ff90 8fbd b5fc 8ebc 1316 34bd 9228 8e3c
000000a0: df6c ebbc 1f16 d5bc 088d b5bc cc99 32bd
000000b0: 0c7b e8bb b879 553d 4d2d 5c3d 6279 9dbd
000000c0: eb47 813d 2475 f5bc 0309 10bd 6f4c b9bd
000000d0: 8d71 cabd a765 833d a7db 32be db2e d83c
000000e0: c1e5 983d c51e 0fbd 8278 3b3e c654 973c
000000f0: cf18 f93d 28fe 08bd b645 4bbe 8c12 9b3d
00000100: c09c 8cbd fe8e 113d 10d1 aa3c 11f0 90bd
00000110: ae74 5cbc 8005 3ebc 826a 533c a046 9fbd
00000120: 4eed 1fbe f37c b23d 0670 bb3d 381e 0f3d
00000130: 51d1 1e3e 6577 7abd a8f3 233e 4a48 ccbd
00000140: 2736 40be 6798 04be f226 b23d fd83 163d
00000150: 18cd 06bc 30c2 fc3c 9045 20bc 3232 3d3c
00000160: f6ad 20be fecc e2bd 67fd ed3c a804 a8be
00000170: 8b9b 8a3d 8431 f5bd a6a3 e5bd a4bc 473e
00000180: f3d6 8ebd bb42 8f3e 7ab6 b93d bcda ee3b
00000190: 77f8 473e b72f 9f3c 90e6 493e 0e82 b6bc
000001a0: a4a6 44bc ecb2 c1bd 7f24 76be 2b58 8a3d
000001b0: 9280 8b3d 86a7 943d 0b9e 083d 60c1 01bd
000001c0: 7717 233d 121e 8c3d 2732 21bd 95f3 ce3d
000001d0: 8cbe c83d 95cb 8bbd 1879 573d b591 823d
000001e0: 811b aebd ecfc af3d f763 e73d d244 edbd
000001f0: 9804 983d 69e0 003e d9dd 8b3c e5dc ac3d
00000200: dd97 443c d185 693d a954 b33d 2161 79bc
00000210: 411a 6c3d 0acb 7e3d 6f6d 66bd 02be cdbc
00000220: 11c3 b739 90a3 3d3d cf2e c4bc 6299 223c
00000230: e5c1 0abc cd8c deb9 056e ff3c 7f45 403a
00000240: c18c 5e3d a423 afbc 1b9d bdbb 57a0 373d
00000250: 1ac6 54bd b1be a9bc 805a ff3c cdb5 46bd
00000260: 530b c2bc 36f3 5b3d 5888 8fbb cdca 8a3d
00000270: 0229 93bd b3b6 a9bd b99a c13d 245c f8bd
00000280: 2ca2 5ebd dd3e 9e3d eefa aabd 13f3 c4bd
00000290: f1eb 81bd 9342 a3bd 4ec2 b1bd 7532 adbd
000002a0: 3246 fa3c 7b8a 413d b4a0 2d3d cea5 da3d
000002b0: a3be 6c3c 4e0b f3ba 8eee 243e 57f9 4c3d
000002c0: 5d5e 82bc 3689 453e 846b c63d de59 0ebd
000002d0: 6d8d 8b3c 1640 823c 3264 fd3c fc7e 4c3d
000002e0: 2802 043c b238 cfbc 8dfa ae3d 6950 4dbc
000002f0: c075 c0bc 3d6a 68bd 8f7f 93bd 4f71 28bd
00000300: 7019 34bd bac6 56bd 6354 13bd 0225 7abc
00000310: d9db 803a 48aa 3b3a 6964 983d b198 113e
00000320: b11f 4cbd d819 0a3e 0564 283e d655 afbc
00000330: 222f 313e 896e 923e 3009 2e3d 04c0 4dbd
00000340: 5d91 2abd 4ce5 21bd e841 19bd 87bb 79bd
00000350: 20be a43c 258c c9bd 5082 1bbe 0574 493b
00000360: 7bd8 333b cc9d b4bd 59b4 153d 490e b93d
00000370: c942 13be c939 833d 02c1 c73d ffb1 75be
00000380: 7ed9 b13d 3599 933d 0356 f7bd 95c9 c43d
00000390: c1a1 023d 238b 57be b338 a43d 1a0f 04bd
000003a0: b038 39be 9c39 d63d cc2e 873c d75d b6bd
000003b0: 0f0f 6f3d fba3 83bc 2136 0cbe 9d27 963d
000003c0: 7814 babd ca7d 28be 6105 7dbd 98e1 6dbd
000003d0: dfaa ffbd 9c3c 8abd 2409 1fbd f3ab 33bd
000003e0: bafa b0bd 3090 abbd 3007 783d eccb 86bd
000003f0: da1c 9bbd c15c dd3c aad6 93bd b5d1 7dbd
0.011016273 -0.19451429 -0.21843497 -0.0024753083 -0.15910603 -0.05334813 -0.042551547 0.034520518
0.09407794 0.06311303 -0.1111342 -0.020797906 -0.053293917 -0.0093236985 0.011983891 -0.028984305
0.15001708 0.07872291 -0.08808428 -0.10898167 0.086784735 -0.06867073 0.088174894 0.08706673
0.008297235 0.15369543 -0.049427412 -0.11961472 -0.008589672 0.10270073 -0.039629877 0.16243775
0.019858168 0.094733156 0.0006780538 -0.17713416 -0.07010078 -0.017454484 -0.043966364 0.01735333
-0.028738437 -0.026011525 -0.022161976 -0.043603703 -0.0070947465 0.052118033 0.05375414 -0.076891676
0.063125454 -0.029963084 -0.035164844 -0.09047782 -0.09884939 0.06415873 -0.17466603 0.02638953
0.07465697 -0.034941453 0.18307689 0.01847304 0.12162935 -0.033445507 -0.19850811 0.07571897
-0.06865835 0.03553676 0.020851642 -0.07077039 -0.013455553 -0.011597991 0.012903811 -0.077771425
-0.15617868 0.087152384 0.09152226 0.03494093 0.15509535 -0.06114902 0.16010916 -0.099747255
-0.18770657 -0.12948762 0.086988345 0.036746968 -0.008227609 0.030854315 -0.00978221 0.011547612
-0.15691361 -0.110742554 0.029051496 -0.32816052 0.06767949 -0.11972335 -0.11212854 0.19505554
-0.06974592 0.279806 0.09068008 0.0072892588 0.19528376 0.019431932 0.19716859 -0.022278812
-0.012002621 -0.09457955 -0.2403736 0.06755098 0.06811632 0.07258515 0.033353847 -0.031678557
0.0398173 0.06841673 -0.03935447 0.10105053 0.09801969 -0.068259396 0.05260572 0.06375448
-0.0850134 0.08593163 0.11298364 -0.11585392 0.07422751 0.12585606 0.017073559 0.0844057
0.011999098 0.057012383 0.08756382 -0.015220911 0.057642225 0.062205352 -0.056256708 -0.025115017
0.00035049816 0.046298563 -0.023948101 0.009924265 -0.00846908 -0.00042448044 0.031180391 0.00073345745
0.054333452 -0.0213793 -0.0057865507 0.044830646 -0.051946737 -0.020720812 0.031171083 -0.048513222
-0.02368704 0.05369874 -0.004380267 0.067769624 -0.07185556 -0.082868 0.09453339 -0.121269494
-0.054353878 0.07726834 -0.08348642 -0.09616675 -0.063438304 -0.079716824 -0.08679639 -0.084568895
0.03055105 0.047251206 0.042389587 0.10676156 0.014449748 -0.0018542798 0.16106626 0.050042477
-0.015914137 0.19290623 0.09688476 -0.034753673 0.01703521 0.0158997 0.030931566 0.04992579
0.008057155 -0.02529559 0.085438825 -0.012531378 -0.023493648 -0.05674194 -0.07202064 -0.041123684
-0.04396957 -0.052435614 -0.03596915 -0.015267612 0.0009831145 0.0007158858 0.07441027 0.14218403
-0.04983491 0.13486421 0.16444404 -0.021403234 0.17303136 0.28599957 0.04248923 -0.05023195
-0.041642535 -0.039525315 -0.03741637 -0.060969856 0.02011019 -0.098411836 -0.15186429 0.003073932
0.0027442265 -0.0881916 0.036548946 0.09035928 -0.14380945 0.06407506 0.0975361 -0.23993681
0.086840615 0.07206956 -0.12076952 0.09608761 0.03189254 -0.2104917 0.08018627 -0.032240964
-0.18088031 0.10460207 0.016501807 -0.08904617 0.05836397 -0.016069403 -0.13692524 0.073317744
-0.09085935 -0.16454235 -0.061772708 -0.05807647 -0.12483763 -0.067498416 -0.038827077 -0.043865155
-0.08641572 -0.08377111 0.06055373 -0.06581864 -0.075738624 0.027021768 -0.07218678 -0.06196757

weight f4 [30]
00000000: 4279 1839 57e0 2f39 6fbc 2b3a 0db7 af3d
00000010: 922c 8735 7340 f834 5d60 c03e 3301 2c39
00000020: 7921 a13e b305 b438 7a6f 0b3e 4c0d 9b3e
00000030: ee75 823e d860 9934 804a 5c3e 6fe0 2c3e
00000040: 8e63 8735 f4fc 9d3e 8794 0d3f c245 013b
00000050: 895f 3b3e f89e 913e 9a0c d53e 8a80 6d3e
00000060: d1b8 693e ba96 8a3e 5db6 af37 baa1 b53e
00000070: 093b 8037 c008 3a3e
0.00014541022 0.00016772874 0.0006551211 0.08579836 1.0071255e-06 4.6240493e-07 0.3757352 0.00016403645
0.3147085 8.5841304e-05 0.13616744 0.30283582 0.25480598 2.8568934e-07 0.21512794 0.1688249
1.0087258e-06 0.3085705 0.5530476 0.0019725417 0.18298163 0.28441596 0.41611177 0.23193565
0.22824408 0.2706812 2.0946545e-05 0.3547495 1.528628e-05 0.181674
