checkpoint/FinetuneDensenet100-3-4_0.pth (torch_old, 429495 bytes, 498 tensors)

weight f4 [24, 3, 3, 3]
00000000: 7183 81be a27d 88be b2cc 44be 33cf 46bd
00000010: b881 82bc a0fd 3a3d 0c77 5c3e 5b60 a23e
00000020: 6841 333e cc19 16bd 1f31 3f3d 4465 93bd
00000030: 301e b93d b176 533e 512b 153e 7d97 cf3d
00000040: b2b4 7f3e 57b5 0b3e 0ea2 8b3e 7b87 a33e
00000050: 4ebb a13d 3d23 2e3e a1cc 513e c2c6 b63d
00000060: d5ec 94be 1fcb 8abe 7286 abbe 0c26 71be
00000070: 7ad1 c0be d01f e8bd 10ad 4bbe 5c7c 0bbe
00000080: 1865 523d e6d2 743e 1321 a03e e13a 3e3e
00000090: c96d bfbe d78c ecbe 4300 6fbe fd00 51be
000000a0: 6d09 0bbe 11bd 9a3b f829 c93e 4b07 073f
000000b0: 30c8 8d3e 6f32 7dbe 1d91 e3be 269b 6fbe
000000c0: 4003 93bd 3296 8cbd 9550 303c 6639 013f
000000d0: 2267 173f 6273 bf3e 08f6 cabc 76d6 c53e
000000e0: bf06 85bd 4cd3 b93e 13f6 80bf 6aa1 de3e
000000f0: 33c9 9bbd 2b39 033e 6958 ecbd f96e b33c
00000100: c792 67be f2f2 40bc 1f27 123f 6500 c8bf
00000110: bab0 f93e 7621 20bb 70ce ed3e df48 163d
00000120: 1b6b ccbd a568 2b3e 5122 a4bc e306 fd3e
00000130: 3205 c9be 8670 9f3e 97da 69bd 662e 9bbd
00000140: 8d76 623a 5e41 503e 9dc3 133e d941 7e3e
00000150: 2aab c0bd bcf5 a9be 8c10 2f3e 2879 c83d
00000160: c883 b4bd c099 573e 25c3 a83d 3b0d bbbe
00000170: 0fde 153d 7e86 3cbe 5934 5abf 51bc 9dbd
00000180: be60 6f3e 6b4e 74be c2f9 053e 05dd 28bd
00000190: 1bd1 59be 54ba a4bd 191f 7dbe 2583 23bf
000001a0: 8108 46be eef9 2e3c 1924 82be 1546 d9bd
000001b0: bda1 ab3e e467 8f3e 4c66 ca3e 2275 8f3e
000001c0: e359 8d3e 3dac c13e d94a 073e eb7c 2d3e
000001d0: f5ae 7e3e c7f2 433c c535 ccbd 7931 633a
000001e0: 4b36 4dbc 8c70 e1bd c2b5 49bd 8e79 68bd
000001f0: a36b eabd 8c57 94bd 7be0 3a3d d49c 9ebd
00000200: 9a00 4abc 1c85 8abd 5188 67be 9865 33be
00000210: 104c 1fbe a36d 94be 6c37 7abe 3190 b73c
00000220: 7bb0 003f bf61 43bc 72cd e03c 296f 31bf
00000230: dea8 52bc 1247 063d fcb0 dc3e dd11 a1bd
00000240: 729d 71bd b751 e03e 58d3 043d 3c9e 4dbe
00000250: e6ee abbf b674 dabc 855a 9f3d 63fa 133f
00000260: c784 813e 0ab9 eb3c 6b05 cb3e 7c3b 873d
00000270: 10fa 46bb 5938 f4be b4a5 c7bc c5e3 9c3c
00000280: 4da0 9b3e efcb 1cbd e904 6b3d d893 453e
00000290: 5e41 573d 8246 9f3e bca8 1f3f d4e7 c23e
000002a0: fd45 213d c7f7 ba3e 8d9b d23d 279e c2bd
000002b0: b46f 83be cfa3 0d3d d6d3 2cbf 3de9 8bbf
000002c0: a8c0 1cbf ba3d 07bf d3a2 72bf dbbd 13bf
000002d0: c644 ba3d 5603 393e c165 653d 0a31 c43e
000002e0: fd60 a43e 4a79 a23e 1c35 fe3e 83fe fa3e
000002f0: 4168 e83e de15 28bf d40d 74bf f2d0 19bf
00000300: 6044 c23d daf2 113e f207 0f3e f651 413f
00000310: 82a1 8b3f 85f4 473f 5def 833e 31a1 623e
00000320: 6677 843e 49f0 e7bd e81b c1be bb0b 28be
00000330: 685a 36bd c203 d0be faad 8fbd 346c bb3e
00000340: b568 483f bd59 933e 57f0 053e 95fb 0a3d
00000350: 9895 e63c c1df 05bf 6a65 61bf 6478 f0be
00000360: 2a5a 843e 8c77 95bd 6821 15be 0453 283f
00000370: b154 16be b431 1abf f5db 0c3e 1ac2 bfbb
00000380: e6c6 fbbc 8d98 bf3e a8f4 50be 84b3 dbbe
00000390: 9532 633f a76d 3cbe e800 60bf 1586 6b3e
000003a0: 46a5 293d aa8a 35be 3e3d 0a3e 573d 2bbe
000003b0: 05fc 0ebe 5986 323f c7f6 bfbd 126f 18bf
000003c0: f0cb c73d 5220 313d a759 09bd 32ae 043e
000003d0: 379b e9bd 9cc4 0f3e 7654 0abe a649 9bbe
000003e0: 12f4 fd3e 3095 8b3d 4914 15be 9af5 0c3d
000003f0: 1477 07be 58cb b9be 076f 893e 02bb b4be
-0.25295594 -0.2665835 -0.1921871 -0.048537444 -0.015930995 0.045652032 0.21529788 0.31714138
0.17505419 -0.036645696 0.046677705 -0.07197049 0.09038961 0.20650746 0.14567305 0.10136316
0.24971274 0.13643394 0.27272075 0.319393 0.07897054 0.1700563 0.20488216 0.08924629
-0.29086939 -0.27108094 -0.3350101 -0.2354967 -0.37659818 -0.11334193 -0.19890237 -0.13621658
0.05136594 0.23908576 0.31275234 0.18577148 -0.37388447 -0.46201202 -0.23339944 -0.20410533
-0.13577814 0.0047222455 0.39289832 0.52745503 0.27691793 -0.2472627 -0.4444665 -0.23399028
-0.07178354 -0.06864585 0.0107614 0.5047821 0.59141743 0.37392718 -0.02477552 0.38640183
-0.06495427 0.3629402 -1.0075096 0.43482524 -0.07606735 0.12814777 -0.115403004 0.021903502
-0.22614585 -0.011776673 0.57090944 -1.562512 0.48767644 -0.0024434007 0.46446562 0.03669059
-0.09981366 0.16739137 -0.020035895 0.49419317 -0.39261776 0.31140536 -0.05709323 -0.07577209
0.0008638881 0.20337436 0.1443009 0.24829806 -0.09407647 -0.33195293 0.17096156 0.09788734
-0.08814198 0.21054745 0.08240346 -0.36533532 0.036588725 -0.1841068 -0.85236126 -0.07701934
0.23376748 -0.23858039 0.13083556 -0.041226406 -0.21271174 -0.08043352 -0.24718894 -0.63871986
-0.19339181 0.010679705 -0.25418165 -0.1060907 0.33521834 0.2800895 0.3953117 0.28019053
0.2760764 0.3782672 0.13212146 0.16942184 0.24871428 0.011959738 -0.09971193 0.0008666735
-0.0125251515 -0.11007795 -0.049245603 -0.05675655 -0.11446311 -0.07243261 0.045624238 -0.07744756
-0.012329245 -0.0676367 -0.22610594 -0.17519224 -0.1555636 -0.28989896 -0.24435204 0.022407623
0.5026929 -0.01192516 0.027441714 -0.6931024 -0.012857644 0.03278262 0.43103778 -0.07864735
-0.058988042 0.43812343 0.032428116 -0.20079893 -1.3432281 -0.02666698 0.07780937 0.57803935
0.25296614 0.028774757 0.3965257 0.066031426 -0.0030361451 -0.4769924 -0.024371006 0.019151578
0.30395737 -0.038280424 0.05737773 0.19294679 0.052552573 0.3110848 0.62366843 0.38067496
0.039373387 0.36517164 0.10283575 -0.095028214 -0.2567116 0.03458005 -0.67510736 -1.0930554
-0.6123147 -0.5282856 -0.947797 -0.5771157 0.09095149 0.18067679 0.056005243 0.38318664
0.32105246 0.3173316 0.49649894 0.49022302 0.4539204 -0.65658367 -0.953336 -0.6008445
0.09485698 0.14252797 0.13967875 0.7551569 1.0908663 0.7810748 0.25768557 0.22131802
0.25872344 -0.11325128 -0.37716603 -0.16410725 -0.044519812 -0.40627867 -0.07015605 0.3660599
0.7828477 0.28779402 0.13079964 0.033931334 0.028147504 -0.52294546 -0.8804537 -0.4696685
0.2585004 -0.072981924 -0.14563525 0.6575167 -0.14680745 -0.6023209 0.13755782 -0.005851996
-0.03073449 0.37421075 -0.20405829 -0.42910397 0.8874906 -0.18401204 -0.8750138 0.23000367
0.041417383 -0.17728677 0.13499925 -0.16722618 -0.13963325 0.6973625 -0.09373241 -0.5954448
0.09755695 0.043243714 -0.033532765 0.12957075 -0.11406558 0.14039844 -0.13508782 -0.30329627
0.49600273 0.06815565 -0.1455852 0.03441391 -0.13229018 -0.3628795 0.2684252 -0.35298926

weight f4 [24]
00000000: 9a96 a63e 4514 363e 7ce2 3c3e 66e2 1b3f
00000010: 801d 733e 1dcb 823e e809 9b3e a411 933e
00000020: 2324 a63e abd7 9336 86ea 243e f7d8 733e
00000030: 1f7d 653d e314 8d3e 50be 993e 7368 af3e
00000040: 7b42 1b3e b855 403b 174a 443e 6056 993c
00000050: a3a6 cc38 7e6a 873e 8875 253e e7f7 753e
0.32536775 0.1778117 0.18445772 0.6089233 0.23741722 0.25545588 0.30280995 0.28724396
0.32449445 4.4060484e-06 0.16105089 0.23813234 0.056027528 0.27554998 0.3002801 0.34259376
0.15162079 0.0029347967 0.19168888 0.018717945 9.7585165e-05 0.26448435 0.16158116 0.24020348

bias f4 [24]
00000000: f591 c93d 302f d23c 1191 bc3d 293a 91be
00000010: edff 43bd aad8 08be 6de7 933e 0731 dd3e
00000020: 8aca a4bd 7cf3 0fb8 fa52 fc3a ca60 853e
00000030: c7b1 8ebc 564a 38be 9dd2 80be 318e 543e
00000040: cb88 04bb f6bf 18bd 0896 c03e 375f 113b
00000050: 383c 22ba 0a76 6f3f 71a0 debd 6ba4 493e
0.09842292 0.025657266 0.09207357 -0.28364685 -0.04785149 -0.13363901 0.288875 0.43201467
-0.08046444 -3.432062e-05 0.0019250803 0.26050407 -0.017418755 -0.17997107 -0.25160685 0.20757367
-0.0020223137 -0.037292443 0.37614465 0.0022181997 -0.0006188783 0.9353949 -0.108704455 0.19691627

running_mean f4 [24]
00000000: ca65 653d c9ad 38bd c386 89bb 9d60 07be
00000010: 89ee 133d 8571 04bc 4faa 243d ec1e a93c
00000020: 60b7 9fbc b85c a0bc 35d7 3b3b a751 cdbb
00000030: fda8 9cbd 8859 853d 9fea 0e3c 7c1b eb3b
00000040: 04b9 9cbd f7b4 6dbd d5b6 1abc 04fc 493d
00000050: 3805 c33c 63b3 0e39 cf41 d53c f860 72bb
0.056005277 -0.04508761 -0.004196973 -0.13220449 0.036116157 -0.008083706 0.04020148 0.020644628
-0.01949662 -0.019575462 0.002866221 -0.0062658372 -0.076494195 0.06511217 0.00872293 0.0071749073
-0.076524764 -0.05803391 -0.009443005 0.049312606 0.0238062 0.00013609002 0.026032357 -0.0036984067

running_var f4 [24]
00000000: f9a6 d93f 5541 a840 5f0a 203f e67d 1e41
00000010: 61b1 2d40 2758 543f f857 0a40 db06 713f
00000020: da4b a940 57c0 f93f 2465 d33e 93eb 473f
00000030: 9a78 9a40 cc93 8140 8f25 9840 9b7e 8a40
00000040: e5ad 5140 2490 3240 d236 df3e ff0b 9240
00000050: 24c9 1541 7c35 913f 1915 5640 8a4b f43f
1.7004081 5.257975 0.62515825 9.905737 2.7139513 0.8294701 2.1616192 0.94151086
5.290509 1.9511822 0.41288102 0.7809383 4.827222 4.0492916 4.754585 4.327955
3.2762387 2.7900476 0.43596512 4.5639644 9.361607 1.1344447 3.3450377 1.9085553

weight f4 [12, 24, 1, 1]
00000000: c464 05bc 9816 ab3c 2303 4cbe e975 97be
00000010: b411 e4bd 1127 9dbd 594c 98bd edeb ad3d
00000020: 7c0c 96be 7a41 5c37 d1a1 c2bc f48b 053e
00000030: 6680 f0bb 67df 433d b374 91bc 538a 2d3d
00000040: 8a4e 23bc b5c2 f6bb c2e1 2dbd fdfa 0c3a
00000050: 5fc8 cfb7 d330 013f 5a50 33be 5fcd f7bc
00000060: fa34 04bd cdf9 66bd 6372 8fbd 95df abbd
00000070: ac83 073e cfd4 e23c 3f01 80be 4e99 a8be
00000080: 3150 9fbc d647 50b7 2a0a 4fbc 6b38 723d
00000090: 3695 0ebd 938f d83c c34d 033e e09e 61be
000000a0: bd48 793c b8d7 1c3d 1b61 5c3e 110c 8bbb
000000b0: 3a0f bbb9 d846 243d b3cf 24bd 7bf3 953e
000000c0: b20d 37be 7769 80bd fe24 903d 375e 193f
000000d0: 3b5e 29be 1dcf d0bd 9a6b e0bc 53ff 82bd
000000e0: 2378 e63d 9625 96b6 b597 743d df28 84bd
000000f0: d1ce b7bc 149c 8e3d 3cbf d8bb dd74 e0be
00000100: aa09 00be 730e b4bb 4aee c439 261d 0f3b
00000110: 9e54 0a39 467a a23d 176b 12bc ef27 55be
00000120: f60a 9fbd 9a5e 2fbc 7193 1f3d 3cb1 cdbd
00000130: a31c 28be ef9c 813d 17e0 6fbe 5a2d 78be
00000140: a277 293d 60b3 0db7 047c d7bd f8b2 49be
00000150: 5cdd cdbc cae3 76bd bb72 ff3c fcb8 5cbe
00000160: ccd4 11bd d44e 44bb bc12 703d 5d21 4fbc
00000170: b4c7 dab8 4832 69be 73d0 1cba a90d 783c
00000180: 6260 793e 786c caba 6f7c 133e b521 453e
00000190: 85f7 923d 53db 8b3d e235 cebd ea00 663c
000001a0: 219b 72bd e646 ee36 4a38 653d 5bf5 933e
000001b0: 88c2 073c 780c 4bbe 3eea 6dbd 4245 2fbe
000001c0: f788 633d 7152 be3c 1b0a c53d 7e75 0d3c
000001d0: 4608 12b9 381b 543d e9cd 40bd f53b 853d
000001e0: 50cf 73bc a3a5 873d 9e04 2e3d 10b9 b4bc
000001f0: 0f36 1a3d d0df 7e3d c4e4 d83d 435a 9dbc
00000200: 7100 543c 2c21 c937 904c d1bb 9165 a4bc
00000210: 946b 463c 2daa 8c3d 5af2 e3bb 328b 453e
00000220: 4110 ac3d 6dd5 0dba b6ac a93d 07f2 95bb
00000230: 819c 5f39 05fd 1b3e 2dfb bc3b f146 c73d
00000240: 5c11 e83c 6213 0c3e be14 663d 3303 e33d
00000250: 0bb8 99bc 98f0 643e 5cab 06be 0574 df3d
00000260: b1cf f83d 8720 9f37 6704 603c eeaa adbd
00000270: 068a b83c d8a6 f13c 7ffe 8d3d aa4e 993b
00000280: 8453 6b3d 4083 653c 9b48 a8bd b0a0 beb9
00000290: 55d0 013a a7d0 833d 9bec 0a3d 1bc9 293e
000002a0: a0db 0ebe 5993 55bd 2680 e5bd 24c8 ef3d
000002b0: fbf5 acbd 686e babc 6136 d73e 0a24 763e
000002c0: 418f d8bd f55f 03b5 8401 33bd 4648 093e
000002d0: 4749 9ebb f4cf 99bd 29ff eebd 2462 47be
000002e0: ac2c 93bd 6495 a9bc 74c0 83be 0c95 a23b
000002f0: 5fbd c5b9 3e33 283d 2f4d 8cbd d7ab 19be
00000300: 4db5 263d f923 303b 1744 15be 789d 01be
00000310: e9ad 28bc f1f1 afbd 62ae 3dbd 3ebd 1c3c
00000320: 5337 a4bd ca04 a3b7 cdbb a9bd 6a4b e53d
00000330: 43b1 97bc 30c4 7f3d 87e6 a5be 4945 c2bd
00000340: 0b21 cdbc 133e 89bc 7317 10be 99af a93b
00000350: b965 1bb9 adc7 1abf 3c57 ef3b 34f7 2cbe
00000360: 9c65 45be 2a5e 2abe 863b 23bd 8798 0abd
00000370: d351 36be c605 3d3e 0c37 d5bd e133 b9be
00000380: aba4 4e3c 07c5 46b7 ce1a e0bd 5eae 233e
00000390: 8a39 af3b 502b 3fbe 76e3 10be b570 52bd
000003a0: 6802 903c 9b93 7bbc 08ad cdbd 8bfd 23bc
000003b0: aa91 c6b8 357b 5c3e a9f8 9fbc 446e 613d
000003c0: 8274 9b3e 0c0c c9bd 50b5 20bd 8ddd 97be
000003d0: 6f12 75bd 5764 b9bd 6560 923d 6d09 853e
000003e0: d2c0 03be 7f6b 71b5 f45d 94bd 42cc b6be
000003f0: 593c e63c 2801 063e d025 8bbd 0281 833d
-0.0081417 0.020884797 -0.19923072 -0.29582146 -0.11136189 -0.07673467 -0.07436437 0.08492265
-0.293064 1.3128267e-05 -0.0237588 0.13041669 -0.007339525 0.047820475 -0.017755842 0.042368244
-0.009967456 -0.007530535 -0.042451628 0.00053779763 -2.4769628e-05 0.50465125 -0.1751112 -0.030249296
-0.032277085 -0.056390572 -0.070042394 -0.08392254 0.13233823 0.027689366 -0.2500095 -0.32929462
-0.019447418 -1.2414492e-05 -0.012636701 0.059135836 -0.034810267 0.026435649 0.12822632 -0.22033262
0.015215096 0.038291663 0.21521418 -0.004243382 -0.00035678764 0.040106624 -0.04023714 0.29287323
-0.17876318 -0.06270116 0.07038306 0.59909385 -0.16539852 -0.10195754 -0.027395058 -0.063963555
0.11253383 -4.474724e-06 0.05971499 -0.06453108 -0.022437485 0.06963363 -0.006614594 -0.4383916
-0.12503687 -0.0054948865 0.00037561572 0.0021837442 0.00013192228 0.07933478 -0.008936665 -0.20816015
-0.077657625 -0.010703707 0.03895897 -0.100435704 -0.16417174 0.06328761 -0.23425327 -0.2423605
0.041373856 -8.446019e-06 -0.10521701 -0.19697177 -0.025129966 -0.06027583 0.031182637 -0.21554941
-0.03560333 -0.0029954212 0.058611616 -0.012642232 -0.00010432248 -0.22773087 -0.0005981989 0.015139976
0.24353173 -0.0015443703 0.14402936 0.1925114 0.07176117 0.06828942 -0.10068871 0.014038304
-0.059229974 7.1012064e-06 0.055961885 0.2889813 0.008286126 -0.19828975 -0.05808472 -0.17116264
0.05555054 0.02323267 0.09621068 0.008633969 -0.00013926727 0.05178377 -0.04707137 0.065055765
-0.01488097 0.066233896 0.042484872 -0.0220609 0.03764921 0.062225163 0.105905086 -0.01920808
0.012939558 2.3976514e-05 -0.006387301 -0.020067962 0.01211061 0.06868396 -0.006956381 0.1929138
0.08401538 -0.0005410526 0.08284895 -0.004575971 0.0002132524 0.15233238 0.005767247 0.09730328
0.02832859 0.13679269 0.056172125 0.110845946 -0.018764516 0.22357404 -0.13151306 0.10910801
0.12148989 1.8969424e-05 0.013672925 -0.08479868 0.022526752 0.029498503 0.06933307 0.004678567
0.057452694 0.014008343 -0.082169734 -0.00036359346 0.00049520034 0.06436282 0.03391705 0.16580622
-0.13950968 -0.052142475 -0.11206083 0.11708096 -0.084453546 -0.022757724 0.42033675 0.24037185
-0.105741985 -4.894094e-07 -0.043702617 0.13406476 -0.0048305127 -0.07510367 -0.11669762 -0.19471031
-0.07186255 -0.020701118 -0.25732768 0.0049616154 -0.0003771586 0.041064493 -0.06850659 -0.15006958
0.040700246 0.002687691 -0.14576755 -0.12657726 -0.01029537 -0.085910685 -0.046308883 0.009566603
-0.08018365 -1.9433344e-05 -0.08287773 0.11196025 -0.018517142 0.06244296 -0.3240244 -0.09485871
-0.02504017 -0.016753232 -0.14071445 0.0051784036 -0.00014819847 -0.6046093 0.0073041003 -0.16891176
-0.19277042 -0.16637483 -0.039851688 -0.033836868 -0.17804651 0.18459234 -0.1041089 -0.36172393
0.012612502 -1.1847594e-05 -0.109426126 0.15984485 0.0053474354 -0.18668866 -0.1414927 -0.051377017
0.017579272 -0.015355016 -0.10042769 -0.01000918 -9.468508e-05 0.21531375 -0.01952775 0.055036798
0.30362326 -0.09816751 -0.039235413 -0.29661217 -0.059832033 -0.090523414 0.07147292 0.25983754
-0.12866524 -8.9935924e-07 -0.07244483 -0.3570271 0.028104948 0.13086379 -0.067943215 0.06421091

weight f4 [12]
00000000: b9b2 cc3e 9fd6 563e c096 163f d96a 833e
00000010: c83e b33e 017c 923e b807 9f3e df32 bc3e
00000020: 19b4 a43e ec52 de3e f01e 923e f4ad e33e
0.39980105 0.20980309 0.58823776 0.25667456 0.35008836 0.28610232 0.31060576 0.36757562
0.32168654 0.4342264 0.28539228 0.44468653

bias f4 [12]
00000000: 83ed a43e 1b48 d33e 32aa a4be d2d5 753d
00000010: 99e0 1cbe df5e 36be 5990 80be aa71 7a3d
00000020: 129b f03e d7d5 1ebe eb58 613e f660 2cbe
0.32212457 0.4126595 -0.321611 0.060018368 -0.15320052 -0.17809628 -0.2511013 0.061143555
0.4699331 -0.15511261 0.22006576 -0.16833863

running_mean f4 [12]
00000000: e6a1 d33e 6f00 cbbd b9da d4bd acac 05bf
00000010: 4ceb 463e c522 923e 3055 e33d 1126 9d3d
00000020: fd9e 36bf 609a 8bbd 5de9 99bd aa40 06bf
0.41334456 -0.09912192 -0.103932805 -0.522166 0.19425696 0.28542152 0.111002326 0.07673276
-0.71336347 -0.06816554 -0.07515214 -0.5244242

running_var f4 [12]
00000000: 2bc6 e13c 5167 e33c 53d5 293d ab8e 853c
00000010: 087e 333c c034 e43b f9ba e03b d48b cf3c
00000020: a482 ee3c 5c94 ae3c 23bd 1c3d 77bf 9b3c
0.027560314 0.027759226 0.041463207 0.016303381 0.010955341 0.006964296 0.0068582264 0.02533523
0.029115029 0.021310978 0.038266312 0.019012196

weight f4 [3, 12, 3, 3]
00000000: ebc1 d3bd e15e bbbd 4e5f 87bd f644 873d
00000010: 78b0 acbe b871 a93d 747d 793d 895d e7bd
00000020: f926 833e a41f 0abe 1f7d b1ba ca0e 753e
00000030: ecf9 90be 12ff 17be 68c6 b53d ee10 b53b
00000040: 1062 e03d 52e0 8b3d 060f 943d 3e75 10be
00000050: 7431 78be 5d0f 7a3e 5211 3c3e d153 b9bd
00000060: 3dd6 5c3e 63ec f43c effb c6bd 6c78 f9bc
00000070: fa95 8f3d 3523 383e 887b 01be bb31 cabb
00000080: e504 f93c 7c85 1ebb af17 873d 9e1c eab8
00000090: ebab ce3d 09d8 0dbc 84a1 1c3d 9b20 84bd
000000a0: 6117 e6bd a4d9 0cbd 18ce 343d 0277 7fbc
000000b0: 31a1 0d3c 6477 8a3d 2778 9c3d 00e7 123d
000000c0: ddf5 213d 4913 133d a5a1 b03c 20d6 b53d
000000d0: 1962 8e3d cf84 233d 1b10 123e ff7c 243e
000000e0: 8bdc 123e e1a1 913c 1962 48bd 0469 42bd
000000f0: ad4c 173d 2ff1 fd3c dee9 433d 1669 903e
00000100: ca1c 663c de7b bfbe 108d 8b3e 4d1f 7c3d
00000110: 1505 a6be 55e2 023e 221a 97bc ec8d 2dbe
00000120: 98bd 1ebc ba72 793e 0fd2 6fbd bce5 43be
00000130: 2fd0 f33e c32c 953c a8b8 d1bd e393 1c3e
00000140: 8ea1 04bd 67e1 153d 035b 6bbd 45ca 95bd
00000150: ecd6 063d cef3 35be 6e80 883c 5ebd 753d
00000160: 8154 dfbd f4c5 84bc 8f51 043d 103b 9e3d
00000170: db7b d5bb be25 8ebd 4654 b9bd 31f1 913d
00000180: c2e3 1ebe 6cce 2abe 7192 503e 8ff5 d03c
00000190: ce70 403e 2c6c b23d 05fd 8dbd 7d64 293e
000001a0: 05fb 80bb ae51 9b3d 65e2 b93d f09f 8ebd
000001b0: bd6a 49be d1e4 e13d f82d 0f3e 77cf f7be
000001c0: 9f14 43bb 56a4 bc3e 82a5 bbbe e262 b9bc
000001d0: 8087 3b3e fb43 323c 0410 3fbd 79c6 673c
000001e0: c41c cf3c 4f19 12be 902a dd3d 3cde e13b
000001f0: 41bf 56be e415 123e 6c7f 08bc acb8 8dbe
00000200: 062d 20bc df2a ddbd 4fe3 a6be be6d 16bd
00000210: 9a02 833d 70c8 fbbd 2671 f13d 06c1 dd3d
00000220: 1a84 85ba 8f59 aabd 209f 063e 712d 3bbc
00000230: a1e5 7fbd 7eb9 fd3d 923f d83b cf19 943d
00000240: de48 713d a2c0 933c c0b9 023d 8c01 98bc
00000250: 8ee4 a5bd e544 11bd 26d4 48bc d490 10be
00000260: a964 b1bc 746e e6bd 7958 edbd 0018 01be
00000270: 12ff 95bd 032f 60bd 1671 73bd d296 63bd
00000280: b041 a1bc d591 99bc 358c d4bc effa b9bd
00000290: 5a63 eebd c158 8fbd 14a7 c7bd 1a00 a7bd
000002a0: 22a3 8ebd 6860 c1bd a724 0fbd 818e 8fbd
000002b0: c3ec 93bd 1536 4dbd 2049 b6bd 922c 253d
000002c0: 7e35 0abd 7334 b73b b210 633e a7c9 d43b
000002d0: 66af 7a3e c1bf 953c a779 06be a626 b23e
000002e0: 2e1a 8dbd 5968 ebbe c101 2e3e 264a 25bd
000002f0: 33fb 9abe e990 03be eee2 133e 5ceb 3a3d
00000300: 4d2b 03be 1782 f93c 033a da3d 3971 dc3d
00000310: 0371 e13d d23e 3f3e 2718 8fbb f382 a2bd
00000320: 904a f03d 84ce 1f3d a36f f4bc 5767 983d
00000330: 47d7 9a3d 4eea 0b3e dfa0 1d3d 854e 733e
00000340: 811e 3dbd a94e 47be 0564 813e 8f54 30bd
00000350: 38fa 24be 340c c33d ca95 713b 2688 4dbd
00000360: 0fd5 2e3e 2cd2 1ebe abef 9ebe 6902 00be
00000370: e8f9 fe3d e9cb 8e3e be88 20be 1b8f ab3d
00000380: 2b3e 48be c13b 403e 6af9 c63e 2dbb 133e
00000390: e0d8 0abe 04a4 02be 1c4b c9bc f7cd 06be
000003a0: 6490 ddbe 34b8 f2bd fd00 303e 7b69 5e3e
000003b0: b21f e53c ca15 abbe f307 40be 8807 8bbe
000003c0: 44ee b4bd 45ac cfbd 6ccc 1dbe 68d2 e53d
000003d0: 0dfc 8b3e 8f98 923e f930 9bbd 0cac 21be
000003e0: 6667 7cbd 11b7 25bd 28f3 55be 650f 4f3d
000003f0: da24 323c 9d3d 1f3e a98c 88bd 3b44 26be
-0.10339721 -0.09148956 -0.06609975 0.0660495 -0.33728385 0.08273643 0.060910657 -0.11297137
0.2561567 -0.13488632 -0.0013541317 0.23931423 -0.28315675 -0.14843395 0.088757336 0.0055257
0.10956204 0.06829895 0.07229428 -0.14107224 -0.24237615 0.24419923 0.18365982 -0.0904919
0.215661 0.029897874 -0.09716021 -0.03045293 0.07011028 0.1798218 -0.1264478 -0.006170479
0.030397842 -0.002418845 0.06596314 -0.0001116332 0.100913845 -0.008657464 0.03823997 -0.064515315
-0.11234928 -0.034387246 0.04414186 -0.0155923385 0.008644388 0.06761053 0.07640105 0.03586483
0.039541114 0.035907064 0.021561453 0.08878732 0.069523044 0.039921578 0.14263956 0.16063307
0.14341943 0.017777385 -0.04892168 -0.047463432 0.036938358 0.030998794 0.047830455 0.28205174
0.01404495 -0.3739919 0.2725606 0.06155329 -0.32425752 0.12781651 -0.018445078 -0.1694867
-0.009688757 0.24360171 -0.058549937 -0.19130605 0.4761977 0.01820982 -0.102402985 0.1529079
-0.032380633 0.036591914 -0.057459842 -0.073139705 0.03291981 -0.17768785 0.016662803 0.059995048
-0.1090479 -0.016207673 0.032304343 0.07726109 -0.006515009 -0.069407925 -0.09049277 0.07126082
-0.1551657 -0.16680306 0.20368363 0.025507716 0.18793032 0.087120384 -0.06933025 0.1654224
-0.003936174 0.075839385 0.090763845 -0.069640994 -0.19669624 0.110299714 0.1398238 -0.4840047
-0.002976693 0.36844128 -0.3664971 -0.022630159 0.18313408 0.010880466 -0.046646133 0.014146441
0.025282271 -0.14267467 0.10799134 0.0068929475 -0.20971395 0.14266163 -0.008331161 -0.27679956
-0.009776359 -0.10799193 -0.32595298 -0.036725752 0.063969806 -0.1229409 0.117891595 0.10827832
-0.0010186464 -0.08317863 0.13146639 -0.011424408 -0.06247485 0.123888955 0.006599375 0.07231485
0.058907382 0.01803619 0.031915426 -0.018555425 -0.08100234 -0.035466094 -0.012257611 -0.14117748
-0.021654444 -0.11251536 -0.115891404 -0.12606812 -0.073240414 -0.054732334 -0.05943402 -0.055563755
-0.019684643 -0.018746296 -0.025945762 -0.09081065 -0.116400436 -0.0699935 -0.097486645 -0.08154316
-0.06964709 -0.09442216 -0.034947064 -0.07009602 -0.07222893 -0.050100405 -0.08900666 0.04032571
-0.03374242 0.005590969 0.22174338 0.0064937654 0.24480972 0.018279912 -0.13132344 0.3479511
-0.06889759 -0.45978048 0.16992857 -0.040353917 -0.30269775 -0.12848248 0.14442036 0.045634612
-0.12809487 0.03045754 0.10655596 0.10763783 0.110078834 0.18676308 -0.004366893 -0.07935133
0.11732972 0.039015308 -0.029838389 0.074415855 0.07560592 0.13663599 0.038483497 0.23760422
-0.04617167 -0.194636 0.2527162 -0.04304939 -0.16111076 0.09523812 0.0036862963 -0.05017867
0.17073463 -0.15509862 -0.31042227 -0.1250092 0.124500096 0.27889946 -0.15677163 0.083769046
-0.19554965 0.18772794 0.38862163 0.1442687 -0.13559294 -0.1275788 -0.024571948 -0.13164507
-0.43274224 -0.1185154 0.17187877 0.21719925 0.027969215 -0.3341506 -0.18753032 -0.27154183
-0.08834508 -0.1014028 -0.15410012 0.112217724 0.27340737 0.28632018 -0.075777 -0.15788287
-0.061622046 -0.04045779 -0.20893538 0.05055179 0.010873044 0.15550847 -0.06667454 -0.16236965

weight f4 [27]
00000000: 409c 933e 79cd 7737 2d93 9b37 1c3a 3b35
00000010: 51e9 543e fb8e a63c 832d 2236 6f34 2535
00000020: e93e dc36 5f6c 4233 0ea1 16b4 37d4 e33e
00000030: 161b a33e 2795 733b 720f 4036 dc07 0a36
00000040: ef25 c036 1413 dd3e 2fd3 efb2 46d8 ea35
00000050: 2228 1ab2 1a67 7f34 c8f4 883b adc7 a83e
00000060: 6939 d03e fa53 d63e ca77 c335
0.28830147 1.4770188e-05 1.8545974e-05 6.974749e-07 0.20792128 0.02033185 2.4166372e-06 6.154359e-07
6.5638346e-06 4.5267708e-08 -1.402843e-07 0.44497845 0.31856602 0.003716776 2.861922e-06 2.0568177e-06
5.726462e-06 0.43178618 -2.7919297e-08 1.7497302e-06 -8.973105e-09 2.3786234e-07 0.004179571 0.3296484
0.406688 0.41860944 1.4563495e-06

bias f4 [27]
00000000: d891 66bd 2ed4 34b9 84fb 1ab9 1c81 29b6
00000010: fd46 e8bd c81c f7bc d1c4 dcb6 0613 a3b6
00000020: 7c08 65b8 61cc 5fb5 a78a 64b6 537c e63e
00000030: fb9a 2c3e aef6 713b 6b70 c2b7 755e acb6
00000040: 80d6 29b8 0876 ce3e 5f5a 39b5 b53c cdb6
00000050: 59aa 90b6 0fd6 7db6 c1a0 70bc a1a6 e2bd
00000060: 7908 2bbd be82 8a3e 3892 3ab7
-0.05629143 -0.00017245181 -0.00014780281 -2.5258114e-06 -0.11341665 -0.030165091 -6.5794234e-06 -4.859993e-06
-5.4605756e-05 -8.3371384e-07 -3.4055354e-06 0.45016727 0.16855995 0.0036920714 -2.317895e-05 -5.1369957e-06
-4.049251e-05 0.40324426 -6.904938e-07 -6.1165433e-06 -4.3113655e-06 -3.7824536e-06 -0.014686764 -0.11066938
-0.041756127 0.27052873 -1.1120508e-05

running_mean f4 [27]
00000000: f031 2a3e 1b4a 6bbe 2c26 17bf ca65 653d
00000010: c9ad 38bd c386 89bb 9d60 07be 89ee 133d
00000020: 8571 04bc 4faa 243d ec1e a93c 60b7 9fbc
00000030: b85c a0bc 35d7 3b3b a751 cdbb fda8 9cbd
00000040: 8859 853d 9fea 0e3c 7c1b eb3b 04b9 9cbd
00000050: f7b4 6dbd d5b6 1abc 04fc 493d 3805 c33c
00000060: 63b3 0e39 cf41 d53c f860 72bb
0.16620612 -0.22977488 -0.5904262 0.056005277 -0.04508761 -0.004196973 -0.13220449 0.036116157
-0.008083706 0.04020148 0.020644628 -0.01949662 -0.019575462 0.002866221 -0.0062658372 -0.076494195
0.06511217 0.00872293 0.0071749073 -0.076524764 -0.05803391 -0.009443005 0.049312606 0.0238062
0.00013609002 0.026032357 -0.0036984067

running_var f4 [27]
00000000: cda9 263e 66b0 bf3e 9ee0 903e f9a6 d93f
00000010: 5541 a840 5f0a 203f e67d 1e41 61b1 2d40
00000020: 2758 543f f857 0a40 db06 713f da4b a940
00000030: 57c0 f93f 2465 d33e 93eb 473f 9a78 9a40
00000040: cc93 8140 8f25 9840 9b7e 8a40 e5ad 5140
00000050: 2490 3240 d236 df3e ff0b 9240 24c9 1541
00000060: 7c35 913f 1915 5640 8a4b f43f
0.16275711 0.3743927 0.2829637 1.7004081 5.257975 0.62515825 9.905737 2.7139513
0.8294701 2.1616192 0.94151086 5.290509 1.9511822 0.41288102 0.7809383 4.827222
4.0492916 4.754585 4.327955 3.2762387 2.7900476 0.43596512 4.5639644 9.361607
1.1344447 3.3450377 1.9085553

weight f4 [12, 27, 1, 1]
00000000: 23bd 363e c509 13b8 c9da 7eb7 183b 8633
00000010: 2d82 17be 912a 9eba 7635 ec34 ceeb 2534
00000020: 1a5f a2b7 0c00 ee35 0ffd 9035 f330 58be
00000030: 8b75 ec3d 3ea9 5f3a b296 f0b5 8d39 7e35
00000040: f680 36b5 45c1 8a3e 00f2 1636 4dbd 9e35
00000050: 98ae ffb4 2445 0436 c051 9f39 32ac 83bd
00000060: ac89 673e 78dc 83be 7231 29b6 5320 443e
00000070: cce3 28b8 12bb 2bb7 82ce 94b5 318d b0bd
00000080: 1d44 e73b a7f4 9ab5 139b 5b36 5668 dab6
00000090: 30ff 7635 3a30 9236 ab74 d0bc c2fe 6ebd
000000a0: 368f 5b3b b992 f7b6 fdac 8935 506e 5b35
000000b0: b42d 293d 4b35 92b5 d644 48b6 c71c e3b5
000000c0: 7597 c5b6 2914 d439 bb78 9f3d 2a13 2d3e
000000d0: 18cf c9bb c9cb 5cb3 297e 433c 87ca ee39
000000e0: 6725 1db7 3075 1db5 bbe0 33bc b739 293b
000000f0: ec5f 8f35 11e0 10b6 e0fa 8e37 e609 a9b4
00000100: 68d4 2236 e923 44bb 8624 df3b 7d8a e339
00000110: 34b7 09b6 380b 1bb6 4e6e 09b6 51e4 92ba
00000120: e714 6f36 6e8d 0fb6 6522 48b6 021d 32b7
00000130: 2470 1e39 b049 9a3b 70a3 0a3c 3745 90bb
00000140: f1a7 1fb4 2646 8abd 4632 63b8 81ce b9b4
00000150: 010d 06b6 0bef 48bd 5776 a93b 61e3 9035
00000160: ad11 8333 da04 8136 cad6 dd35 99c8 2836
00000170: 37bb 133e 4449 e9bd 1bc4 3639 40ef 87b6
00000180: a3a9 0f36 06da beb5 4a57 55be cae0 01b6
00000190: b4e4 0135 8677 c835 78d9 6836 7944 21bb
000001a0: c092 98bd 99db d33d a387 243d fa52 a1b5
000001b0: f2e9 e6bd de78 8ab9 ad07 b8b8 aceb 1436
000001c0: 8076 cabd 5c8e a63b fd02 3e36 5771 1ab6
000001d0: 3232 0c37 5b17 0cb6 050a 86b5 28d8 4e3e
000001e0: 97ac 9ebe fde8 023a 0b04 47b7 cdf6 ae35
000001f0: 1a17 2c36 41c5 c0be e54b 6336 0d49 4e35
00000200: 0aab af35 f0aa f9b6 5a87 f4bb d1ea 29bd
00000210: c4e6 a83d e43e f93d 74a1 f3b5 965b 153e
00000220: f180 4439 b3df 6db8 4a35 71b5 d648 b9bc
00000230: d35c 7c3b a9ae 51b5 adca 1cb5 49d8 fc37
00000240: 2d0a 19b6 68f6 28b6 9a7f 8a3e fc5d 11be
00000250: 6298 6dbb e611 0eb7 ecf6 3a35 9091 abb7
00000260: 405d 82be c54a 36b6 10c7 f5b5 42e3 d135
00000270: efdf 13b7 3bce 03bc f00b 39be 6c50 093e
00000280: 65f7 393e c76e fab5 8b2a f33c 8702 0838
00000290: a4a5 9db6 300e c733 bb54 bebd d36f b3bb
000002a0: c70d 79b5 e16e eab5 ce93 e735 931f ab35
000002b0: cdfe 1735 fe26 3cbe 2a0f aa3d e657 deba
000002c0: e940 dcb5 9681 6d35 cf62 b235 b4a5 6e3e
000002d0: 1560 69b5 7abc d735 a543 7f34 fccd 0b34
000002e0: 3c26 4ebb 0ace 55be f979 8f3d c68c 61be
000002f0: ef77 44b6 913e 8539 eb35 ab38 0587 1e36
00000300: 66c3 2c35 93c5 8d3b f609 53bb 78cb 5836
00000310: 827e 5335 6a60 3736 81c2 deb5 0446 c7b6
00000320: 2cfb b9bc 192e babc 9e37 0abb 9516 3bb7
00000330: 1c27 21b6 d302 6c36 56c4 e23c 34c9 fab5
00000340: 54b3 0a36 6623 8d35 2c53 ce37 eaf9 79ba
00000350: 1d4a b7bc da7a 04bc 00c6 6f3c 79d7 b335
00000360: 5e7a d0bd 4144 08b9 c4de 2b38 a372 7335
00000370: 669d 29bd aceb c9bc 0fe1 24b5 c255 1c35
00000380: 9acc 2a38 92e7 45b5 ea63 5cb6 0ef0 bebe
00000390: 19ed 83bc 1a41 fe3a b05e d736 cd3d 9ab5
000003a0: af4d 4a36 2f85 53bd 4d65 9435 d565 07b6
000003b0: a026 a0b5 5780 5eb7 cbec 02bb 043d 26bd
000003c0: 1b22 69be a688 8fbe 9811 fe35 f7e2 cb3c
000003d0: 08bb 7cb6 21f9 a137 d434 0eb5 9066 8ebd
000003e0: e79d bebb 6fa2 c836 102d 8736 6835 4735
000003f0: 01c3 d9b5 659c 54b6 8d37 11bd 345d 60bd
0.17845587 -3.505663e-05 -1.519052e-05 6.25061e-08 -0.14795752 -0.0012067129 4.3997323e-07 1.5452608e-07
-1.935619e-05 1.7732395e-06 1.0802486e-06 -0.21112423 0.11545857 0.0008531994 -1.7925252e-06 9.470612e-07
-6.7987946e-07 0.27100578 2.2492604e-06 1.1827011e-06 -4.7624485e-07 1.9709778e-06 0.00030387752 -0.06429328
0.22611111 -0.25754142 -2.5211743e-06 0.19152956 -4.0266474e-05 -1.023595e-05 -1.1086961e-06 -0.0862068
0.0070576803 -1.1545097e-06 3.2723808e-06 -6.5090526e-06 9.201349e-07 4.3567534e-06 -0.025446257 -0.058348425
0.0033502108 -7.3782544e-06 1.0257642e-06 8.1744383e-07 0.04130335 -1.0893358e-06 -2.984239e-06 -1.6921193e-06
-5.8886894e-06 0.00040450812 0.077866994 0.16901842 -0.0061587207 -5.1408083e-08 0.011931934 0.00045545792
-9.366638e-06 -5.865759e-07 -0.010978873 0.0025821754 1.0682247e-06 -2.1588096e-06 1.7044542e-05 -3.1485905e-07
2.4263518e-06 -0.002992863 0.006809774 0.00043399996 -2.052123e-06 -2.310333e-06 -2.0478797e-06 -0.001120696
3.5625942e-06 -2.1390983e-06 -2.9822343e-06 -1.0616381e-05 0.0001510983 0.0047084913 0.008461818 -0.0044027823
-1.4869126e-07 -0.06751661 -5.416784e-05 -3.4609187e-07 -1.9975125e-06 -0.049056094 0.005171578 1.0795012e-06
6.103378e-08 3.8450644e-06 1.6528295e-06 2.5150714e-06 0.14426886 -0.113909274 0.00017429928 -4.051166e-06
2.1407402e-06 -1.4219556e-06 -0.2083408 -1.9353342e-06 4.838905e-07 1.4935947e-06 3.4697277e-06 -0.0024607463
-0.07449865 0.10344619 0.040168416 -1.2019584e-06 -0.1127509 -0.00026411464 -8.7752334e-05 2.2190898e-06
-0.09885883 0.0050828885 2.8313946e-06 -2.301376e-06 8.356337e-06 -2.087522e-06 -9.986694e-07 0.20199645
-0.3099105 0.00049938244 -1.1862266e-05 1.3035839e-06 2.5643444e-06 -0.37650493 3.3869812e-06 7.6847283e-07
1.3088295e-06 -7.440678e-06 -0.007462424 -0.041483704 0.0824714 0.121701986 -1.81519e-06 0.14585719
0.00018740051 -5.671354e-05 -8.985704e-07 -0.022617739 0.0038507476 -7.811273e-07 -5.840946e-07 3.0141457e-05
-2.28047e-06 -2.5177378e-06 0.27050477 -0.14196008 -0.0036254157 -8.468027e-06 6.964972e-07 -2.0452571e-05
-0.2546177 -2.7163635e-06 -1.8311857e-06 1.5637854e-06 -8.814021e-06 -0.008044775 -0.1807096 0.13409585
0.1816078 -1.8658692e-06 0.029683372 3.242728e-05 -4.6982477e-06 9.26924e-08 -0.09293505 -0.005475977
-9.2779777e-07 -1.7466629e-06 1.7253858e-06 1.2749682e-06 5.662267e-07 -0.1837425 0.083036736 -0.0016963452
-1.6410169e-06 8.847795e-07 1.329079e-06 0.23305398 -8.693908e-07 1.6073602e-06 2.3773335e-07 1.302032e-07
-0.0031455895 -0.20879379 0.07005686 -0.22026357 -2.9276086e-06 0.00025414352 8.1639584e-05 2.3622426e-06
6.4359335e-07 0.004326531 -0.0032201982 3.2304943e-06 7.878772e-07 2.7325245e-06 -1.6596897e-06 -5.938813e-06
-0.022702776 -0.02272706 -0.002109028 -1.1151326e-05 -2.4013634e-06 3.5168384e-06 0.02768151 -1.8685009e-06
2.0667985e-06 1.0515621e-06 2.4595844e-05 -0.0009535836 -0.022374207 -0.008085931 0.014634609 1.339925e-06
-0.1017959 -0.00012995397 4.0977044e-05 9.069137e-07 -0.041409872 -0.02464851 -6.1422264e-07 5.823932e-07
4.072171e-05 -7.37252e-07 -3.2840712e-06 -0.37292522 -0.016104268 0.0019398064 6.4185224e-06 -1.149188e-06
3.0145563e-06 -0.051640686 1.1056342e-06 -2.0175842e-06 -1.193217e-06 -1.3262113e-05 -0.0019977565 -0.040585533
-0.22766916 -0.28033942 1.8929595e-06 0.024888499 -3.7659793e-06 1.9308705e-05 -5.2976e-07 -0.06953156
-0.0058171633 5.9793742e-06 4.0285595e-06 7.4210993e-07 -1.6224514e-06 -3.1681495e-06 -0.035453368 -0.054776385

weight f4 [12]
00000000: c4df 093f d520 713e 86ff ae3c ef99 8a3e
00000010: 7996 103f 91b8 1c3f 16c8 f23e ed11 303d
00000020: b725 da3e 539b 253e d43d 863e 4391 7d3c
0.53857064 0.2354768 0.021362077 0.27070567 0.56479603 0.61219126 0.47418278 0.042985845
0.426069 0.16172533 0.26219046 0.015476528

bias f4 [12]
00000000: 6315 7e3d 8353 f4bd 4a76 e4ba 551d 4c3e
00000010: 3575 0b3e 3cfb 3e3c a0b4 f0bc 2ce5 d93c
00000020: bffc 2f3d 32e7 cf3d 6c6c dfbd 3e5f 7ab9
0.062032115 -0.11929991 -0.0017430272 0.19933064 0.1361893 0.011656579 -0.029383004 0.026598535
0.042965647 0.10151519 -0.10909352 -0.00023877338

running_mean f4 [12]
00000000: cdce 8dbc 6256 bd3c 28d6 adb9 88ea 12bd
00000010: 19c1 d2bd 3104 6a3d d0b7 47bd 1b3e 85ba
00000020: cb7b aabe db35 153d b209 89bb 0948 993a
-0.017310524 0.02311248 -0.0003315669 -0.035868198 -0.10290737 0.057132903 -0.04875928 -0.0010165604
-0.33297572 0.036428314 -0.004182064 0.0011694442

running_var f4 [12]
00000000: 709d 8e3d feaa 5d3b 4dc4 be37 b171 b93c
00000010: e87c a33d 04d6 7a3d 4674 403d 2ff6 fb38
00000020: ffea 303d a969 b93a 1fc5 473b 22ac b337
0.069636226 0.0033823843 2.2741175e-05 0.02263722 0.07982808 0.061239257 0.046985887 0.00012014468
0.04319286 0.0014145869 0.0030482484 2.1418618e-05

weight f4 [3, 12, 3, 3]
00000000: f8c2 00bc 44c6 cebd 444d 9b3d 5faf 973e
00000010: bd36 9d3c a8a9 ee3e fbaf 01be a48a 43be
00000020: be2e b9b9 b454 46bd fd9d 74bd 20f2 ab3c
00000030: e370 933c adb6 74bd 5e0a ae3c 8bcf d9bd
00000040: ff2b 84bd 12a2 b1bc 7b90 fcba 1053 c2bb
00000050: 08d7 e1b9 efc0 c03b b92f 91bb 51f8 f33b
00000060: d731 77bb c89c ddbb 4610 da38 5ad3 ebbd
00000070: 39b5 623b 4cf1 febd d98e 8fbe cf8e fabd
00000080: 5b88 92be a888 73bd d22c 05bb e2b1 d9bc
00000090: c4d3 3fbe d791 bc3b 9115 40be 63eb febe
000000a0: 3162 84be 0fcf febe 0567 c8bd 7c27 f1bc
000000b0: a7a7 b9bd 3919 c8bc cca1 013e 16e0 8d3d
000000c0: bf27 70be 19fb 0dbd 7463 01be d57f a73d
000000d0: 50ba 603e 17ef 993e de73 88bc 86a0 a7bd
000000e0: 37ea 903c 94a1 863e 0bc1 0f3d d102 bc3e
000000f0: 29f2 99bd 1bba 04be d02b a7b8 744b 523a
00000100: 849d c2b9 3bc8 9e3b ea0f c53c 5f17 423c
00000110: 9ae2 0a3d 0202 01bb f3e1 6fbc 49ca 92bc
00000120: bc14 17bd 7268 86bd e3d1 363d 7879 893e
00000130: d6e4 ec3d 87fe d43e e76f a13d f7ec 8abd
00000140: 5a51 fe3d 5173 373b 4084 01bd e83f 8bbc
00000150: 6f29 be3d e150 fa3c a7ca c33d 9405 25bd
00000160: 3770 9dbd b508 93bd 6a3d 433d 5d11 2bbd
00000170: f769 0a3d ca76 903d 2df7 9bbc 9946 0e3d
00000180: 8446 97bc eac3 e4b8 479d 8c3d 07bc 84bb
00000190: 1838 f93a 094b c03a b5a9 cebb 5919 783a
000001a0: 2d5a 0bbb 2216 baba 2588 073b c90b 233b
000001b0: c79c 0dbe 40f1 06be 96b0 2fbe 9758 88be
000001c0: 059d 5bbd a22a a2be e24e a7be 4c89 68ba
000001d0: c789 debc bed1 25be 724c 153d da41 13be
000001e0: 6b77 51be d5b8 c53d 37ef 35be 8f11 e7bd
000001f0: 9514 2a3e 8cc5 063c 4467 27bc cf76 9abb
00000200: 0b01 bfbb eb6c 32bc c5d7 fcba f045 3abc
00000210: fc65 35bc b644 183b 006e 0fbb 6d63 e5bc
00000220: d5b8 b9bd 0a54 41bd 4e86 fabd f9f5 833c
00000230: d003 6939 88ed 61bd 4812 e7bc f374 a3bd
00000240: 33ff 25bd 05c9 0abe 4e7e 06bd c754 59be
00000250: 11aa ac3c 1da4 873d 2ca8 a3bd 3369 08bd
00000260: 142a a1bd 4ce4 bcbd 85f8 febd 50b8 36be
00000270: 9412 92be 9e1c 373d f8fe 8bbe baa9 2ebe
00000280: 77bf 033d 8259 cdbe 2bfc c2bd 0177 e8bd
00000290: 8ce7 f7bd e00e 39be 970c 2cbd c41e 51be
000002a0: 1515 88be d368 3fbd 927d 94bc 4053 b23b
000002b0: 0c1c 96bb 926c 5fbb 136b afbb 16ce 62bb
000002c0: 5d19 c7bb d1ea 0cbc 1762 b4ba bc8a 3d3c
000002d0: 45c0 293d b7cb 11bd 56b3 b33c cd96 2e3e
000002e0: 732d 3a3c 83c2 5fbb d008 fd3d 842b c93b
000002f0: 86fd d8bb 4a9c 0e3b 7bfb 64bc 119f 36bd
00000300: 96bc 87bd 55bd 99bc 6e19 a0bd 4a3f 93bd
00000310: 7dcb b13c 9e5e 0c3d b02c b9bd 1a4e 143e
00000320: 05bb 73bd 2e67 cfbd 9dd7 0e3e 405c 06be
00000330: 7880 fdbc 9dbd 163e 3e87 adbd 4974 25bb
00000340: b8fb 00bc c883 74bb 1681 9dbb 43ee 21bb
00000350: 570a 51bb 8802 92bb c00b 21bb 4e06 8ebb
00000360: de58 36be 4773 493d e3e8 433e d1e3 87be
00000370: 7f31 293c 9aab 7f3e 3491 0b3e 0470 22be
00000380: edbf 86be 05be 12bd 08e3 af3c bdc1 e7bc
00000390: 5a26 53bd d8ca 4c3d d830 703d a204 a83c
000003a0: ff2b 0d3c 8f53 26bd 033e a0bb 82cc 193b
000003b0: df34 2aba 100a 10bc 5fc0 7e3a 9bb2 bd3b
000003c0: c122 c6ba 33c7 a3bb 5232 023b 4736 ef3d
000003d0: 0150 b73b f549 e1bd 59e0 0b3e 9b08 823a
000003e0: 893e 27be 164c 01be 01e0 29bd 19ef aa3d
000003f0: 2e62 5b3e d31c 323d 02e3 ffbd c190 9e3e
-0.007858984 -0.1009641 0.075830966 0.29625985 0.01919114 0.46613812 -0.12664787 -0.19095856
-0.00035320775 -0.048420623 -0.059720982 0.020989478 0.017998165 -0.059744526 0.021245178 -0.10635289
-0.06453704 -0.021683726 -0.0019269133 -0.005930312 -0.00043075555 0.0058823745 -0.004430738 0.007445373
-0.0037718916 -0.0067630745 0.00010398081 -0.115149215 0.003459288 -0.124483675 -0.28038672 -0.1223427
-0.28619656 -0.059456497 -0.0020320904 -0.026574079 -0.18733126 0.00575469 -0.18758227 -0.4978896
-0.25856164 -0.49767348 -0.097852744 -0.029437773 -0.0906518 -0.02442609 0.12659377 0.069275066
-0.23452662 -0.034663294 -0.12635595 0.08178679 0.21946073 0.30065224 -0.016656812 -0.08184914
0.017689807 0.2629515 0.03509621 0.367209 -0.075168915 -0.12961619 -7.971341e-05 0.00080221076
-0.00037119922 0.0048456467 0.02405544 0.011846392 0.03390751 -0.0019685035 -0.014641273 -0.017918723
-0.03688501 -0.0656289 0.044633757 0.26850486 0.115670845 0.4160044 0.07882672 -0.06783479
0.1241786 0.0027992318 -0.031620264 -0.016998246 0.092852466 0.030556144 0.09560137 -0.040288523
-0.07687419 -0.07179395 0.04766599 -0.041764606 0.033792462 0.07053907 -0.019038761 0.034735296
-0.018466242 -0.00010908379 0.06865936 -0.004050735 0.001901391 0.00146708 -0.0063068517 0.00094642263
-0.0021263466 -0.001419727 0.0020680514 0.002487885 -0.13829337 -0.13177967 -0.17157206 -0.2663009
-0.053616542 -0.3167315 -0.3267737 -0.00088705565 -0.027165307 -0.16193292 0.036449857 -0.14380589
-0.2045571 0.096543945 -0.17767034 -0.11282646 0.16609414 0.00822581 -0.010217492 -0.00471387
-0.0058289818 -0.010890226 -0.0019290379 -0.011369213 -0.011071678 0.0023234314 -0.0021885633 -0.028001511
-0.09068457 -0.047199287 -0.12232648 0.0161085 0.00022222032 -0.055158168 -0.02820696 -0.07981291
-0.04052658 -0.13553245 -0.032835297 -0.21223746 0.021077188 0.06623099 -0.079910606 -0.03330345
-0.07869354 -0.09223232 -0.12449745 -0.17843747 -0.285298 0.044705026 -0.27342963 -0.17056933
0.032165017 -0.40107352 -0.095207535 -0.11350823 -0.12104711 -0.1807208 -0.042004194 -0.20421892
-0.26578584 -0.046730828 -0.018126283 0.005442053 -0.00458098 -0.0034091813 -0.0053533404 -0.00346077
-0.0060760216 -0.0086009065 -0.0013762143 0.011568721 0.04144313 -0.03559467 0.0219361 0.17049713
0.011363375 -0.0034143038 0.123551965 0.0061392207 -0.006622019 0.0021760636 -0.013975973 -0.04458529
-0.06627767 -0.018767038 -0.0781735 -0.07189806 0.021703476 0.03426992 -0.090417266 0.14482918
-0.059504528 -0.10127102 0.13949437 -0.13121128 -0.030945048 0.14720769 -0.08473061 -0.0025246313
-0.007872514 -0.0037309993 -0.004806648 -0.0024708665 -0.0031897032 -0.004455868 -0.0024573654 -0.0043342477
-0.17807338 0.049182203 0.19131808 -0.26540998 0.010326742 0.24967805 0.1362961 -0.15863043
-0.26318303 -0.035825748 0.021470562 -0.028290624 -0.051550247 0.049998134 0.05864033 0.020510022
0.0086164465 -0.04060703 -0.004890205 0.0023467843 -0.0006492864 -0.008791462 0.00097179966 0.0057891137
-0.0015116559 -0.0049981116 0.001986642 0.116802745 0.005594254 -0.11000434 0.136598 0.0009920778
-0.16332449 -0.1262668 -0.041473392 0.083463855 0.21424171 0.04348452 -0.1249447 0.30969813

weight f4 [30]
00000000: 652d 9b38 ba3e 8c3d 8a42 233e 410c 563e
00000010: fd81 e43d d7a0 aa3e e948 9e38 6158 a33e
00000020: 17cf 833e 796d 723e 3038 9e36 5ef5 873e
00000030: c9fe 9d3e 23cc 073e 96e1 8c3e c0bc 033e
00000040: 5c56 463e e695 193e 12df 4e3e cb9d 253c
00000050: bac7 b23e 1636 893b da1a 363e 64eb 8838
00000060: b499 0f3e 22c5 af3e 49fb 0c3f bbbb 433e
00000070: 51e1 a03d 1aca 8935
7.399431e-05 0.06847902 0.15943351 0.20903112 0.11157606 0.33325836 7.547608e-05 0.31903365
0.25743935 0.23674573 4.715308e-06 0.26554388 0.30858448 0.13261466 0.27515858 0.12864971
0.19368881 0.14998588 0.20202282 0.010108422 0.34918004 0.0041873557 0.1778368 6.52883e-05
0.14023477 0.34330088 0.5507093 0.19114582 0.07855476 1.0266115e-06

bias f4 [30]
00000000: 8a30 a8b9 4c50 f03c 8a80 053e a6cd 523b
00000010: 1e57 143e 30cf c9bd 1a89 8db9 0ad6 983e
00000020: 6bff 013d 2bfe a8bd 482a 1ab8 79f7 bc3e
00000030: 4cb2 57be 7e94 b23d a440 373e b01d 853d
00000040: be5f 843e 8e7d c43d ccee 01be 1b88 4bbd
00000050: 2ee6 06bd 77bc 633b 3eb9 da3c 0369 baba
00000060: db43 063e 76fe 573e a46c 963e 06fc 803e
00000070: e228 e13d b474 83b7
-0.0003207962 0.029335164 0.13037315 0.0032166033 0.14486358 -0.09853971 -0.00026995764 0.298508
0.031737726 -0.08251604 -3.675584e-05 0.36907557 -0.21064109 0.08719729 0.17895752 0.06499803
0.25854295 0.0959426 -0.1268875 -0.049690347 -0.03293436 0.0034749785 0.026699658 -0.001422197
0.13111822 0.21093163 0.2937976 0.2519228 0.10994126 -1.5670761e-05

running_mean f4 [30]
00000000: afd5 bdbe 1f3e 75bf 0420 afbd f031 2a3e
00000010: 1b4a 6bbe 2c26 17bf ca65 653d c9ad 38bd
00000020: c386 89bb 9d60 07be 89ee 133d 8571 04bc
00000030: 4faa 243d ec1e a93c 60b7 9fbc b85c a0bc
00000040: 35d7 3b3b a751 cdbb fda8 9cbd 8859 853d
00000050: 9fea 0e3c 7c1b eb3b 04b9 9cbd f7b4 6dbd
00000060: d5b6 1abc 04fc 493d 3805 c33c 63b3 0e39
00000070: cf41 d53c f860 72bb
-0.3707709 -0.95797914 -0.08551028 0.16620612 -0.22977488 -0.5904262 0.056005277 -0.04508761
-0.004196973 -0.13220449 0.036116157 -0.008083706 0.04020148 0.020644628 -0.01949662 -0.019575462
0.002866221 -0.0062658372 -0.076494195 0.06511217 0.00872293 0.0071749073 -0.076524764 -0.05803391
-0.009443005 0.049312606 0.0238062 0.00013609002 0.026032357 -0.0036984067

running_var f4 [30]
00000000: ca15 e33e 5e89 013f bc2c bf3e cda9 263e
00000010: 66b0 bf3e 9ee0 903e f9a6 d93f 5541 a840
00000020: 5f0a 203f e67d 1e41 61b1 2d40 2758 543f
00000030: f857 0a40 db06 713f da4b a940 57c0 f93f
00000040: 2465 d33e 93eb 473f 9a78 9a40 cc93 8140
00000050: 8f25 9840 9b7e 8a40 e5ad 5140 2490 3240
00000060: d236 df3e ff0b 9240 24c9 1541 7c35 913f
00000070: 1915 5640 8a4b f43f
0.4435256 0.5060023 0.37338817 0.16275711 0.3743927 0.2829637 1.7004081 5.257975
0.62515825 9.905737 2.7139513 0.8294701 2.1616192 0.94151086 5.290509 1.9511822
0.41288102 0.7809383 4.827222 4.0492916 4.754585 4.327955 3.2762387 2.7900476
0.43596512 4.5639644 9.361607 1.1344447 3.3450377 1.9085553

weight f4 [12, 30, 1, 1]
00000000: 1684 a3b8 de77 bb3c 8876 cc3d 9067 443d
00000010: 088f 193d 15cb 1dbd a856 1eb9 3d29 a33d
00000020: 18df 933b 5ae5 c8bd a2b8 88b5 da86 2b3d
00000030: a16e 3dbd 0ea0 1e3d 0b56 b93c 810f ccbc
00000040: 15fa fbbc 83db e7bd 0a16 76bd 3b07 a7bc
00000050: dfa6 ffbd dbf7 08b9 f869 8ebc 42a3 cc39
00000060: 45c8 8abd 52e1 de3d c9af b8bc a799 87be
00000070: 5876 ac3c b3b4 b2b7 df05 f338 b5ac 233d
00000080: 458e f0bb d34b eebd 086f 073d 2657 c43c
00000090: 2998 8b39 3a2b dbbe b158 e0bd f767 473d
000000a0: 1a07 8c36 a426 1f3d 8bd4 ef3c f746 b6bc
000000b0: 031e 90be f297 0fbd 3330 303d 8cbf 8cbd
000000c0: 6811 ba3d 2a1d c3bb 4624 bf3d 77c8 1ab9
000000d0: 03c7 043d 6ee2 02bb 3673 14bd 40f6 313d
000000e0: 4ec4 243d 7693 08be 0e65 17be 9dbb eeb6
000000f0: 44df 85b9 2ad7 a4bc 2e8e d63c 27a7 52bd
00000100: 4dd9 413b bda5 f5bc 255e 5c37 11bd 253e
00000110: e35f 14be 11f8 7ebd 4d3e 7f37 dc75 ccbb
00000120: d570 95bd 1cce b23d ec7a 703e f6c5 18be
00000130: 93a2 34be 5e85 e8bd 887a 6d3c fb60 90bc
00000140: a820 67be 068b 4d3b 0acf df3c 76ab 86ba
00000150: 6b74 39be 245d f5bd d95e 99be c6c4 28be
00000160: 4ebc 803d 10ab ab34 ca42 f4b9 11a1 063d
00000170: de64 a5bd 8ba0 e8bd 87a3 81bc 0e4f 753d
00000180: b40b 8038 413f 8c3d fe57 d33c 8af1 5ebd
00000190: 5522 8db8 5aa7 1bbe 74f4 1abe c084 8ebd
000001a0: 896a 063e 181e 9dbd e7db afbc 51a4 453e
000001b0: 7c39 ac3d 5a2a c5bc 7a01 3bbe 000f 423b
000001c0: 6757 8f3d 32e2 93bb 343d e03d 688b 65be
000001d0: 40b6 06be 2f83 583e e0f6 a53d 2ab9 2f36
000001e0: 1a3d 1439 c262 2fbb afd8 af3c a421 283d
000001f0: 23cb c23d 7bb2 f3bd 2305 72b9 9a49 0f3d
00000200: 8ad6 9d3d e34c 843d 5e86 d1b7 c329 1e3d
00000210: b4da 84be 1bad 03bd 041a 463e f7d6 d73b
00000220: fc8d e8bd 259f 013d ca9b 1a3d fb9b 1fbb
00000230: 4b1a 453d 7a5a e53a d6bf c53d b8e6 05bb
00000240: 54ab e13c 47b3 55bd 6688 93bd bdb8 95bb
00000250: ef3b d33d eb28 8eb5 ede2 d938 6744 89ba
00000260: d880 a6bd bc29 7cbe 900a 81bd dc5f 9a3d
00000270: f32d 1eba f4ec cdbd e7b4 d2bd c019 4bbd
00000280: 56ba ceb7 0437 f13c ef7d a83d 1dc7 83be
00000290: bc16 6fbe 9fc9 3fbc 2516 a43d a3de cd3d
000002a0: 3cce 1f3c 9284 05bd 0350 043e 83fb 7739
000002b0: 15e1 e4bb 07df e6ba af74 bd3d 9a51 a03c
000002c0: 9432 d63d 2772 0a3e b2ac 0cbe 9bff 8e36
000002d0: 38e4 8038 b0f6 9f3c 2ee4 4dbe 74a6 06be
000002e0: fb5c 163c b0d2 b3be 8de9 5238 ccbd ec3d
000002f0: ad6b 27be 261c 4c3e b357 ccb6 2742 3a3e
00000300: 6023 17be 0945 0c3e af58 033e c3a8 1abc
00000310: 67c7 313c 42c3 5dbd 724c b93c face 2ebd
00000320: a803 be3d a802 43bb 41cb 61bd a2db 66ba
00000330: c1ec d1bd 0561 c63d aa00 513e 3a2c f7bd
00000340: fb26 6c3d 2e93 3035 37d8 0e37 39ae 213d
00000350: 7ca4 e83d e3fd 253d 8942 2cbd 8d99 133e
00000360: 35e5 46b7 d777 4e3e 72f3 16bd da73 19bd
00000370: 42b8 f635 f3fe 133d 310c 1f3e ba2a 10bd
00000380: 000c 51bd 85ce 47bd 5f2a 293c d309 19bd
00000390: db71 b43b 0efd 543b 3cf0 80be 0a0c 573b
000003a0: 9c8b 1f3e 265d 0dbb ae89 cfbc 691e 88be
000003b0: 660c c5be 1784 5a3c 5334 03bd d246 1036
000003c0: cdb8 10b9 3f18 82bd 6fcf 093e adc8 863d
000003d0: 2d58 073e d588 fcbd 904c 61b9 28d3 80bd
000003e0: 48c6 673e 9b09 eb3d abbb f1b6 805e e23c
000003f0: a94c 57be 5212 cbbd 60ce 853b b8de d73d
-7.7970486e-05 0.022884306 0.099835455 0.047950327 0.03748992 -0.038523752 -0.00015100336 0.0796685
0.004512679 -0.0980937 -1.0186525e-06 0.04187665 -0.046248082 0.03872686 0.022624036 -0.024909737
-0.030758897 -0.113211654 -0.06007961 -0.02038919 -0.12483 -0.00013062304 -0.017384514 0.0003903155
-0.0677648 0.1088282 -0.022544758 -0.26484415 0.021052524 -2.1303398e-05 0.000115882365 0.039959628
-0.0073411786 -0.11635556 0.033064872 0.023967337 0.00026625514 -0.42806417 -0.109544165 0.048683133
4.173152e-06 0.03885521 0.029276153 -0.022250636 -0.28147897 -0.035057016 0.043014716 -0.06872472
0.09085351 -0.0059544044 0.093330905 -0.00014761263 0.032416355 -0.0019971388 -0.036242686 0.043447733
0.040226273 -0.13337502 -0.14784643 -7.114794e-06 -0.00025534083 -0.02012213 0.026190843 -0.05142894
0.0029578984 -0.029986257 1.3134942e-05 0.16185404 -0.14489703 -0.062248293 1.521369e-05 -0.006239636
-0.072969116 0.087307185 0.23484391 -0.14919266 -0.17640142 -0.11353563 0.014494546 -0.017624369
-0.22571051 0.0031363382 0.027320404 -0.0010274488 -0.18110816 -0.11980656 -0.29955176 -0.16481313
0.06285916 3.1975696e-07 -0.00046589068 0.03286845 -0.080758795 -0.11358746 -0.015825046 0.059889846
6.1056955e-05 0.06848002 0.025798794 -0.05442957 -6.729799e-05 -0.15200558 -0.15132314 -0.06958914
0.13126577 -0.076717556 -0.021467162 0.19300963 0.08409402 -0.024068046 -0.18262282 0.0029610991
0.069990925 -0.0045130486 0.109491736 -0.2241646 -0.1315546 0.21143793 0.08103728 2.6184812e-06
0.00014137142 -0.0026761745 0.021465627 0.041047707 0.095114015 -0.11899277 -0.00023080832 0.0349823
0.07706936 0.064599775 -2.4977311e-05 0.038614046 -0.25948107 -0.032147508 0.19345862 0.006586905
-0.11355206 0.031645913 0.03774623 -0.0024354446 0.048120778 0.0017498278 0.096557304 -0.0020431709
0.027547516 -0.052172925 -0.0720375 -0.0045691417 0.10314166 -1.0591733e-06 0.000103896346 -0.0010472656
-0.08130044 -0.24625295 -0.06300843 0.07537815 -0.00060340686 -0.10054961 -0.10288411 -0.049585104
-2.4643883e-05 0.029445179 0.08227145 -0.2573785 -0.23348516 -0.011705785 0.08012036 0.1005223
0.00975376 -0.032597132 0.12921147 0.00023649451 -0.0069848397 -0.0017614075 0.09250771 0.01957016
0.10458866 0.13520108 -0.13737753 4.261686e-06 6.146025e-05 0.01952681 -0.20106575 -0.13149434
0.009177442 -0.3512168 5.0285413e-05 0.115596384 -0.16349669 0.19932613 -6.0898833e-06 0.18189298
-0.14759588 0.1369821 0.12826799 -0.00943965 0.010850764 -0.05414129 0.02261946 -0.042677857
0.09278041 -0.0029756222 -0.05512548 -0.00088065316 -0.10250235 0.09686474 0.2041041 -0.120689824
0.057654362 6.5779284e-07 8.514201e-06 0.039472792 0.11359498 0.04052533 -0.04205564 0.14414044
-1.1855086e-05 0.20162903 -0.03685326 -0.037464 1.8382054e-06 0.03613181 0.15531994 -0.035196997
-0.051036835 -0.048780937 0.010325043 -0.037362885 0.0055067367 0.0032499465 -0.25183284 0.0032813572
0.155806 -0.0021570413 -0.025334205 -0.265857 -0.38486022 0.013337157 -0.032032322 2.1498895e-06
-0.00013801754 -0.06352281 0.13458036 0.065812446 0.1321723 -0.12330786 -0.00021486194 -0.06290275
0.22634232 0.114764415 -7.204207e-06 0.027632952 -0.21025337 -0.09915604 0.0040834397 0.10540527

weight f4 [12]
00000000: cfc8 8d3e dc11 a83e 3125 283f 7030 023f
00000010: 78b2 863e 4b3f b63e 4930 f53e 20ed eb3e
00000020: 21a4 af3e ea68 733e c820 c63e 4254 c03e
0.27692267 0.32826126 0.6568175 0.5085516 0.26308036 0.35595164 0.478884 0.4607935
0.34304908 0.2377049 0.38696885 0.37564284

bias f4 [12]
00000000: 29cb 82bd 6523 c73c 8d20 83be c847 52be
00000010: dd1a a03d dcac 9ebd 2042 83be 3cf7 9c3d
00000020: 9ced 33bd d41d 69be e70d ae3e 45a8 d13e
-0.06386406 0.02430887 -0.25610772 -0.20535195 0.07817624 -0.07747814 -0.25636387 0.07664344
-0.043927774 -0.22765285 0.33994982 0.40948692

running_mean f4 [12]
00000000: 2b49 edbc edbf 59be a0a6 58be 8a5e 7fbd
00000010: b4c3 2f3d e53f aebc a199 113e 4e0d 15be
00000020: 70a8 3a3c 43cb 153e 7f1a e0be e418 ffbd
-0.028965553 -0.2126462 -0.21157312 -0.06234602 0.042911246 -0.021270702 0.14218761 -0.14555857
0.011392698 0.1462832 -0.43770215 -0.124559194

running_var f4 [12]
00000000: 29f7 a23b c1d6 d23c acbb 713d 9446 ce3c
00000010: c5b6 163c 829f 9d3c 3300 843c 4141 973d
00000020: f01c 233c 3704 7c3b b130 473d 5635 093e
0.0049733114 0.025737168 0.05901687 0.025180139 0.009198849 0.019241098 0.016113376 0.07385493
0.00995563 0.003845466 0.04863042 0.13399252
