checkpoint/FinetuneDensenet100-4-4_0.pth (torch_old, 606375 bytes, 498 tensors)

weight f4 [24, 3, 3, 3]
0	0x3ebc5778	0.36785483
1	0xbefba816	-0.49151677
2	0xbf72b6ec	-0.94810367
3	0x3f9cb046	1.2241294
4	0x3e409113	0.18805341
5	0xbf86835f	-1.0508841
6	0x3f48cb3d	0.78435117
7	0x3ed519d3	0.41621265
8	0xbedf9efc	-0.43675983
9	0xbe7232a9	-0.23652138
10	0x3e58bf15	0.21166642
11	0x3f380808	0.71887255
12	0xbf1ae5b5	-0.60506755
13	0xbca65dd4	-0.020308413
14	0x3f0517d0	0.5198946
15	0xbf221a0a	-0.6332098
16	0xbe53367e	-0.20626256
17	0x3e156d98	0.14592588
18	0xbddf1bda	-0.10893984
19	0x3e2eca45	0.17069347
20	0x3e132f3a	0.14373484
21	0xbf237c60	-0.63861656
22	0x3d66bc85	0.05633213
23	0x3f1728f7	0.5904688
24	0xbea769d2	-0.32697922
25	0xbdfabbb9	-0.122428365
26	0x3e353411	0.17695643
27	0xbf34e487	-0.70661205
28	0xbf93a4af	-1.1534632
29	0xbf07c43a	-0.5303379
30	0x3e0f1b83	0.13975339
31	0x3dd99fb5	0.10626165
32	0x3e2031b2	0.15643957
33	0x3f2f1f39	0.68407017
34	0x3f9937bf	1.1970137
35	0x3f05a274	0.5220101
36	0x3e9ccee8	0.30626607
37	0x3e876047	0.2644064
38	0x3e67747b	0.22603028
39	0xbd654c1b	-0.055980783
40	0xbe7bd853	-0.2459424
41	0xbda90e17	-0.082546405
42	0xbe721728	-0.23641646
43	0xbe6c3826	-0.23068294
44	0xbe4130c3	-0.18866257
45	0x3f1f2b14	0.62175107
46	0x3f639bc8	0.8890958
47	0x3ef63cff	0.4809341
48	0x3c5327bf	0.012887894
49	0xbdc7fdd3	-0.0976521
50	0x3ddf405f	0.1090095
51	0xbf19b51a	-0.60041964
52	0xbf57538b	-0.8411185
53	0xbf04959f	-0.51790804
54	0xbe874aea	-0.26424342
55	0xbeb6a48d	-0.35672417
56	0xbe4b6d30	-0.1986587
57	0xbe9d1d18	-0.3068626
58	0xbe9f7aec	-0.3114847
59	0xbe70b1d6	-0.23505339
60	0x3da74191	0.08166803
61	0xbd35d449	-0.044391904
62	0x3d492271	0.04910511
63	0x3ed2f798	0.41204524
64	0x3f17cabe	0.59293735
65	0x3eb9f44a	0.3631919
66	0x3ed710c8	0.4200499
67	0x3f3e06b8	0.74229
68	0x3eb32898	0.34991908
69	0x3e98a1a4	0.29810822
70	0x3ee37b37	0.44429943
71	0x3e1baee8	0.1520344
72	0xbda85143	-0.082186244
73	0xbeb789e7	-0.358474
74	0x3cd033b9	0.025415288
75	0xbee8858d	-0.4541439
76	0xbf313b7a	-0.6923138
77	0xbe8f6158	-0.28003955
78	0xbd9b83b2	-0.07593478
79	0xbeabe688	-0.3357432
80	0x3d27eb22	0.040995724
81	0xbd5db17d	-0.054124344
82	0xbd962f14	-0.07333198
83	0x3c4436bc	0.01197594
84	0xbcefc0d1	-0.029266747
85	0xbe22b348	-0.15888703
86	0xbc5ae49d	-0.01336017
87	0x3dda5055	0.10659853
88	0x3d3b5fc2	0.04574562
89	0x3c28b58b	0.0102971895
90	0x3bde0bfd	0.0067763315
91	0xbba61496	-0.005068372
92	0x3d560ffa	0.05226133
93	0xbc9ebe7e	-0.019377943
94	0xbdbaf490	-0.09128678
95	0x3d607945	0.05480315
96	0x3d9e7ce5	0.077386655
97	0x3e0f94ce	0.14021608
98	0x3dd41c65	0.10356978
99	0xbdb78820	-0.08961511
100	0xbe10bf5a	-0.14135495
101	0xbde265ff	-0.110546105
102	0xbe751384	-0.23933226
103	0xbeacac61	-0.33725265
104	0xbe4945ce	-0.19655535
105	0xbe0f0c84	-0.13969618
106	0xbdcfa642	-0.10139133
107	0xbdf02d27	-0.11727362
108	0x3defc0dc	0.11706707
109	0xbdfee779	-0.12446494
110	0x3e23cd98	0.15996397
111	0xbe1e313f	-0.15448473
112	0xbf42e172	-0.7612525
113	0xbe0eb393	-0.1393569
114	0x3e5a2c81	0.2130604
115	0xbe37aa45	-0.17936046
116	0x3e3e8499	0.1860527
117	0x3db2200c	0.08697519
118	0xbe82cd95	-0.25547472
119	0x3d87400f	0.06604015
120	0xbe984ccf	-0.297461
121	0xbf7f2888	-0.9967122
122	0xbeaae9c9	-0.3338149
123	0x3cc2a9f5	0.023762682
124	0xbeb217b2	-0.34783703
125	0x3daffe62	0.085934415
126	0x3dac2db7	0.08407157
127	0xbe15ad88	-0.14616978
128	0x3d71092e	0.058846645
129	0x3d0799c6	0.033105634
130	0xbec75599	-0.38932493
131	0xbc01e2ff	-0.007927655
132	0x3dfb75f7	0.122783594
133	0xbd8df7a3	-0.069319986
134	0x3dcaeef0	0.09908855
135	0xbe24250a	-0.16029754
136	0xbe313a48	-0.17307389
137	0x3df1a065	0.11798171
138	0xbe9af019	-0.30261305
139	0xbe028ed5	-0.12749799
140	0x3eb7af75	0.3587605
141	0x3bd2e89c	0.0064364206
142	0x3e1176b4	0.14205438
143	0x3e9ba833	0.30401763
144	0xbecb7199	-0.39735106
145	0xbecb6fb9	-0.39733675
146	0xbd1ca122	-0.038239606
147	0xbe972366	-0.29519194
148	0xbe19aca1	-0.15007259
149	0x3eb24684	0.34819424
150	0x3e7b7aa0	0.24558496
151	0x3ea89d49	0.329325
152	0x3ecd641d	0.40115443
153	0xbe187eaa	-0.14892069
154	0xbe6cced4	-0.23125774
155	0x3db40a10	0.08790982
156	0xbeb081c8	-0.34474015
157	0xbe228264	-0.15870053
158	0x3e990cea	0.29892665
159	0xbcab2f6f	-0.020896642
160	0x3dd11eb8	0.10210937
161	0x3e6acd34	0.22929841
162	0xbd6989c5	-0.057016153
163	0x3e4fd804	0.20297247
164	0x3e6b94fc	0.23006052
165	0xbf039c0b	-0.5140998
166	0x3d21ba3b	0.039484244
167	0x3f10a898	0.56507254
168	0xbeaa9a87	-0.3332102
169	0xbd7bbcda	-0.0614594
170	0x3e1454ec	0.1448552
171	0xbeb3678d	-0.3503994
172	0x3db467f7	0.08808892
173	0x3ed35274	0.41273844
174	0xbf3fb754	-0.7488911
175	0xbc2adab3	-0.0104281185
176	0x3f439e5b	0.76413506
177	0xbee4bdfa	-0.4467619
178	0xbd6bbfc6	-0.057555936
179	0x3e94d32e	0.29067367
180	0xbe8688ff	-0.26276395
181	0x3dbee14c	0.09320316
182	0x3e9bb90f	0.30414626
183	0xbf3efed4	-0.74607587
184	0x3cb39c0a	0.021924991
185	0x3f36fc2d	0.7147854
186	0xbedd0599	-0.43168333
187	0x3cbd700e	0.02312472
188	0x3e889438	0.26675582
189	0x3e3677a9	0.17819084
190	0x3ea75fe9	0.3269036
191	0x3e55acc6	0.20866689
192	0x3ec8a25d	0.39186373
193	0x3f04046e	0.5156926
194	0x3e9e78ec	0.3095163
195	0x3e485823	0.19564871
196	0x3e49272c	0.19643849
197	0x3e0473a6	0.12934741
198	0xbe6280e6	-0.22119483
199	0xbf0603d7	-0.5234961
200	0xbe236ae2	-0.15958741
201	0xbefed0c4	-0.4976865
202	0xbf625855	-0.88416034
203	0xbee272f2	-0.4422832
204	0xbdd33b54	-0.1031405
205	0xbedeacdf	-0.43491265
206	0xbcd8693f	-0.026417373
207	0x3da8bc1a	0.082390025
208	0x3da672e4	0.081273824
209	0xbd561cb0	-0.052273452
210	0x3db1493d	0.08656547
211	0x3d965eca	0.07342298
212	0xbc8e1be0	-0.017347276
213	0xbb51cef4	-0.0032014223
214	0x3c887026	0.016655039
215	0xbd9c78e9	-0.07640249
216	0x3f78b8d2	0.97157013
217	0x3f02fa2d	0.5116299
218	0xbecbd5c0	-0.39811516
219	0x3f8859fd	1.0652462
220	0xbcf1b635	-0.029505828
221	0xbf8dcfa4	-1.1078992
222	0x3e8fa6bf	0.28056905
223	0xbf1b82c8	-0.6074643
224	0xbf3994f9	-0.7249294
225	0xbe953bf8	-0.29147315
226	0xbe65be9c	-0.22435993
227	0x3dbac002	0.09118654
228	0xbd85aa7e	-0.065266594
229	0x3d63b26b	0.055590075
230	0x3db54955	0.088518776
231	0x3e511207	0.20417033
232	0x3e3c580b	0.1839296
233	0x3e11cff7	0.14239489
234	0xbf3480f7	-0.70509285
235	0xbe58d69e	-0.2117562
236	0x3ee5cd1d	0.44883052
237	0xbf4b9943	-0.79530734
238	0x3dc4db4a	0.096121386
239	0x3f31bf11	0.6943217
240	0xbe95dd5c	-0.29270446
241	0x3e9a9cc9	0.30197743
242	0x3f07d0ff	0.5305328
243	0x3caedda6	0.021345925
244	0xbec4291e	-0.3831262
245	0x3df531cc	0.119723886
246	0xbe9b2b01	-0.30306247
247	0x3f71b0aa	0.9441019
248	0xbe9a58f0	-0.3014598
249	0x3dca0549	0.09864289
250	0xbd3a82fc	-0.045535073
251	0xbb2ac65f	-0.002605818
252	0xbd5cede3	-0.053937804
253	0xbde0cc9c	-0.10976526
254	0x3d8bfd1e	0.06835388
255	0xbed95642	-0.42448622

weight f4 [24]
0	0x34b4213e	3.35518e-07
1	0x38c35221	9.313622e-05
2	0x3e03b7ad	0.12863036
3	0x3716c7dd	8.987231e-06
4	0x3c7a3aad	0.015272778
5	0x3e71e239	0.23621453
6	0x3a6492df	0.0008719395
7	0x387bc007	6.0021903e-05
8	0x37b5a941	2.1655696e-05
9	0x3e75b039	0.23993005
10	0x3e94081e	0.28912443
11	0x3c237914	0.009977598
12	0x37b6179b	2.1707083e-05
13	0x36bb4135	5.5806254e-06
14	0x36fdaffc	7.560475e-06
15	0x3a351f54	0.00069092703
16	0x38fad6df	0.00011960952
17	0x3e62496a	0.22098318
18	0x3cd4e947	0.025990142
19	0x3e51e53f	0.20497607
20	0x3e88353e	0.2660312
21	0x3e5cae1b	0.21550791
22	0x37bcc549	2.2503214e-05
23	0x370f3fe8	8.5383435e-06

bias f4 [24]
0	0xb74bd220	-1.2148666e-05
1	0xbab1205f	-0.0013513676
2	0x3e29fc07	0.16600047
3	0xb7cbac4c	-2.4279718e-05
4	0xbd07ab55	-0.03312238
5	0x3ea264f9	0.3171766
6	0xbba71a5a	-0.005099577
7	0xba371dfc	-0.0006985364
8	0xb9cb053d	-0.0003872308
9	0x3f6f111b	0.93385476
10	0xbdd306f1	-0.10304058
11	0xba4f9f89	-0.0007920196
12	0xb9051315	-0.00012690977
13	0xb81b9d38	-3.71013e-05
14	0xb7ca04f3	-2.4082581e-05
15	0xbc865a2a	-0.016400415
16	0xb8f5b3f2	-0.00011716028
17	0x3e8de685	0.27714935
18	0xbe4ff1b0	-0.2030704
19	0x3ef58733	0.4795471
20	0xbda71db2	-0.08159961
21	0x3ebcb91d	0.3685998
22	0xb8bace74	-8.907626e-05
23	0xb8a8120b	-8.014225e-05

running_mean f4 [24]
0	0x3b1ad04b	0.0023622687
1	0x3d0c75d6	0.034292065
2	0xbd1ac2f0	-0.037783563
3	0xbd99bba1	-0.075064905
4	0xbe114904	-0.1418801
5	0xbcd03cee	-0.025419679
6	0x3c3d5a5a	0.011557186
7	0xbc916c46	-0.017751824
8	0x3af4cd77	0.0018676956
9	0x3bbc6523	0.005749361
10	0xbd03f35b	-0.032214504
11	0x3d9f04a0	0.07764554
12	0x3c09836c	0.00839315
13	0x3d8e626a	0.06952365
14	0x3d3d1366	0.046161078
15	0x3b9e868d	0.004837817
16	0x3c0e7728	0.008695401
17	0xbb94ff4b	-0.004547035
18	0x3c2ce095	0.010551591
19	0x3d0753ba	0.033038832
20	0x3d2e8c70	0.0426144
21	0xbcbfcbd1	-0.023412617
22	0xbd60c65b	-0.054876667
23	0x3c35eb76	0.011103502

running_var f4 [24]
0	0x3f12baf0	0.57316494
1	0x3f80b665	1.0055662
2	0x3fb72e4c	1.4311004
3	0x4029784b	2.647967
4	0x413fbe1e	11.983915
5	0x40304642	2.7542882
6	0x40d7146d	6.7212434
7	0x400c4cda	2.1921906
8	0x3f4dd908	0.8040929
9	0x3f2e100e	0.6799325
10	0x40dda6d9	6.926617
11	0x4034bfac	2.8241987
12	0x405d5be5	3.4587338
13	0x4038595f	2.8804548
14	0x3fe2ade4	1.7709317
15	0x3f0e48dd	0.5557993
16	0x3fa1d80a	1.2644055
17	0x3ff9e1ee	1.9522073
18	0x40a0c35a	5.0238466
19	0x3f920bea	1.1409886
20	0x4125b728	10.357216
21	0x3f8dc7ef	1.107664
22	0x401cf167	2.452234
23	0x400303af	2.0470998

weight f4 [16, 24, 1, 1]
0	0x360157f4	1.9273693e-06
1	0xba574591	-0.00082119653
2	0x3d6e54dd	0.0581864
3	0xb6f73913	-7.367818e-06
4	0xbc27a208	-0.010231502
5	0xbec79e1b	-0.38987812
6	0xbb0ab6b3	-0.0021166026
7	0x398c9de6	0.00026820524
8	0xb937834e	-0.00017501155
9	0x3e11a1a0	0.14221811
10	0xbe827075	-0.25476423
11	0xbae07854	-0.0017125704
12	0xb836d256	-4.3588072e-05
13	0x372b0b14	1.0194974e-05
14	0x37408ed6	1.1477348e-05
15	0xbc571581	-0.0131276855
16	0xb88154a3	-6.166964e-05
17	0xbdaf0be8	-0.08547193
18	0x3d4d3b78	0.050105542
19	0x3d6626be	0.05618929
20	0xbc91d49f	-0.017801581
21	0xbe3c0e44	-0.18364817
22	0xb7c33cf9	-2.3274204e-05
23	0x38dbf5f0	0.00010488543
24	0x3680eeed	3.842512e-06
25	0xb9201de7	-0.00015269929
26	0xbdace146	-0.08441405
27	0x35345e2a	6.719225e-07
28	0xbb236187	-0.0024929957
29	0xbd888e22	-0.06667735
30	0xbb04daac	-0.002027194
31	0xb8644c41	-5.4430453e-05
32	0xb92351af	-0.00015575321
33	0xbe266ebb	-0.16253178
34	0x3d293fbe	0.041320555
35	0x3b4b7217	0.0031043345
36	0xb75f0c07	-1.3294636e-05
37	0xb7285daf	-1.0035393e-05
38	0xb4d1c8a2	-3.9075263e-07
39	0x36742139	3.6378171e-06
40	0xb8a6e33b	-7.957822e-05
41	0x3d95be9b	0.07311746
42	0xbc62368c	-0.01380695
43	0x3cf93d30	0.030424684
44	0xbcc9ee48	-0.024649754
45	0xbce65d50	-0.028120667
46	0x37306107	1.0513008e-05
47	0xb81d0d60	-3.7444173e-05
48	0xb6ab2feb	-5.1017755e-06
49	0xb989d51c	-0.00026289455
50	0x3c3d29df	0.011545627
51	0xb6dc80c0	-6.5714994e-06
52	0xbb909ca6	-0.004413205
53	0xbd0e5b46	-0.034755014
54	0x39ac3a4d	0.00032849834
55	0xb7cd963a	-2.4507859e-05
56	0x384040d1	4.5836732e-05
57	0x3a53ba07	0.00080767315
58	0xbd02fe5f	-0.03198087
59	0xbb57a31e	-0.0032903622
60	0x386667a7	5.4932807e-05
61	0xb6ac84e8	-5.141472e-06
62	0xb6066585	-2.0026648e-06
63	0x39865440	0.00025621243
64	0x38bfce40	9.146007e-05
65	0x3dea51d9	0.114413925
66	0x3c8c9f09	0.017165678
67	0xbda5d310	-0.080968976
68	0xbd529691	-0.051413123
69	0x3da7e12b	0.08197244
70	0xb86c71e0	-5.637284e-05
71	0xb708a9e5	-8.145788e-06
72	0x3555c38e	7.9633253e-07
73	0x3a5a7258	0.00083330786
74	0xbe0a8db2	-0.13530615
75	0x3641e798	2.8894046e-06
76	0x3a91e5ac	0.001113107
77	0x3d7a8bf3	0.061168622
78	0xbaea460f	-0.0017873662
79	0xb9923a06	-0.0002789052
80	0xb9978d6c	-0.00028906332
81	0xbf278592	-0.6543819
82	0xbcccbcda	-0.024992395
83	0xba8d6441	-0.0010787324
84	0x37c45b23	2.340746e-05
85	0xb77fb597	-1.5241464e-05
86	0xb5af8f36	-1.3080196e-06
87	0xbb2ecc16	-0.0026671938
88	0xb7fdf92b	-3.0275978e-05
89	0xbd2d2fdc	-0.04228197
90	0xbdf3d504	-0.11905864
91	0x3d5a9630	0.053365886
92	0xbbaa6ef3	-0.0052012145
93	0x3bedaa99	0.007253003
94	0x379ac99b	1.845211e-05
95	0x38015835	3.0838146e-05
96	0xb691a743	-4.3408086e-06
97	0xb92c5f07	-0.00016438599
98	0xbd11328c	-0.035448596
99	0x3625de1e	2.4716205e-06
100	0x3c5a4e81	0.013324381
101	0xbdd74946	-0.10512023
102	0xbb65f118	-0.003508633
103	0xb8b34908	-8.548988e-05
104	0xb99b3f67	-0.00029611142
105	0x3c0d0481	0.008607031
106	0xbd9223eb	-0.07135757
107	0x37aea70f	2.082021e-05
108	0x380a5578	3.2981363e-05
109	0x36620476	3.367922e-06
110	0x363ed05d	2.843349e-06
111	0xbb876188	-0.0041314997
112	0xb81128eb	-3.46088e-05
113	0x3dcf328d	0.10117064
114	0xbd001793	-0.031272482
115	0x3d982a90	0.07429993
116	0xbdfec88e	-0.124405965
117	0x3d90c1a7	0.07068186
118	0xb7b62eb1	-2.1717833e-05
119	0x373dd2e6	1.13143815e-05
120	0xb6c8d5e2	-5.9853637e-06
121	0xb366c875	-5.3733363e-08
122	0xbdc8d0b1	-0.0980543
123	0x35c3a0f9	1.4575481e-06
124	0x3b5b8b59	0.0033499806
125	0xbe5e269e	-0.21694419
126	0xba3ffba3	-0.00073235686
127	0xb75d3cbf	-1.318677e-05
128	0x38cfce8b	9.909001e-05
129	0x3d1d42cf	0.03839379
130	0xbd9bf65e	-0.0761535
131	0xba15dd94	-0.00057169166
132	0x368a84b0	4.1281673e-06
133	0xb7040f2c	-7.871346e-06
134	0xb5683dda	-8.651674e-07
135	0x3a78fd09	0.00094981544
136	0xb74ba41d	-1.21379535e-05
137	0x3e154c6e	0.14579937
138	0xbcd47ea1	-0.025939288
139	0x3e36e7f3	0.17861919
140	0xbdf4e6cc	-0.119580835
141	0x3ce837db	0.028346946
142	0xb635ffd5	-2.7120016e-06
143	0x36493443	2.9981754e-06
144	0xb7073c7e	-8.0607115e-06
145	0x3976bdd0	0.00023531099
146	0xbd1234fc	-0.03569506
147	0x35190129	5.699863e-07
148	0xbb1184ca	-0.0022204393
149	0xbd5559d2	-0.052087612
150	0xb8b2f6b2	-8.533652e-05
151	0xb818a2d7	-3.639128e-05
152	0x38ca8ace	9.657965e-05
153	0xbe1b4648	-0.15163529
154	0xbc7ab4d2	-0.0153019
155	0xba8f4fcb	-0.0010933814
156	0xb702a908	-7.7879595e-06
157	0x3682d8a9	3.8995245e-06
158	0xb66911cb	-3.4730062e-06
159	0x39b40eed	0.00034343396
160	0x37b6a678	2.1773609e-05
161	0x3d7fb4e7	0.06242838
162	0x3abae365	0.0014258443
163	0x3c935867	0.01798649
164	0xbc9e8cda	-0.019354273
165	0xbcd5b995	-0.026089469
166	0x37cb6bc2	2.4249664e-05
167	0xb701d9d9	-7.739721e-06
168	0xb6a03083	-4.774019e-06
169	0xb9d446d5	-0.00040488565
170	0x3c36ad0e	0.011149658
171	0x3759772e	1.2961957e-05
172	0x3bae26ac	0.0053146686
173	0x3c2795ea	0.010228613
174	0x3b03113d	0.0019999288
175	0xb8f04dc5	-0.000114585775
176	0x397073bc	0.00022931298
177	0xbe73d505	-0.23811729
178	0xbe773c37	-0.24144064
179	0xb9e46dad	-0.00043569264
180	0x36a0d172	4.792754e-06
181	0xb6c409d5	-5.8424e-06
182	0x355f531c	8.3194914e-07
183	0xbc1b2e16	-0.009471437
184	0x37477ec5	1.189084e-05
185	0xbcb64d1a	-0.022253562
186	0xbd69ce07	-0.05708125
187	0xbe885178	-0.26624656
188	0xbe20e6e1	-0.15713073
189	0x3d87670f	0.06611454
190	0x383c628a	4.4914465e-05
191	0xb6741c1b	-3.6375193e-06
192	0xb667e64e	-3.4555737e-06
193	0xb9873659	-0.000257897
194	0xbbc6dffc	-0.0060691815
195	0x35dd28f9	1.6477708e-06
196	0xbb81a416	-0.003956328
197	0xbd97d938	-0.07414478
198	0xb9bbf1dc	-0.0003584762
199	0xb8b4ab56	-8.614983e-05
200	0x39c5f242	0.00037755264
201	0x3c32d364	0.010914657
202	0xbd04d7ef	-0.032432493
203	0xba799ead	-0.0009522241
204	0x37dbf782	2.622209e-05
205	0x36ae5069	5.194965e-06
206	0x32e5d85e	2.6757501e-08
207	0xbc0ecc9a	-0.008715773
208	0x381045cd	3.4397282e-05
209	0x3df903d2	0.12158932
210	0xbb30db65	-0.0026986238
211	0xbd972147	-0.07379394
212	0xbd5956ce	-0.0530613
213	0x3c6213e2	0.013798686
214	0xb7e914e1	-2.7785487e-05
215	0x3806d4f3	3.2146414e-05
216	0xb7786d3e	-1.4807387e-05
217	0xb6c09b52	-5.7401276e-06
218	0xbcd2057f	-0.025637386
219	0xb78ec9b5	-1.7021646e-05
220	0x3a933ec0	0.0011233911
221	0x3d815764	0.063154966
222	0x3b1e0054	0.0024109082
223	0x3863d1f2	5.4316544e-05
224	0xb84a28ff	-4.8198734e-05
225	0x3d6802b6	0.05664321
226	0xbe580bf9	-0.21098317
227	0xbbed3a27	-0.0072395983
228	0xb8c8ebe0	-9.580678e-05
229	0x37710a8e	1.4367177e-05
230	0x3697a68f	4.5195407e-06
231	0xbad3635b	-0.0016127633
232	0xb8c47f32	-9.3697e-05
233	0xbe3bd9db	-0.18344824
234	0xbd2694a7	-0.04066911
235	0x3e9f70c8	0.31140733
236	0xbe4246fa	-0.18972388
237	0xbe980c9c	-0.2969712
238	0xb7cf9b47	-2.474863e-05
239	0x3846aa22	4.7365327e-05
240	0xb6aa1650	-5.0689923e-06
241	0xb9310bf1	-0.00016884484
242	0x3d276db5	0.04087611
243	0x3675ed55	3.664599e-06
244	0xbcb35ecd	-0.02189579
245	0x3e1d822d	0.1538169
246	0x39e79ebd	0.00044178023
247	0x37a46d47	1.960121e-05
248	0xb8baa90b	-8.900658e-05
249	0x3e83d972	0.25751835
250	0x3e2411f8	0.1602248
251	0x3b1b79a4	0.0023723627
252	0xb866f941	-5.506841e-05
253	0x377bccbf	1.5008437e-05
254	0x3785b628	1.5939659e-05
255	0x3c3c710d	0.011501563

weight f4 [16]
0	0x3e9e4deb	0.30918822
1	0x3e4930ff	0.19647597
2	0x3e30f12b	0.17279498
3	0x3ea8435b	0.32863888
4	0x3cbfda41	0.023419501
5	0x3e8c3856	0.2738673
6	0x3e3f6763	0.18691783
7	0x3e70b29e	0.23505637
8	0x3e28ea14	0.16495544
9	0x3eb054dd	0.34439746
10	0x3e9a9285	0.3018991
11	0x3e3e3c62	0.18577722
12	0x3deaac84	0.11458686
13	0x3e96869d	0.29399577
14	0x3e8154ed	0.25260106
15	0x3e88b61f	0.26701447

bias f4 [16]
0	0x3e66606c	0.2249772
1	0xbe2d3ab9	-0.16916932
2	0xbd85bd54	-0.06530252
3	0x3f38523a	0.7200047
4	0xbdfc9e2e	-0.12334858
5	0x3d6200a6	0.0551764
6	0xbdf38892	-0.11891283
7	0xbd97f84a	-0.07420404
8	0xbe0f9603	-0.14022069
9	0x3c4d64d9	0.012536251
10	0x3e9cde81	0.30638507
11	0xbe8292a4	-0.25502503
12	0x3e7566fa	0.23965064
13	0x3f2face7	0.68623203
14	0x3c7a535b	0.015278663
15	0xbc7b7d26	-0.015349662

running_mean f4 [16]
0	0xbd8d50f6	-0.06900208
1	0xbe25d293	-0.16193609
2	0x3c4173e1	0.011807413
3	0xbf1989b1	-0.59975725
4	0x3d45770b	0.04820923
5	0x3d9b1453	0.07572236
6	0xbe197615	-0.14986451
7	0xbeb3237a	-0.34988004
8	0xbc77a955	-0.0151160555
9	0x3cffa7bf	0.031207917
10	0x3dee79b8	0.1164431
11	0xbe512c28	-0.20427
12	0xbe6f0b17	-0.23344074
13	0x3f0bccb9	0.54609257
14	0x3d4687bb	0.048469286
15	0x3bb2d926	0.005458015

running_var f4 [16]
0	0x3c869cfc	0.016432278
1	0x3ad1a60d	0.0015994922
2	0x3b143fc7	0.0022621022
3	0x3cc764e2	0.024340097
4	0x3b0e6cab	0.0021732252
5	0x3bd244a5	0.0064168745
6	0x3aaa52fd	0.0012994703
7	0x3c4d0074	0.012512315
8	0x3ad33721	0.0016114452
9	0x3c9d9254	0.019234814
10	0x3c799e03	0.015235427
11	0x3b90a37a	0.004414019
12	0x3b212329	0.0024587607
13	0x3c70a64d	0.014688087
14	0x3b94fbc6	0.0045466153
15	0x3ba20128	0.0049439855

weight f4 [4, 16, 3, 3]
0	0x3e0e4f71	0.13897492
1	0xbd89262d	-0.066967346
2	0xbcfd86f2	-0.030948136
3	0x3e30952a	0.17244402
4	0xbd6992ba	-0.057024695
5	0x3dfc4709	0.123182364
6	0xbdc80b1e	-0.097677454
7	0x3d4cc4ec	0.049992487
8	0xbdbc2ed1	-0.09188617
9	0x3c8eedfc	0.017447464
10	0x3d0a8769	0.033820543
11	0x3dc62bff	0.0967636
12	0xbc97f1c3	-0.018547898
13	0x3d02977c	0.031882748
14	0xbc49a536	-0.012307456
15	0x3ceea7b4	0.029132701
16	0xbcaab5df	-0.020838676
17	0x3d65a28b	0.056063216
18	0x3c69a3e2	0.014260264
19	0x3dafa9cb	0.08577307
20	0xbc156fa4	-0.0091208555
21	0xbc21f001	-0.009883882
22	0x3bab8dea	0.0052354233
23	0xba9fe503	-0.0012198988
24	0xbd85a878	-0.065262735
25	0xbd58b0b3	-0.05290289
26	0x3af4b844	0.0018670638
27	0xbee2b5b5	-0.44279256
28	0x3eb0eda9	0.3455632
29	0x3e05a2f0	0.13050437
30	0xbdf31bbd	-0.11870525
31	0x3e3644f3	0.1779974
32	0xbe39e59e	-0.18153998
33	0x3f01b31c	0.50663924
34	0xbecd6e04	-0.40122998
35	0xbd15ec4a	-0.036602296
36	0x3d8cb6be	0.06870793
37	0x3da41ae4	0.080129415
38	0xbc9eb4d2	-0.019373331
39	0xbc44e440	-0.01201731
40	0xbd3df931	-0.046380226
41	0xbab476e3	-0.0013768341
42	0xbd462bb0	-0.048381507
43	0xbd0b8adb	-0.03406797
44	0xbb61e2f7	-0.0034467557
45	0x3d5aa85e	0.053383224
46	0x3dec4163	0.11535909
47	0xbb70f52d	-0.003676723
48	0x3cad1c69	0.021131711
49	0xbc7ba537	-0.0153592145
50	0x3da321b6	0.07965414
51	0xbe0ae48b	-0.13563745
52	0xbd5ad263	-0.053423297
53	0xbd802817	-0.062576465
54	0x3d2f911f	0.042863008
55	0x3d4206f0	0.047369897
56	0x3db4de9e	0.08831523
57	0xbbbdda9d	-0.005793883
58	0x3d478322	0.048709042
59	0xbcb371c0	-0.021904826
60	0xbb151342	-0.0022747074
61	0x3b4a695f	0.003088556
62	0x3d9b7ccb	0.07592162
63	0xbe1a15c1	-0.15047361
64	0x3cd6b10f	0.026207475
65	0x3d90e852	0.070755616
66	0xbd910e0d	-0.07082758
67	0x3e00854e	0.12550852
68	0x3c6eb5ca	0.014569709
69	0x3deeed10	0.1166631
70	0xbe0a703e	-0.1351938
71	0x3d62b0f5	0.05534454
72	0x3cf69a16	0.03010277
73	0x3dcaaaae	0.09895836
74	0xbd5348fb	-0.05158327
75	0x3cc4a307	0.024003519
76	0x3c9e6f3b	0.019340148
77	0xba87c290	-0.0010357667
78	0xbd910ed5	-0.07082907
79	0xbd1b0059	-0.03784213
80	0xbc317888	-0.01083196
81	0x3d18aa21	0.037271623
82	0xbe1fe040	-0.15612888
83	0xbb7263be	-0.003698572
84	0xbd781837	-0.060569968
85	0xbd17b7ab	-0.037040394
86	0x3d670e22	0.056409962
87	0x3d86e2e5	0.065862454
88	0x3e87e845	0.26544395
89	0xbe60ccd6	-0.21953139
90	0x3e01d8a0	0.12680292
91	0xbe5d4402	-0.21607974
92	0x3dd14255	0.1021773
93	0xbdc29cf9	-0.095025964
94	0xbd314075	-0.04327436
95	0xbc151655	-0.009099563
96	0xbdd288a4	-0.102799684
97	0x3ee253f3	0.44204673
98	0xbd8596c0	-0.06522894
99	0x3b05d10f	0.0020418798
100	0x3ce35533	0.027750587
101	0x3e05c564	0.1306358
102	0xbd1a34a5	-0.037647862
103	0x3d22f932	0.039788432
104	0xbc715ef6	-0.014732113
105	0x3dad30b7	0.08456557
106	0xbd5051c1	-0.050859217
107	0x3b3f1790	0.0029158331
108	0xbdaad040	-0.08340502
109	0x3d8e4053	0.069458626
110	0x3bdca5b0	0.0067336187
111	0xbcee64cf	-0.029100804
112	0x3d8c5228	0.068516076
113	0xbd015db5	-0.031583507
114	0x3ddbc6d0	0.1073128
115	0xbdd4b71b	-0.10386487
116	0x3ce65ac2	0.028119449
117	0x3ead5dd4	0.33860648
118	0xbe262183	-0.16223721
119	0x3b4e40ee	0.0031471807
120	0xbd8d30c1	-0.06894065
121	0xbe0c8ce4	-0.1372562
122	0x3da049ac	0.07826552
123	0xbeb6ebde	-0.35726827
124	0x3eba050f	0.36331984
125	0x3b723271	0.0036956335
126	0x3d9f10a8	0.07766849
127	0x3e01e68a	0.126856
128	0xbd8a67c2	-0.067580715
129	0x3d40b26f	0.047045168
130	0xbd4245c5	-0.04742982
131	0xbbd27ef9	-0.0064238277
132	0xbdebdb7c	-0.11516473
133	0xbdbd4e8d	-0.09243498
134	0x3cb9d8e6	0.022686433
135	0x3d7d3342	0.06181646
136	0x3daa170f	0.08305179
137	0xbd3a3d5f	-0.045468684
138	0xbd6c50f2	-0.057694383
139	0x3d16c7b6	0.036811553
140	0xbcfa0fb2	-0.030525062
141	0xbd7bec44	-0.061504617
142	0xbd439b34	-0.047755435
143	0xbc61dd69	-0.013785698
144	0xbc7adaad	-0.015310925
145	0xbdef7032	-0.116913214
146	0x3d89202c	0.066955894
147	0xbdb906c8	-0.090344965
148	0x3dcb6b61	0.0993259
149	0x3d4949fc	0.049142823
150	0xbd8cf174	-0.06881991
151	0x3dcfae69	0.10140688
152	0x3bf39c2b	0.007434388
153	0x3d2bd5d0	0.041951954
154	0xbd2ede18	-0.042692274
155	0xbc69c2a0	-0.014267594
156	0x3d95b7f6	0.073104784
157	0xbc8e547e	-0.017374273
158	0x3bed015f	0.0072328295
159	0x3cc9bdf8	0.024626717
160	0x3cd44924	0.025913782
161	0xbc90d6de	-0.017680582
162	0x3d4c4a93	0.049875807
163	0xbc14de1e	-0.00908616
164	0xbcf17952	-0.029476795
165	0xbcab11e0	-0.020882547
166	0x3c432ccb	0.011912535
167	0xbd462ab1	-0.048380557
168	0xbc6ffc35	-0.014647533
169	0x3cc455a1	0.023966612
170	0xbc936c05	-0.017995844
171	0x3c43cf14	0.011951227
172	0x3d51bc6f	0.051205095
173	0x3cb441d5	0.022004047
174	0x3eae0edd	0.33995715
175	0xbee6b69e	-0.450612
176	0x3dd01bd4	0.10161558
177	0x39f54356	0.0004678021
178	0xbe10fbe8	-0.14158595
179	0x3d970f6d	0.07375989
180	0xbbb85819	-0.0056257364
181	0x3b385fbb	0.0028133232
182	0x3b871e58	0.0041234903
183	0xbc8eff19	-0.017455624
184	0x3d95ae75	0.07308666
185	0xbd7385b8	-0.059453696
186	0xbc6c2428	-0.014412917
187	0x3cd8c5a6	0.026461434
188	0xbc92fa4b	-0.017941615
189	0x3c4e0213	0.012573737
190	0xbd52c064	-0.05145301
191	0x3d577319	0.0526
192	0xbd8347e2	-0.06410195
193	0x3d86365f	0.06553339
194	0xbdb12225	-0.08649091
195	0xbcacda0b	-0.021100065
196	0x3ce89ee4	0.028396077
197	0xbd0cb1d3	-0.034349274
198	0x3d77d3fd	0.060504902
199	0xbcf1a550	-0.029497772
200	0xbcd4a6a6	-0.02595837
201	0x3d85b3bc	0.06528422
202	0x3c37280a	0.01117898
203	0xbc72ff47	-0.014831371
204	0x3afb8a99	0.0019191086
205	0x3cba354d	0.022730494
206	0xbd19b696	-0.037527643
207	0x3d3f42ad	0.046694446
208	0x3d9844cd	0.07434998
209	0x3c1d6942	0.009607615
210	0x3d962f74	0.0733327
211	0xbde3533b	-0.11099859
212	0xbc2defba	-0.010616237
213	0xbda68573	-0.08130922
214	0xbdb71184	-0.08938888
215	0x3d56f7e9	0.05248252
216	0x3d50d26e	0.05098193
217	0xbbead84d	-0.0071668983
218	0xbcf9c75f	-0.030490575
219	0xbca2da32	-0.019879434
220	0x3c8b4a3d	0.017003173
221	0xbd875cd8	-0.066095054
222	0xbc8068ad	-0.015674913
223	0x3c952e85	0.018210659
224	0xbcaad822	-0.020855013
225	0xbd15210e	-0.036408477
226	0xbcb8a7fe	-0.022541042
227	0xbc1cda90	-0.009573594
228	0xbe170c8e	-0.14750883
229	0x3de455da	0.111491874
230	0x3b3ff40c	0.002928975
231	0xbd9ae387	-0.07562929
232	0xbd2466cb	-0.040137094
233	0xbd819718	-0.06327647
234	0xbe3158de	-0.17319056
235	0xbe024aa2	-0.12723783
236	0x3c710047	0.014709539
237	0xbe83c3a1	-0.2573519
238	0x3e5c77a1	0.2153001
239	0xbd74f28e	-0.05980163
240	0xbdcc8637	-0.09986537
241	0x3dac82a6	0.08423357
242	0xbd9bfc2a	-0.07616456
243	0x3d48f17d	0.049058426
244	0x3cab7c1a	0.0209332
245	0x3a26bd6c	0.00063606235
246	0x3d5acf5d	0.053420413
247	0xbd110fca	-0.03541545
248	0xbc45681f	-0.01204875
249	0xbcc94345	-0.02456821
250	0x3d06baa8	0.032892853
251	0xbb87df01	-0.004146457
252	0x3cceb645	0.025233397
253	0x3d5afcfe	0.05346393
254	0xbc74d37b	-0.014942999
255	0x3d85cd9d	0.06533358

weight f4 [28]
0	0x39354dba	0.0001729046
1	0x3da13df9	0.078731485
2	0x3600aa0c	1.9172467e-06
3	0x3e54414f	0.20728038
4	0x377dd894	1.5130401e-05
5	0x36d8dc30	6.462935e-06
6	0x3646635e	2.9562138e-06
7	0x3b84a19d	0.004047586
8	0x3f4ae2e0	0.79252434
9	0x3e9e591e	0.30927366
10	0x3e0ebc8c	0.13939112
11	0x34ced13d	3.852273e-07
12	0x33ca7c96	9.42902e-08
13	0x3e063309	0.13105406
14	0x3e5262e5	0.20545538
15	0x3a14b25c	0.00056723296
16	0x392e8a77	0.00016645515
17	0x3869bd6c	5.572794e-05
18	0x3a83eb18	0.001006457
19	0x3bf21e29	0.0073888493
20	0x3a04a0fa	0.0005059388
21	0x3e298177	0.16553293
22	0x3af16a89	0.0018418591
23	0x3ea04c85	0.3130838
24	0x3e96c60a	0.29447967
25	0x3e55c9e2	0.20877793
26	0xbdb93dbd	-0.09044979
27	0x35374edb	6.828756e-07

bias f4 [28]
0	0xbb01cd2d	-0.0019806132
1	0x3e39dfbc	0.18151754
2	0xb745127c	-1.1746419e-05
3	0x3f23cfa7	0.6398873
4	0xb9993be2	-0.0002922705
5	0xb8ff9577	-0.000121871875
6	0xb80ab6ec	-3.3072123e-05
7	0xbc1a7af1	-0.009428726
8	0xbf0ee71f	-0.5582141
9	0xbd1d9f76	-0.038482152
10	0xbcaa1ebd	-0.02076661
11	0xb6913305	-4.327276e-06
12	0xb6105d50	-2.1511987e-06
13	0x3ebf6ef9	0.37389353
14	0xbe741dbf	-0.23839472
15	0xbc100389	-0.008789905
16	0xba7aebce	-0.0009571881
17	0xb9c0c52c	-0.00036767998
18	0xbb49fb95	-0.003082012
19	0xbd6868fe	-0.056740753
20	0xbb47a67b	-0.003046422
21	0xbdc2060c	-0.094738096
22	0xbc46700b	-0.012111674
23	0x3ed07426	0.40713614
24	0xbdbf4025	-0.093384065
25	0x3eb384e4	0.35062325
26	0x3d553714	0.05205448
27	0xb692e7a5	-4.378106e-06

running_mean f4 [28]
0	0x3ddcc439	0.10779614
1	0xbee55669	-0.44792488
2	0xbe318518	-0.17335927
3	0x3e3870d3	0.18011789
4	0x3b1ad04b	0.0023622687
5	0x3d0c75d6	0.034292065
6	0xbd1ac2f0	-0.037783563
7	0xbd99bba1	-0.075064905
8	0xbe114904	-0.1418801
9	0xbcd03cee	-0.025419679
10	0x3c3d5a5a	0.011557186
11	0xbc916c46	-0.017751824
12	0x3af4cd77	0.0018676956
13	0x3bbc6523	0.005749361
14	0xbd03f35b	-0.032214504
15	0x3d9f04a0	0.07764554
16	0x3c09836c	0.00839315
17	0x3d8e626a	0.06952365
18	0x3d3d1366	0.046161078
19	0x3b9e868d	0.004837817
20	0x3c0e7728	0.008695401
21	0xbb94ff4b	-0.004547035
22	0x3c2ce095	0.010551591
23	0x3d0753ba	0.033038832
24	0x3d2e8c70	0.0426144
25	0xbcbfcbd1	-0.023412617
26	0xbd60c65b	-0.054876667
27	0x3c35eb76	0.011103502

running_var f4 [28]
0	0x3e8f7ce0	0.2802496
1	0x3e450538	0.19240272
2	0x3e8f205a	0.2795437
3	0x3e5b7b4f	0.21433757
4	0x3f12baf0	0.57316494
5	0x3f80b665	1.0055662
6	0x3fb72e4c	1.4311004
7	0x4029784b	2.647967
8	0x413fbe1e	11.983915
9	0x40304642	2.7542882
10	0x40d7146d	6.7212434
11	0x400c4cda	2.1921906
12	0x3f4dd908	0.8040929
13	0x3f2e100e	0.6799325
14	0x40dda6d9	6.926617
15	0x4034bfac	2.8241987
16	0x405d5be5	3.4587338
17	0x4038595f	2.8804548
18	0x3fe2ade4	1.7709317
19	0x3f0e48dd	0.5557993
20	0x3fa1d80a	1.2644055
21	0x3ff9e1ee	1.9522073
22	0x40a0c35a	5.0238466
23	0x3f920bea	1.1409886
24	0x4125b728	10.357216
25	0x3f8dc7ef	1.107664
26	0x401cf167	2.452234
27	0x400303af	2.0470998

weight f4 [16, 28, 1, 1]
0	0xb9e2a178	-0.00043226383
1	0xbd0a1b99	-0.033717725
2	0xb5b66065	-1.3588111e-06
3	0x3ddda827	0.10823088
4	0x373518e2	1.0794234e-05
5	0x3617da73	2.2627908e-06
6	0x36bb2b41	5.5780697e-06
7	0x3b4402af	0.0029908826
8	0x3eb12d98	0.34605098
9	0x3d5b1a06	0.053491615
10	0x3d113aa5	0.03545632
11	0xb5e1193f	-1.6771154e-06
12	0x368c05aa	4.1729845e-06
13	0xbdb529fb	-0.08845898
14	0xbd0b7c72	-0.034054227
15	0xba1bbbd5	-0.000594077
16	0xb8db4e28	-0.000104572915
17	0xb7e1c9c6	-2.6916048e-05
18	0x39416222	0.00018442472
19	0x3c29829a	0.010346079
20	0x38aad096	8.145084e-05
21	0x3bed0fc2	0.0072345445
22	0xbb731175	-0.0037089263
23	0xbcd2ab07	-0.025716318
24	0xbd925407	-0.07144933
25	0x3cdc32ad	0.026879633
26	0x3c28bf84	0.010299567
27	0xb5cce31a	-1.526528e-06
28	0xba80fe83	-0.0009841475
29	0x3d4c8cfc	0.04993914
30	0x366834b5	3.4601373e-06
31	0xbec4b041	-0.3841572
32	0x391b395f	0.00014803324
33	0x380294cb	3.113299e-05
34	0xb6d00020	-6.1988976e-06
35	0xbb1a949a	-0.0023587109
36	0xbe934c4b	-0.28769144
37	0x3d786342	0.060641535
38	0xbd3d181c	-0.04616557
39	0x359360d2	1.0980532e-06
40	0x3609b8f6	2.0522252e-06
41	0x3e7099f9	0.23496236
42	0xbe1e51d2	-0.154609
43	0x3b73cff2	0.0037202802
44	0x3a163e81	0.00057313597
45	0x384129ff	4.6053898e-05
46	0x39b9806d	0.00035381634
47	0x3c8412ff	0.01612234
48	0x39dd595a	0.00042218977
49	0x3d726c92	0.059185572
50	0xba375a64	-0.0006994365
51	0xbcb5042b	-0.022096714
52	0xbe1468e4	-0.14493138
53	0xbc89bc61	-0.016813459
54	0xbc0f179b	-0.008733655
55	0xb5de120c	-1.6545541e-06
56	0x3a4f92d8	0.0007918305
57	0xbdb274dd	-0.08713696
58	0xb5dfc67f	-1.6672565e-06
59	0x3ea1cf6d	0.31603566
60	0xb8dd018b	-0.000105383886
61	0xb734626d	-1.0751753e-05
62	0xb6ec9495	-7.0506453e-06
63	0xbac9a1dd	-0.0015383322
64	0xbd5509cd	-0.0520113
65	0xbd2da608	-0.042394668
66	0x3d1e95ac	0.038716957
67	0xb62ad636	-2.5456661e-06
68	0xb598372f	-1.1340943e-06
69	0xbba53452	-0.0050416375
70	0xbcb0c71e	-0.021579321
71	0xb9f350db	-0.00046408814
72	0xba309c04	-0.00067371153
73	0x37ce0486	2.455922e-05
74	0xb9d7c1ce	-0.0004115239
75	0x3c5a796e	0.013334615
76	0xbaf65bbe	-0.0018795652
77	0xbe04f7a0	-0.12985086
78	0xbb1c0667	-0.0023807527
79	0x3dffc01e	0.12487815
80	0xbde98a65	-0.1140335
81	0xbe02a71b	-0.12759058
82	0x3cdcd18c	0.026955388
83	0x358ce034	1.0496065e-06
84	0x3af2fb3c	0.0018538008
85	0x3d628fa0	0.055312753
86	0x35c05c0b	1.4331903e-06
87	0x3d8dbbaf	0.069205634
88	0xb8b65516	-8.694285e-05
89	0xb7b4b0ea	-2.1540054e-05
90	0x35f8abc0	1.8527426e-06
91	0x3a106c19	0.0005509272
92	0xbdbdf032	-0.09274329
93	0x3e657a38	0.22409904
94	0xbd04dff5	-0.032440145
95	0x35c5e875	1.4745298e-06
96	0xb54591d4	-7.3600427e-07
97	0xbd23c003	-0.03997804
98	0x3d8fb6b1	0.070172675
99	0x39c39f81	0.00037312138
100	0xb99540fe	-0.00028467918
101	0xb7b8e589	-2.2041395e-05
102	0xb9215708	-0.00015386578
103	0xbb1cbe98	-0.0023917314
104	0xb9025df6	-0.0001243277
105	0x3c50b85c	0.012739267
106	0xbb309dd4	-0.0026949542
107	0x3d54af63	0.051925074
108	0xbb178fc1	-0.0023126455
109	0x3cdc4d33	0.02689228
110	0xbcff398b	-0.031155368
111	0xb4965857	-2.8003953e-07
112	0x390691ca	0.00012833546
113	0xb9b0649d	-0.000336443
114	0x35f240f7	1.8049312e-06
115	0x3a9ad8a3	0.001181383
116	0xb8913733	-6.9244204e-05
117	0xb79e2b29	-1.8855166e-05
118	0xb6d59259	-6.364932e-06
119	0x3735e433	1.08415725e-05
120	0x39607fd9	0.00021409932
121	0x3a3af7b4	0.00071322476
122	0x38a870da	8.0318845e-05
123	0xb5a44641	-1.2239399e-06
124	0xb63b6a0c	-2.7926899e-06
125	0xba472285	-0.00075963914
126	0xb926122d	-0.00015837765
127	0x38acaf71	8.2342776e-05
128	0xb90b1b5f	-0.0001326627
129	0xb6189735	-2.273778e-06
130	0xb83597ce	-4.3295142e-05
131	0xb8f65724	-0.00011746425
132	0xb89bb30d	-7.424327e-05
133	0xb73fa1d2	-1.1422164e-05
134	0xb881d4fd	-6.1908715e-05
135	0x398d3f68	0.00026940857
136	0xb99494e4	-0.00028339692
137	0xb9eed567	-0.00045553895
138	0xb98e430f	-0.00027134313
139	0x3528088b	6.259731e-07
140	0xba6c606f	-0.0009017055
141	0xbdc64478	-0.09681028
142	0xb6100e82	-2.1466117e-06
143	0xbd3ef6a1	-0.046621922
144	0x388fbcfb	6.853972e-05
145	0x36585a4b	3.2239066e-06
146	0x3620c381	2.3955656e-06
147	0x39af618d	0.00033451282
148	0x3e2c5869	0.16830601
149	0xbe89174b	-0.26775584
150	0xbe025849	-0.1272899
151	0xb3bae702	-8.70332e-08
152	0x33b5a372	8.4582e-08
153	0xbd038188	-0.032105953
154	0xbd9a5da3	-0.07537391
155	0xbb330061	-0.0027313458
156	0x3a189cb9	0.00058216933
157	0xb87bf779	-6.007354e-05
158	0xb9f343c0	-0.0004639905
159	0xbc94a170	-0.018143386
160	0x3abf8e50	0.0014614556
161	0x3e2c100e	0.16803
162	0xbb6bd9e6	-0.0035988032
163	0xbda29921	-0.07939363
164	0xbe1501e6	-0.14551505
165	0x3dbaa709	0.09113891
166	0x3d82e877	0.063919954
167	0x35ea3f07	1.7452702e-06
168	0x3a26e2e1	0.0006366205
169	0xbcee8907	-0.029118074
170	0xb5980596	-1.1326508e-06
171	0xbdb8934c	-0.0901247
172	0x370b01a9	8.285432e-06
173	0x35e4f712	1.7059231e-06
174	0xb76b0624	-1.4008521e-05
175	0xbad7f3b1	-0.0016475824
176	0xbe25df24	-0.16198403
177	0xbd0128f6	-0.031533204
178	0xbc22454c	-0.009904217
179	0xb4c3e5e3	-3.6488845e-07
180	0xb622224e	-2.415985e-06
181	0x3df1afbe	0.11801098
182	0xbe1df69e	-0.15426108
183	0x3b7cf287	0.0038596706
184	0x39d0be6d	0.0003981473
185	0x38e20b5e	0.00010778637
186	0x399688e4	0.0002871222
187	0xbca3b2d8	-0.01998274
188	0x3a5f6ae6	0.0008522704
189	0x3d82e70e	0.063917264
190	0x3b8cd6f1	0.004298084
191	0x3ee898e2	0.4542914
192	0xbb6e9bc5	-0.0036408764
193	0xbe048248	-0.12940323
194	0x3cf11aa8	0.029431656
195	0x35b3520a	1.3360416e-06
196	0xba35a97a	-0.0006929856
197	0xbe1b8170	-0.15186095
198	0xb6067e75	-2.0041164e-06
199	0x3e5eb567	0.21748887
200	0xb7e95045	-2.7813143e-05
201	0xb7b87fb3	-2.1993974e-05
202	0x37884b6a	1.624758e-05
203	0xbb0a8b49	-0.002114015
204	0xbe0b700f	-0.13616966
205	0xbd305626	-0.043050908
206	0xbd64859e	-0.05579149
207	0x359be9f5	1.161649e-06
208	0x3585a444	9.95708e-07
209	0xbdf311cf	-0.11868631
210	0xbd575c28	-0.05257812
211	0xba2d3bf1	-0.0006608358
212	0x3a31eacb	0.0006787001
213	0xb7cf97e2	-2.4747049e-05
214	0xb9c34d85	-0.00037251055
215	0x3b3fbdec	0.002925749
216	0x3a21dfdc	0.000617502
217	0x3d09848b	0.03357367
218	0x3b47ca06	0.0030485406
219	0xbdf878a0	-0.121323824
220	0xbd9fe0f6	-0.0780658
221	0x3e23be4d	0.15990563
222	0xbcaf28fb	-0.021381846
223	0xb5a5ab84	-1.2343376e-06
224	0x395a4202	0.0002081469
225	0x3cf651e2	0.030068342
226	0x365463f6	3.1648647e-06
227	0x3e4bb1de	0.1989207
228	0xb89aa50e	-7.374036e-05
229	0xb874c95b	-5.836166e-05
230	0x36ad6420	5.167458e-06
231	0xb898fef4	-7.2954135e-05
232	0x3d0e9001	0.0348053
233	0xbcccb92f	-0.024990646
234	0x3c6025d4	0.013680894
235	0xb5b46180	-1.3439421e-06
236	0xb5819235	-9.653801e-07
237	0xbd4bca6f	-0.049753603
238	0x3c9ec85b	0.019382646
239	0xbad9cc46	-0.0016616664
240	0x3899452c	7.308493e-05
241	0xb885587f	-6.358418e-05
242	0x3726b752	9.937054e-06
243	0x3b2d18c3	0.0026412464
244	0xb8a5a9e4	-7.899458e-05
245	0x3cfc53ac	0.030801617
246	0xbb957c9f	-0.004561975
247	0xbe740c05	-0.2383271
248	0xbdaee2a6	-0.085393235
249	0x3c99ffa9	0.018798666
250	0xbb5ca6de	-0.0033668797
251	0xb52207ba	-6.0360946e-07
252	0xbb310f45	-0.0027017158
253	0x3b6cf7eb	0.0036158513
254	0x3686c92f	4.016932e-06
255	0xbe8fccf0	-0.28086042

weight f4 [16]
0	0x3e9dc68f	0.3081555
1	0x3e8abdfa	0.27098066
2	0x3e4995bd	0.19686027
3	0x3e4359ab	0.19077174
4	0x38af0852	8.3462e-05
5	0x3e38beb3	0.18041496
6	0x3e932cef	0.2874522
7	0x3ec7ecbe	0.39047807
8	0x3e143acc	0.14475554
9	0x3eaf1c4a	0.3420127
10	0x3e002bda	0.12516728
11	0x3ee267b7	0.44219753
12	0x3e21a257	0.15784584
13	0x3ce98566	0.028505992
14	0x3ed97037	0.42468426
15	0x3eda6953	0.4265848

bias f4 [16]
0	0xbe3c99be	-0.18418023
1	0x3ebf81eb	0.37403807
2	0x3c3693d8	0.011143647
3	0xbe2c0465	-0.16798551
4	0xba1b611d	-0.0005927252
5	0x3e157727	0.14596234
6	0x3efe52ee	0.49672645
7	0xbe193815	-0.149628
8	0x3e9b9a4e	0.30391163
9	0xbbf58425	-0.0074925595
10	0x3d99fee5	0.075193204
11	0xbebed418	-0.3727119
12	0x3e779521	0.24177982
13	0xbc0cf144	-0.008602444
14	0xbef1847d	-0.47171393
15	0xbea93d11	-0.33054402

running_mean f4 [16]
0	0x3d8b4f93	0.06802287
1	0xbe4f3dc1	-0.20238401
2	0x3e3355a5	0.1751314
3	0x3da1d2dc	0.07901546
4	0x39d7cfef	0.00041162918
5	0xbd94210f	-0.07232868
6	0x3ddd06f5	0.107923426
7	0x3d3d6d70	0.046246946
8	0x3c8e3d88	0.017363325
9	0xbe24ceef	-0.16094564
10	0x3d0b1a28	0.03396049
11	0xb94c58e5	-0.00019488072
12	0xbd9e8f60	-0.0774219
13	0xbc5b6c92	-0.013392584
14	0x3cde5eec	0.027144872
15	0x39eb39d5	0.0004486578

running_var f4 [16]
0	0x3c1de53a	0.009637171
1	0x3c85dbe8	0.016340211
2	0x3b89721e	0.004194512
3	0x3b17454a	0.002308207
4	0x33dcea24	1.0287138e-07
5	0x3c0a4751	0.008439855
6	0x3cfd68c6	0.030933749
7	0x3c2a7267	0.010403252
8	0x3c374099	0.011184835
9	0x3c928236	0.017884355
10	0x3ab9b5ee	0.0014168599
11	0x3ca2559a	0.019816209
12	0x3c5e668b	0.013574253
13	0x37d41afb	2.5284933e-05
14	0x3c80d64f	0.01572719
15	0x3c6dc11a	0.014511371

weight f4 [4, 16, 3, 3]
0	0x3c73201c	0.014839198
1	0xbcfa8966	-0.030583095
2	0x3d0cc69b	0.034369092
3	0x3d892991	0.06697381
4	0xbe7463cb	-0.23866193
5	0x3cc58c20	0.024114668
6	0xbda8411d	-0.082155444
7	0x3e08304a	0.13299671
8	0x3d153514	0.036427572
9	0x3d3aa8c3	0.0455711
10	0xbeb62213	-0.35572872
11	0x3d4500d0	0.048096478
12	0xbdec0293	-0.115239285
13	0x3e89c66e	0.26909202
14	0xbe51e8f2	-0.20499018
15	0xbcc8f4d5	-0.024530808
16	0xbeb22010	-0.34790087
17	0x3c15b8ba	0.0091382805
18	0x3d088556	0.033330284
19	0x3e6f6713	0.23379163
20	0xbdd80e1b	-0.105495654
21	0x3dd6453b	0.104624234
22	0xbd6b2c51	-0.05741531
23	0x3df97ccd	0.12182007
24	0xbd92084b	-0.07130488
25	0x3e1fbb36	0.15598759
26	0x3a5e79c1	0.00084867707
27	0x3cb6c900	0.022312641
28	0xbd8e9052	-0.06961121
29	0x3e479ff5	0.19494613
30	0xbd37def9	-0.044890378
31	0x3d73a84b	0.05948667
32	0xbc70a8bd	-0.014688668
33	0x3dc50aed	0.096212246
34	0x3d6e3b14	0.05816181
35	0xbd1c1094	-0.038101748
36	0xb76b837f	-1.4037708e-05
37	0x3aa035cd	0.0012223065
38	0x39e9ec58	0.00044617313
39	0x3a07eba7	0.0005184956
40	0xb7fd1089	-3.016765e-05
41	0x3a22b3f2	0.00062066235
42	0x38047e9b	3.1589163e-05
43	0x3820d981	3.834954e-05
44	0x38e35137	0.00010839331
45	0x3d901048	0.070343554
46	0xbc79b131	-0.01524
47	0x3d4a81b0	0.049440086
48	0xbe231bc0	-0.15928555
49	0xbe06019d	-0.13086553
50	0xbca5aef4	-0.020225026
51	0xbd6114e6	-0.05495157
52	0x3cf4f82b	0.029903492
53	0x3d2c7e1b	0.04211245
54	0xbe024d62	-0.12724832
55	0xbea4d5d7	-0.32194397
56	0xbd1980de	-0.037476413
57	0x3d3316de	0.04372298
58	0x3e9fe7ca	0.3123153
59	0xbdf1d034	-0.1180729
60	0xbe3e0900	-0.1855812
61	0xbee31e86	-0.44359225
62	0xbdc82aa2	-0.097737566
63	0x3e1e37fa	0.15451041
64	0x3eaa0b73	0.3321186
65	0x3e4fce92	0.20293644
66	0x3dc3c719	0.09559459
67	0x3d914f68	0.07095224
68	0x3dafd9b0	0.085864425
69	0x3d2680c2	0.040650137
70	0xbd969407	-0.07352453
71	0xbd301f91	-0.042998854
72	0xbcc44880	-0.023960352
73	0x3e862ffb	0.2620848
74	0xbd484d69	-0.04890195
75	0x3d48c9ce	0.04902058
76	0xbe61b079	-0.22039975
77	0x3d7453b6	0.059650145
78	0x3cd33a62	0.025784675
79	0x3e5b45ff	0.2141342
80	0x3ca58db2	0.020209167
81	0x3d8ebd28	0.069696724
82	0xbe17a0ed	-0.14807482
83	0x3dd2dd7f	0.10296153
84	0xbd0c9502	-0.034321792
85	0x3e03bec4	0.1286574
86	0xbde10472	-0.10987176
87	0xbda7b382	-0.08188535
88	0xbe4a25a8	-0.19740927
89	0xbc8280c2	-0.015930537
90	0xbcb7bed2	-0.022429857
91	0xbb7a125a	-0.003815791
92	0xbd0e77df	-0.034782287
93	0xbcee69b8	-0.029103145
94	0x3d802601	0.06257249
95	0xbc025ca1	-0.007956655
96	0xbc5b40d8	-0.013382159
97	0xbd315113	-0.04329021
98	0x3cc36509	0.023851888
99	0xbd44fcaf	-0.04809254
100	0xbde16cc8	-0.110070765
101	0xbdaf42ef	-0.085576884
102	0x3d0738cd	0.033013154
103	0xbe6ce0d9	-0.23132648
104	0x3c302ff6	0.010753622
105	0xbc476581	-0.0121701965
106	0x3dae9db0	0.0852617
107	0x3d8a5d2f	0.067560546
108	0xbd512b38	-0.051066607
109	0xbd754b4b	-0.059886258
110	0x3c46b3bb	0.012127812
111	0xbbec21fb	-0.007206199
112	0x3e02b729	0.12765183
113	0xbd2b9858	-0.041893333
114	0xbc35ab39	-0.011088186
115	0xbe306ae3	-0.17228274
116	0xbdc6788d	-0.09690962
117	0xbc16a1c6	-0.009193843
118	0xbc7600cc	-0.015014838
119	0xbc87c8a4	-0.016575165
120	0x3b12b46e	0.0022385377
121	0x3b2d7b22	0.0026471098
122	0x3ab8f059	0.0014109715
123	0xbb94b1e6	-0.0045378087
124	0xbb473e47	-0.003040211
125	0x39f56518	0.00046805362
126	0xbd6be5e3	-0.057592284
127	0x3dcb8049	0.09936578
128	0x3c97779f	0.018489657
129	0x3dd9c3bd	0.10633037
130	0xbd96e7b8	-0.073684156
131	0xbd98a825	-0.07453946
132	0x3dd2c51c	0.10291502
133	0xbc54ff7a	-0.0130003635
134	0xbdeae911	-0.11470235
135	0x3afbd43f	0.0019213035
136	0xbdb3224f	-0.08746778
137	0xbca646c9	-0.020297425
138	0xbe0feac3	-0.14054398
139	0xbe8faaec	-0.2806009
140	0x3de73861	0.1129005
141	0xbd1a9f5f	-0.037749644
142	0x3ddbcf46	0.10732894
143	0x3d53b6ea	0.051688112
144	0x3cf6ae13	0.030112302
145	0x3e16d53c	0.1472978
146	0xbc84f2ec	-0.016229115
147	0x3d6549c1	0.05597854
148	0xbd6b342d	-0.057422806
149	0x3c2b7ccd	0.010466767
150	0xbd20feb1	-0.039305393
151	0xbdf4b301	-0.11948205
152	0xbd69ca06	-0.05707743
153	0xbe158e6f	-0.14605115
154	0xbec953bc	-0.39321697
155	0xbe28e5eb	-0.16493957
156	0x3e12d584	0.14339262
157	0x3deaafef	0.11459338
158	0x3dd5fe24	0.10448864
159	0xbd61b141	-0.055100683
160	0x3eb4621c	0.35231102
161	0x3e026346	0.12733182
162	0xbd3efcb5	-0.04662772
163	0xbd57c52d	-0.052678276
164	0xbb527372	-0.0032112268
165	0xbd4cfb4b	-0.05004434
166	0xbd019eb2	-0.031645484
167	0xbd94bb9f	-0.072623484
168	0x3e0e2647	0.13881789
169	0xbd2fbc0b	-0.04290394
170	0x3d87a944	0.06624082
171	0xbd440cd9	-0.047863815
172	0x3d2e2a5e	0.042520873
173	0x3cdd9200	0.027047157
174	0xbd840e75	-0.0644807
175	0xbd9020d0	-0.070375085
176	0xbdd4eff6	-0.103973314
177	0xbcada43c	-0.021196477
178	0xbd9c34a6	-0.076272294
179	0xbe391442	-0.18074134
180	0xb9f632a4	-0.00046958507
181	0x394bcc78	0.00019435759
182	0x3807f8d7	3.241826e-05
183	0x385f95e5	5.3306943e-05
184	0xb7676313	-1.37917405e-05
185	0xb91a2962	-0.00014702001
186	0x39903aae	0.0002750954
187	0xba05fd18	-0.0005111261
188	0xb8b305ce	-8.536466e-05
189	0x3e0c6300	0.1370964
190	0x3df12f79	0.11776633
191	0xbcec6f1a	-0.028861571
192	0xbd280a4e	-0.041025452
193	0xbdce343f	-0.10068559
194	0xbbf901a1	-0.007599071
195	0xbe6854d5	-0.22688611
196	0xbe577013	-0.21038847
197	0x3bf91562	0.007601426
198	0xbe38a884	-0.18033034
199	0xbedb15fe	-0.42790216
200	0xbd803fb1	-0.06262148
201	0x3daf6324	0.085638314
202	0x3d949c61	0.072563894
203	0x3c3835af	0.011243268
204	0x3c139209	0.009006985
205	0x3e7edb8d	0.2488844
206	0x3d08f121	0.033433083
207	0x3a8d49a4	0.0010779393
208	0xbcd406cf	-0.025882153
209	0xbd824b78	-0.06362051
210	0xbe66e980	-0.2255001
211	0xbdaa0cf5	-0.083032526
212	0xbd5880a7	-0.052857067
213	0x3cfc7bdc	0.03082078
214	0xbcd62fca	-0.026145834
215	0xbbd2bb61	-0.0064310287
216	0x3def4657	0.11683338
217	0x3e8303f7	0.25588962
218	0xbad79d10	-0.0016450007
219	0xbe1f947b	-0.15583985
220	0xbe0bd51c	-0.13655514
221	0xbdc8f2ff	-0.09811973
222	0x3c2b6242	0.010460438
223	0xbde9f3e2	-0.1142347
224	0xbb01969f	-0.0019773615
225	0xbe07c945	-0.13260372
226	0xbec4b1e2	-0.38416964
227	0xbe3c4767	-0.18386613
228	0x3d9f01a2	0.07763983
229	0x3d87b9dd	0.066272475
230	0xbd3552b1	-0.044268314
231	0xbc24a510	-0.01004912
232	0x3e72b146	0.23700437
233	0x3d148166	0.036256216
234	0xbd9b4c71	-0.075829394
235	0xbe0d258f	-0.13783859
236	0xbcccb0be	-0.024986621
237	0xbac17066	-0.0014758229
238	0x3cdc4b0c	0.026891254
239	0x3c419b85	0.011816864
240	0x3c16c3aa	0.009201923
241	0x3dae108e	0.08499251
242	0x3cb29634	0.021800138
243	0x3d105802	0.03524018
244	0x3e0fecb5	0.1405514
245	0x3d94c1e7	0.072635464
246	0x3d7ad337	0.061236586
247	0xbd348456	-0.044071518
248	0x3d1a5197	0.037675466
249	0xbcf69a9d	-0.030103022
250	0xbe1bb44a	-0.15205494
251	0xbbdf6b54	-0.0068182144
252	0xbde71518	-0.1128332
253	0xbe6fcdfc	-0.2341842
254	0xbd57e47b	-0.05270813
255	0x3cf8ceda	0.030372072

weight f4 [32]
0	0x3e5cb0e7	0.21551858
1	0x3e50022f	0.20313333
2	0x3e35cb91	0.17753436
3	0x3f046e75	0.51731044
4	0x3e39762a	0.18111482
5	0x3e9138fb	0.28363785
6	0x3e9fab71	0.31185487
7	0x3e3acbfe	0.1824188
8	0x3e336ec3	0.17522721
9	0x3e6c9628	0.23104155
10	0x3e1d7436	0.15376362
11	0x3e292773	0.16518955
12	0x3e0a5b30	0.13511348
13	0x3e97d6af	0.29655978
14	0x3e817f92	0.2529264
15	0x3e858347	0.2607672
16	0x3d4138cd	0.04717331
17	0x3e84a810	0.25909472
18	0x3db8b5cd	0.09019051
19	0x3de397e3	0.111129545
20	0x3e55055e	0.20802829
21	0x3e3dd1c3	0.18537049
22	0x387d0e25	6.0333074e-05
23	0x3e5108aa	0.20413461
24	0x3cc83364	0.024438567
25	0x3dead26b	0.11465915
26	0x3e3d59ca	0.18491283
27	0x3e62f561	0.22163917
28	0x3e9dd08d	0.30823174
29	0x3d8d709d	0.06906245
30	0x3d944de1	0.07241417
31	0x3673d44c	3.6333395e-06

bias f4 [32]
0	0x3dee233b	0.116278134
1	0x3da8bed4	0.082395226
2	0x3d401998	0.046899408
3	0xbf1753ae	-0.5911206
4	0x3e35c813	0.17752104
5	0x3e070232	0.13184431
6	0x3c8ae30e	0.016953971
7	0x3e8dc787	0.2769129
8	0x3d17ea0f	0.03708845
9	0x3dfb95c3	0.12284424
10	0xbc684da3	-0.014178666
11	0x3dbd299b	0.09236451
12	0x3d419335	0.04725953
13	0x3e92a04a	0.28637916
14	0x3eba91d1	0.36439374
15	0xbdff7178	-0.12472814
16	0xbd12bca5	-0.035824437
17	0x3e5f8b93	0.21830587
18	0x3e023cdd	0.1271853
19	0x3b6c86ad	0.0036091015
20	0x3e50e51f	0.20399903
21	0xbd1d4709	-0.038397823
22	0xb94ea802	-0.00019708279
23	0x3eea1aae	0.4572348
24	0xbb85d92e	-0.0040847277
25	0x3e4d6fe5	0.20062216
26	0xbd333f82	-0.043761738
27	0x3e33fb87	0.17576419
28	0x3e457c49	0.19285692
29	0x3e033751	0.1281407
30	0xbc714d7b	-0.014727945
31	0xb7d8c5e4	-2.5841357e-05

running_mean f4 [32]
0	0xbf339781	-0.7015305
1	0xbebd376a	-0.3695634
2	0xbe804ee2	-0.25060183
3	0x3f337eea	0.7011553
4	0x3ddcc439	0.10779614
5	0xbee55669	-0.44792488
6	0xbe318518	-0.17335927
7	0x3e3870d3	0.18011789
8	0x3b1ad04b	0.0023622687
9	0x3d0c75d6	0.034292065
10	0xbd1ac2f0	-0.037783563
11	0xbd99bba1	-0.075064905
12	0xbe114904	-0.1418801
13	0xbcd03cee	-0.025419679
14	0x3c3d5a5a	0.011557186
15	0xbc916c46	-0.017751824
16	0x3af4cd77	0.0018676956
17	0x3bbc6523	0.005749361
18	0xbd03f35b	-0.032214504
19	0x3d9f04a0	0.07764554
20	0x3c09836c	0.00839315
21	0x3d8e626a	0.06952365
22	0x3d3d1366	0.046161078
23	0x3b9e868d	0.004837817
24	0x3c0e7728	0.008695401
25	0xbb94ff4b	-0.004547035
26	0x3c2ce095	0.010551591
27	0x3d0753ba	0.033038832
28	0x3d2e8c70	0.0426144
29	0xbcbfcbd1	-0.023412617
30	0xbd60c65b	-0.054876667
31	0x3c35eb76	0.011103502

running_var f4 [32]
0	0x3e33c1df	0.17554425
1	0x3ec0a433	0.37625274
2	0x3e51b49a	0.2047905
3	0x3ecdac81	0.40170673
4	0x3e8f7ce0	0.2802496
5	0x3e450538	0.19240272
6	0x3e8f205a	0.2795437
7	0x3e5b7b4f	0.21433757
8	0x3f12baf0	0.57316494
9	0x3f80b665	1.0055662
10	0x3fb72e4c	1.4311004
11	0x4029784b	2.647967
12	0x413fbe1e	11.983915
13	0x40304642	2.7542882
14	0x40d7146d	6.7212434
15	0x400c4cda	2.1921906
16	0x3f4dd908	0.8040929
17	0x3f2e100e	0.6799325
18	0x40dda6d9	6.926617
19	0x4034bfac	2.8241987
20	0x405d5be5	3.4587338
21	0x4038595f	2.8804548
22	0x3fe2ade4	1.7709317
23	0x3f0e48dd	0.5557993
24	0x3fa1d80a	1.2644055
25	0x3ff9e1ee	1.9522073
26	0x40a0c35a	5.0238466
27	0x3f920bea	1.1409886
28	0x4125b728	10.357216
29	0x3f8dc7ef	1.107664
30	0x401cf167	2.452234
31	0x400303af	2.0470998
